{"config": {"name": "model_1", "output_layers": [["dense_1", 0, 0]], "input_layers": [["input_1", 0, 0]],
  "layers":
  [
    {"name": "input_1", "config": {"name": "input_1", "dtype": "float32", "batch_input_shape": [null, 224, 224, 3], "sparse": false}, "class_name": "InputLayer", "inbound_nodes": []},
    {"name": "conv2d_1", "config": {"kernel_initializer": {"config": {"scale": 1.0, "mode": "fan_avg", "distribution": "uniform", "seed": null}, "class_name": "VarianceScaling"}, "bias_initializer": {"config": {}, "class_name": "Zeros"}, "filters": 64, "kernel_size": [7, 7], "padding": "same", "kernel_regularizer": null, "bias_regularizer": null, "use_bias": true, "name": "conv2d_1", "activation": "linear", "activity_regularizer": null, "strides": [2, 2], "dilation_rate": [1, 1], "data_format": "channels_last", "kernel_constraint": null, "trainable": true, "bias_constraint": null}, "class_name": "Conv2D", "inbound_nodes": [[["input_1", 0, 0, {}]]]},
    {"name": "batch_normalization_1", "config": {"epsilon": 0.001, "momentum": 0.99, "beta_constraint": null, "scale": true, "gamma_constraint": null, "gamma_regularizer": null, "gamma_initializer": {"config": {}, "class_name": "Ones"}, "axis": -1, "name": "batch_normalization_1", "center": true, "beta_regularizer": null, "beta_initializer": {"config": {}, "class_name": "Zeros"}, "moving_mean_initializer": {"config": {}, "class_name": "Zeros"}, "moving_variance_initializer": {"config": {}, "class_name": "Ones"}, "trainable": true}, "class_name": "BatchNormalization", "inbound_nodes": [[["conv2d_1", 0, 0, {}]]]},
    {"name": "leaky_re_lu_1", "config": {"name": "leaky_re_lu_1", "alpha": 0.30000001192092896, "trainable": true}, "class_name": "LeakyReLU", "inbound_nodes": [[["batch_normalization_1", 0, 0, {}]]]},
    {"name": "max_pooling2d_1", "config": {"name": "max_pooling2d_1", "pool_size": [3, 3], "strides": [2, 2], "padding": "same", "data_format": "channels_last", "trainable": true}, "class_name": "MaxPooling2D", "inbound_nodes": [[["leaky_re_lu_1", 0, 0, {}]]]},
    {"name": "conv2d_2", "config": {"kernel_initializer": {"config": {"scale": 1.0, "mode": "fan_avg", "distribution": "uniform", "seed": null}, "class_name": "VarianceScaling"}, "bias_initializer": {"config": {}, "class_name": "Zeros"}, "filters": 128, "kernel_size": [1, 1], "padding": "same", "kernel_regularizer": null, "bias_regularizer": null, "use_bias": true, "name": "conv2d_2", "activation": "linear", "activity_regularizer": null, "strides": [1, 1], "dilation_rate": [1, 1], "data_format": "channels_last", "kernel_constraint": null, "trainable": true, "bias_constraint": null}, "class_name": "Conv2D", "inbound_nodes": [[["max_pooling2d_1", 0, 0, {}]]]},
    {"name": "batch_normalization_2", "config": {"epsilon": 0.001, "momentum": 0.99, "beta_constraint": null, "scale": true, "gamma_constraint": null, "gamma_regularizer": null, "gamma_initializer": {"config": {}, "class_name": "Ones"}, "axis": -1, "name": "batch_normalization_2", "center": true, "beta_regularizer": null, "beta_initializer": {"config": {}, "class_name": "Zeros"}, "moving_mean_initializer": {"config": {}, "class_name": "Zeros"}, "moving_variance_initializer": {"config": {}, "class_name": "Ones"}, "trainable": true}, "class_name": "BatchNormalization", "inbound_nodes": [[["conv2d_2", 0, 0, {}]]]},
    {"name": "leaky_re_lu_2", "config": {"name": "leaky_re_lu_2", "alpha": 0.30000001192092896, "trainable": true}, "class_name": "LeakyReLU", "inbound_nodes": [[["batch_normalization_2", 0, 0, {}]]]},
    {"name": "lambda_1", "config": {"name": "lambda_1", "output_shape_type": "raw", "output_shape": null, "arguments": {}, "function": ["4wEAAAAAAAAAAQAAAAcAAAATAAAAczgAAAB8AABkAABkAACFAgBkAABkAACFAgBkAABkAACFAgCI\nAQCIAAAUiAEAiAAAFIgAABeFAgBmBAAZUykBTqkAKQHaAXopAtoCX2TaAWpyAQAAAPoyRDovX0hL\nU0RhdGEvV3JhcHBlci9hdXRvTUwvdGVzdGluZy9SZXNOZXRfbW9kZWwucHnaCDxsYW1iZGE+KQAA\nAHMAAAAA\n", null, [4, 31]], "function_type": "lambda", "trainable": true}, "class_name": "Lambda", "inbound_nodes": [[["leaky_re_lu_2", 0, 0, {}]]]},
    {"name": "lambda_2", "config": {"name": "lambda_2", "output_shape_type": "raw", "output_shape": null, "arguments": {}, "function": ["4wEAAAAAAAAAAQAAAAcAAAATAAAAczgAAAB8AABkAABkAACFAgBkAABkAACFAgBkAABkAACFAgCI\nAQCIAAAUiAEAiAAAFIgAABeFAgBmBAAZUykBTqkAKQHaAXopAtoCX2TaAWpyAQAAAPoyRDovX0hL\nU0RhdGEvV3JhcHBlci9hdXRvTUwvdGVzdGluZy9SZXNOZXRfbW9kZWwucHnaCDxsYW1iZGE+KQAA\nAHMAAAAA\n", null, [4, 31]], "function_type": "lambda", "trainable": true}, "class_name": "Lambda", "inbound_nodes": [[["leaky_re_lu_2", 0, 0, {}]]]},
    {"name": "lambda_3", "config": {"name": "lambda_3", "output_shape_type": "raw", "output_shape": null, "arguments": {}, "function": ["4wEAAAAAAAAAAQAAAAcAAAATAAAAczgAAAB8AABkAABkAACFAgBkAABkAACFAgBkAABkAACFAgCI\nAQCIAAAUiAEAiAAAFIgAABeFAgBmBAAZUykBTqkAKQHaAXopAtoCX2TaAWpyAQAAAPoyRDovX0hL\nU0RhdGEvV3JhcHBlci9hdXRvTUwvdGVzdGluZy9SZXNOZXRfbW9kZWwucHnaCDxsYW1iZGE+KQAA\nAHMAAAAA\n", null, [4, 31]], "function_type": "lambda", "trainable": true}, "class_name": "Lambda", "inbound_nodes": [[["leaky_re_lu_2", 0, 0, {}]]]},
    {"name": "lambda_4", "config": {"name": "lambda_4", "output_shape_type": "raw", "output_shape": null, "arguments": {}, "function": ["4wEAAAAAAAAAAQAAAAcAAAATAAAAczgAAAB8AABkAABkAACFAgBkAABkAACFAgBkAABkAACFAgCI\nAQCIAAAUiAEAiAAAFIgAABeFAgBmBAAZUykBTqkAKQHaAXopAtoCX2TaAWpyAQAAAPoyRDovX0hL\nU0RhdGEvV3JhcHBlci9hdXRvTUwvdGVzdGluZy9SZXNOZXRfbW9kZWwucHnaCDxsYW1iZGE+KQAA\nAHMAAAAA\n", null, [4, 31]], "function_type": "lambda", "trainable": true}, "class_name": "Lambda", "inbound_nodes": [[["leaky_re_lu_2", 0, 0, {}]]]},
    {"name": "lambda_5", "config": {"name": "lambda_5", "output_shape_type": "raw", "output_shape": null, "arguments": {}, "function": ["4wEAAAAAAAAAAQAAAAcAAAATAAAAczgAAAB8AABkAABkAACFAgBkAABkAACFAgBkAABkAACFAgCI\nAQCIAAAUiAEAiAAAFIgAABeFAgBmBAAZUykBTqkAKQHaAXopAtoCX2TaAWpyAQAAAPoyRDovX0hL\nU0RhdGEvV3JhcHBlci9hdXRvTUwvdGVzdGluZy9SZXNOZXRfbW9kZWwucHnaCDxsYW1iZGE+KQAA\nAHMAAAAA\n", null, [4, 31]], "function_type": "lambda", "trainable": true}, "class_name": "Lambda", "inbound_nodes": [[["leaky_re_lu_2", 0, 0, {}]]]}, {"name": "lambda_6", "config": {"name": "lambda_6", "output_shape_type": "raw", "output_shape": null, "arguments": {}, "function": ["4wEAAAAAAAAAAQAAAAcAAAATAAAAczgAAAB8AABkAABkAACFAgBkAABkAACFAgBkAABkAACFAgCI\nAQCIAAAUiAEAiAAAFIgAABeFAgBmBAAZUykBTqkAKQHaAXopAtoCX2TaAWpyAQAAAPoyRDovX0hL\nU0RhdGEvV3JhcHBlci9hdXRvTUwvdGVzdGluZy9SZXNOZXRfbW9kZWwucHnaCDxsYW1iZGE+KQAA\nAHMAAAAA\n", null, [4, 31]], "function_type": "lambda", "trainable": true}, "class_name": "Lambda", "inbound_nodes": [[["leaky_re_lu_2", 0, 0, {}]]]}, {"name": "lambda_7", "config": {"name": "lambda_7", "output_shape_type": "raw", "output_shape": null, "arguments": {}, "function": ["4wEAAAAAAAAAAQAAAAcAAAATAAAAczgAAAB8AABkAABkAACFAgBkAABkAACFAgBkAABkAACFAgCI\nAQCIAAAUiAEAiAAAFIgAABeFAgBmBAAZUykBTqkAKQHaAXopAtoCX2TaAWpyAQAAAPoyRDovX0hL\nU0RhdGEvV3JhcHBlci9hdXRvTUwvdGVzdGluZy9SZXNOZXRfbW9kZWwucHnaCDxsYW1iZGE+KQAA\nAHMAAAAA\n", null, [4, 31]], "function_type": "lambda", "trainable": true}, "class_name": "Lambda", "inbound_nodes": [[["leaky_re_lu_2", 0, 0, {}]]]}, {"name": "lambda_8", "config": {"name": "lambda_8", "output_shape_type": "raw", "output_shape": null, "arguments": {}, "function": ["4wEAAAAAAAAAAQAAAAcAAAATAAAAczgAAAB8AABkAABkAACFAgBkAABkAACFAgBkAABkAACFAgCI\nAQCIAAAUiAEAiAAAFIgAABeFAgBmBAAZUykBTqkAKQHaAXopAtoCX2TaAWpyAQAAAPoyRDovX0hL\nU0RhdGEvV3JhcHBlci9hdXRvTUwvdGVzdGluZy9SZXNOZXRfbW9kZWwucHnaCDxsYW1iZGE+KQAA\nAHMAAAAA\n", null, [4, 31]], "function_type": "lambda", "trainable": true}, "class_name": "Lambda", "inbound_nodes": [[["leaky_re_lu_2", 0, 0, {}]]]}, {"name": "lambda_9", "config": {"name": "lambda_9", "output_shape_type": "raw", "output_shape": null, "arguments": {}, "function": ["4wEAAAAAAAAAAQAAAAcAAAATAAAAczgAAAB8AABkAABkAACFAgBkAABkAACFAgBkAABkAACFAgCI\nAQCIAAAUiAEAiAAAFIgAABeFAgBmBAAZUykBTqkAKQHaAXopAtoCX2TaAWpyAQAAAPoyRDovX0hL\nU0RhdGEvV3JhcHBlci9hdXRvTUwvdGVzdGluZy9SZXNOZXRfbW9kZWwucHnaCDxsYW1iZGE+KQAA\nAHMAAAAA\n", null, [4, 31]], "function_type": "lambda", "trainable": true}, "class_name": "Lambda", "inbound_nodes": [[["leaky_re_lu_2", 0, 0, {}]]]}, {"name": "lambda_10", "config": {"name": "lambda_10", "output_shape_type": "raw", "output_shape": null, "arguments": {}, "function": ["4wEAAAAAAAAAAQAAAAcAAAATAAAAczgAAAB8AABkAABkAACFAgBkAABkAACFAgBkAABkAACFAgCI\nAQCIAAAUiAEAiAAAFIgAABeFAgBmBAAZUykBTqkAKQHaAXopAtoCX2TaAWpyAQAAAPoyRDovX0hL\nU0RhdGEvV3JhcHBlci9hdXRvTUwvdGVzdGluZy9SZXNOZXRfbW9kZWwucHnaCDxsYW1iZGE+KQAA\nAHMAAAAA\n", null, [4, 31]], "function_type": "lambda", "trainable": true}, "class_name": "Lambda", "inbound_nodes": [[["leaky_re_lu_2", 0, 0, {}]]]}, {"name": "lambda_11", "config": {"name": "lambda_11", "output_shape_type": "raw", "output_shape": null, "arguments": {}, "function": ["4wEAAAAAAAAAAQAAAAcAAAATAAAAczgAAAB8AABkAABkAACFAgBkAABkAACFAgBkAABkAACFAgCI\nAQCIAAAUiAEAiAAAFIgAABeFAgBmBAAZUykBTqkAKQHaAXopAtoCX2TaAWpyAQAAAPoyRDovX0hL\nU0RhdGEvV3JhcHBlci9hdXRvTUwvdGVzdGluZy9SZXNOZXRfbW9kZWwucHnaCDxsYW1iZGE+KQAA\nAHMAAAAA\n", null, [4, 31]], "function_type": "lambda", "trainable": true}, "class_name": "Lambda", "inbound_nodes": [[["leaky_re_lu_2", 0, 0, {}]]]}, {"name": "lambda_12", "config": {"name": "lambda_12", "output_shape_type": "raw", "output_shape": null, "arguments": {}, "function": ["4wEAAAAAAAAAAQAAAAcAAAATAAAAczgAAAB8AABkAABkAACFAgBkAABkAACFAgBkAABkAACFAgCI\nAQCIAAAUiAEAiAAAFIgAABeFAgBmBAAZUykBTqkAKQHaAXopAtoCX2TaAWpyAQAAAPoyRDovX0hL\nU0RhdGEvV3JhcHBlci9hdXRvTUwvdGVzdGluZy9SZXNOZXRfbW9kZWwucHnaCDxsYW1iZGE+KQAA\nAHMAAAAA\n", null, [4, 31]], "function_type": "lambda", "trainable": true}, "class_name": "Lambda", "inbound_nodes": [[["leaky_re_lu_2", 0, 0, {}]]]}, {"name": "lambda_13", "config": {"name": "lambda_13", "output_shape_type": "raw", "output_shape": null, "arguments": {}, "function": ["4wEAAAAAAAAAAQAAAAcAAAATAAAAczgAAAB8AABkAABkAACFAgBkAABkAACFAgBkAABkAACFAgCI\nAQCIAAAUiAEAiAAAFIgAABeFAgBmBAAZUykBTqkAKQHaAXopAtoCX2TaAWpyAQAAAPoyRDovX0hL\nU0RhdGEvV3JhcHBlci9hdXRvTUwvdGVzdGluZy9SZXNOZXRfbW9kZWwucHnaCDxsYW1iZGE+KQAA\nAHMAAAAA\n", null, [4, 31]], "function_type": "lambda", "trainable": true}, "class_name": "Lambda", "inbound_nodes": [[["leaky_re_lu_2", 0, 0, {}]]]}, {"name": "lambda_14", "config": {"name": "lambda_14", "output_shape_type": "raw", "output_shape": null, "arguments": {}, "function": ["4wEAAAAAAAAAAQAAAAcAAAATAAAAczgAAAB8AABkAABkAACFAgBkAABkAACFAgBkAABkAACFAgCI\nAQCIAAAUiAEAiAAAFIgAABeFAgBmBAAZUykBTqkAKQHaAXopAtoCX2TaAWpyAQAAAPoyRDovX0hL\nU0RhdGEvV3JhcHBlci9hdXRvTUwvdGVzdGluZy9SZXNOZXRfbW9kZWwucHnaCDxsYW1iZGE+KQAA\nAHMAAAAA\n", null, [4, 31]], "function_type": "lambda", "trainable": true}, "class_name": "Lambda", "inbound_nodes": [[["leaky_re_lu_2", 0, 0, {}]]]}, {"name": "lambda_15", "config": {"name": "lambda_15", "output_shape_type": "raw", "output_shape": null, "arguments": {}, "function": ["4wEAAAAAAAAAAQAAAAcAAAATAAAAczgAAAB8AABkAABkAACFAgBkAABkAACFAgBkAABkAACFAgCI\nAQCIAAAUiAEAiAAAFIgAABeFAgBmBAAZUykBTqkAKQHaAXopAtoCX2TaAWpyAQAAAPoyRDovX0hL\nU0RhdGEvV3JhcHBlci9hdXRvTUwvdGVzdGluZy9SZXNOZXRfbW9kZWwucHnaCDxsYW1iZGE+KQAA\nAHMAAAAA\n", null, [4, 31]], "function_type": "lambda", "trainable": true}, "class_name": "Lambda", "inbound_nodes": [[["leaky_re_lu_2", 0, 0, {}]]]}, {"name": "lambda_16", "config": {"name": "lambda_16", "output_shape_type": "raw", "output_shape": null, "arguments": {}, "function": ["4wEAAAAAAAAAAQAAAAcAAAATAAAAczgAAAB8AABkAABkAACFAgBkAABkAACFAgBkAABkAACFAgCI\nAQCIAAAUiAEAiAAAFIgAABeFAgBmBAAZUykBTqkAKQHaAXopAtoCX2TaAWpyAQAAAPoyRDovX0hL\nU0RhdGEvV3JhcHBlci9hdXRvTUwvdGVzdGluZy9SZXNOZXRfbW9kZWwucHnaCDxsYW1iZGE+KQAA\nAHMAAAAA\n", null, [4, 31]], "function_type": "lambda", "trainable": true}, "class_name": "Lambda", "inbound_nodes": [[["leaky_re_lu_2", 0, 0, {}]]]}, {"name": "lambda_17", "config": {"name": "lambda_17", "output_shape_type": "raw", "output_shape": null, "arguments": {}, "function": ["4wEAAAAAAAAAAQAAAAcAAAATAAAAczgAAAB8AABkAABkAACFAgBkAABkAACFAgBkAABkAACFAgCI\nAQCIAAAUiAEAiAAAFIgAABeFAgBmBAAZUykBTqkAKQHaAXopAtoCX2TaAWpyAQAAAPoyRDovX0hL\nU0RhdGEvV3JhcHBlci9hdXRvTUwvdGVzdGluZy9SZXNOZXRfbW9kZWwucHnaCDxsYW1iZGE+KQAA\nAHMAAAAA\n", null, [4, 31]], "function_type": "lambda", "trainable": true}, "class_name": "Lambda", "inbound_nodes": [[["leaky_re_lu_2", 0, 0, {}]]]}, {"name": "lambda_18", "config": {"name": "lambda_18", "output_shape_type": "raw", "output_shape": null, "arguments": {}, "function": ["4wEAAAAAAAAAAQAAAAcAAAATAAAAczgAAAB8AABkAABkAACFAgBkAABkAACFAgBkAABkAACFAgCI\nAQCIAAAUiAEAiAAAFIgAABeFAgBmBAAZUykBTqkAKQHaAXopAtoCX2TaAWpyAQAAAPoyRDovX0hL\nU0RhdGEvV3JhcHBlci9hdXRvTUwvdGVzdGluZy9SZXNOZXRfbW9kZWwucHnaCDxsYW1iZGE+KQAA\nAHMAAAAA\n", null, [4, 31]], "function_type": "lambda", "trainable": true}, "class_name": "Lambda", "inbound_nodes": [[["leaky_re_lu_2", 0, 0, {}]]]}, {"name": "lambda_19", "config": {"name": "lambda_19", "output_shape_type": "raw", "output_shape": null, "arguments": {}, "function": ["4wEAAAAAAAAAAQAAAAcAAAATAAAAczgAAAB8AABkAABkAACFAgBkAABkAACFAgBkAABkAACFAgCI\nAQCIAAAUiAEAiAAAFIgAABeFAgBmBAAZUykBTqkAKQHaAXopAtoCX2TaAWpyAQAAAPoyRDovX0hL\nU0RhdGEvV3JhcHBlci9hdXRvTUwvdGVzdGluZy9SZXNOZXRfbW9kZWwucHnaCDxsYW1iZGE+KQAA\nAHMAAAAA\n", null, [4, 31]], "function_type": "lambda", "trainable": true}, "class_name": "Lambda", "inbound_nodes": [[["leaky_re_lu_2", 0, 0, {}]]]}, {"name": "lambda_20", "config": {"name": "lambda_20", "output_shape_type": "raw", "output_shape": null, "arguments": {}, "function": ["4wEAAAAAAAAAAQAAAAcAAAATAAAAczgAAAB8AABkAABkAACFAgBkAABkAACFAgBkAABkAACFAgCI\nAQCIAAAUiAEAiAAAFIgAABeFAgBmBAAZUykBTqkAKQHaAXopAtoCX2TaAWpyAQAAAPoyRDovX0hL\nU0RhdGEvV3JhcHBlci9hdXRvTUwvdGVzdGluZy9SZXNOZXRfbW9kZWwucHnaCDxsYW1iZGE+KQAA\nAHMAAAAA\n", null, [4, 31]], "function_type": "lambda", "trainable": true}, "class_name": "Lambda", "inbound_nodes": [[["leaky_re_lu_2", 0, 0, {}]]]}, {"name": "lambda_21", "config": {"name": "lambda_21", "output_shape_type": "raw", "output_shape": null, "arguments": {}, "function": ["4wEAAAAAAAAAAQAAAAcAAAATAAAAczgAAAB8AABkAABkAACFAgBkAABkAACFAgBkAABkAACFAgCI\nAQCIAAAUiAEAiAAAFIgAABeFAgBmBAAZUykBTqkAKQHaAXopAtoCX2TaAWpyAQAAAPoyRDovX0hL\nU0RhdGEvV3JhcHBlci9hdXRvTUwvdGVzdGluZy9SZXNOZXRfbW9kZWwucHnaCDxsYW1iZGE+KQAA\nAHMAAAAA\n", null, [4, 31]], "function_type": "lambda", "trainable": true}, "class_name": "Lambda", "inbound_nodes": [[["leaky_re_lu_2", 0, 0, {}]]]}, {"name": "lambda_22", "config": {"name": "lambda_22", "output_shape_type": "raw", "output_shape": null, "arguments": {}, "function": ["4wEAAAAAAAAAAQAAAAcAAAATAAAAczgAAAB8AABkAABkAACFAgBkAABkAACFAgBkAABkAACFAgCI\nAQCIAAAUiAEAiAAAFIgAABeFAgBmBAAZUykBTqkAKQHaAXopAtoCX2TaAWpyAQAAAPoyRDovX0hL\nU0RhdGEvV3JhcHBlci9hdXRvTUwvdGVzdGluZy9SZXNOZXRfbW9kZWwucHnaCDxsYW1iZGE+KQAA\nAHMAAAAA\n", null, [4, 31]], "function_type": "lambda", "trainable": true}, "class_name": "Lambda", "inbound_nodes": [[["leaky_re_lu_2", 0, 0, {}]]]}, {"name": "lambda_23", "config": {"name": "lambda_23", "output_shape_type": "raw", "output_shape": null, "arguments": {}, "function": ["4wEAAAAAAAAAAQAAAAcAAAATAAAAczgAAAB8AABkAABkAACFAgBkAABkAACFAgBkAABkAACFAgCI\nAQCIAAAUiAEAiAAAFIgAABeFAgBmBAAZUykBTqkAKQHaAXopAtoCX2TaAWpyAQAAAPoyRDovX0hL\nU0RhdGEvV3JhcHBlci9hdXRvTUwvdGVzdGluZy9SZXNOZXRfbW9kZWwucHnaCDxsYW1iZGE+KQAA\nAHMAAAAA\n", null, [4, 31]], "function_type": "lambda", "trainable": true}, "class_name": "Lambda", "inbound_nodes": [[["leaky_re_lu_2", 0, 0, {}]]]}, {"name": "lambda_24", "config": {"name": "lambda_24", "output_shape_type": "raw", "output_shape": null, "arguments": {}, "function": ["4wEAAAAAAAAAAQAAAAcAAAATAAAAczgAAAB8AABkAABkAACFAgBkAABkAACFAgBkAABkAACFAgCI\nAQCIAAAUiAEAiAAAFIgAABeFAgBmBAAZUykBTqkAKQHaAXopAtoCX2TaAWpyAQAAAPoyRDovX0hL\nU0RhdGEvV3JhcHBlci9hdXRvTUwvdGVzdGluZy9SZXNOZXRfbW9kZWwucHnaCDxsYW1iZGE+KQAA\nAHMAAAAA\n", null, [4, 31]], "function_type": "lambda", "trainable": true}, "class_name": "Lambda", "inbound_nodes": [[["leaky_re_lu_2", 0, 0, {}]]]}, {"name": "lambda_25", "config": {"name": "lambda_25", "output_shape_type": "raw", "output_shape": null, "arguments": {}, "function": ["4wEAAAAAAAAAAQAAAAcAAAATAAAAczgAAAB8AABkAABkAACFAgBkAABkAACFAgBkAABkAACFAgCI\nAQCIAAAUiAEAiAAAFIgAABeFAgBmBAAZUykBTqkAKQHaAXopAtoCX2TaAWpyAQAAAPoyRDovX0hL\nU0RhdGEvV3JhcHBlci9hdXRvTUwvdGVzdGluZy9SZXNOZXRfbW9kZWwucHnaCDxsYW1iZGE+KQAA\nAHMAAAAA\n", null, [4, 31]], "function_type": "lambda", "trainable": true}, "class_name": "Lambda", "inbound_nodes": [[["leaky_re_lu_2", 0, 0, {}]]]}, {"name": "lambda_26", "config": {"name": "lambda_26", "output_shape_type": "raw", "output_shape": null, "arguments": {}, "function": ["4wEAAAAAAAAAAQAAAAcAAAATAAAAczgAAAB8AABkAABkAACFAgBkAABkAACFAgBkAABkAACFAgCI\nAQCIAAAUiAEAiAAAFIgAABeFAgBmBAAZUykBTqkAKQHaAXopAtoCX2TaAWpyAQAAAPoyRDovX0hL\nU0RhdGEvV3JhcHBlci9hdXRvTUwvdGVzdGluZy9SZXNOZXRfbW9kZWwucHnaCDxsYW1iZGE+KQAA\nAHMAAAAA\n", null, [4, 31]], "function_type": "lambda", "trainable": true}, "class_name": "Lambda", "inbound_nodes": [[["leaky_re_lu_2", 0, 0, {}]]]}, {"name": "lambda_27", "config": {"name": "lambda_27", "output_shape_type": "raw", "output_shape": null, "arguments": {}, "function": ["4wEAAAAAAAAAAQAAAAcAAAATAAAAczgAAAB8AABkAABkAACFAgBkAABkAACFAgBkAABkAACFAgCI\nAQCIAAAUiAEAiAAAFIgAABeFAgBmBAAZUykBTqkAKQHaAXopAtoCX2TaAWpyAQAAAPoyRDovX0hL\nU0RhdGEvV3JhcHBlci9hdXRvTUwvdGVzdGluZy9SZXNOZXRfbW9kZWwucHnaCDxsYW1iZGE+KQAA\nAHMAAAAA\n", null, [4, 31]], "function_type": "lambda", "trainable": true}, "class_name": "Lambda", "inbound_nodes": [[["leaky_re_lu_2", 0, 0, {}]]]}, {"name": "lambda_28", "config": {"name": "lambda_28", "output_shape_type": "raw", "output_shape": null, "arguments": {}, "function": ["4wEAAAAAAAAAAQAAAAcAAAATAAAAczgAAAB8AABkAABkAACFAgBkAABkAACFAgBkAABkAACFAgCI\nAQCIAAAUiAEAiAAAFIgAABeFAgBmBAAZUykBTqkAKQHaAXopAtoCX2TaAWpyAQAAAPoyRDovX0hL\nU0RhdGEvV3JhcHBlci9hdXRvTUwvdGVzdGluZy9SZXNOZXRfbW9kZWwucHnaCDxsYW1iZGE+KQAA\nAHMAAAAA\n", null, [4, 31]], "function_type": "lambda", "trainable": true}, "class_name": "Lambda", "inbound_nodes": [[["leaky_re_lu_2", 0, 0, {}]]]}, {"name": "lambda_29", "config": {"name": "lambda_29", "output_shape_type": "raw", "output_shape": null, "arguments": {}, "function": ["4wEAAAAAAAAAAQAAAAcAAAATAAAAczgAAAB8AABkAABkAACFAgBkAABkAACFAgBkAABkAACFAgCI\nAQCIAAAUiAEAiAAAFIgAABeFAgBmBAAZUykBTqkAKQHaAXopAtoCX2TaAWpyAQAAAPoyRDovX0hL\nU0RhdGEvV3JhcHBlci9hdXRvTUwvdGVzdGluZy9SZXNOZXRfbW9kZWwucHnaCDxsYW1iZGE+KQAA\nAHMAAAAA\n", null, [4, 31]], "function_type": "lambda", "trainable": true}, "class_name": "Lambda", "inbound_nodes": [[["leaky_re_lu_2", 0, 0, {}]]]}, {"name": "lambda_30", "config": {"name": "lambda_30", "output_shape_type": "raw", "output_shape": null, "arguments": {}, "function": ["4wEAAAAAAAAAAQAAAAcAAAATAAAAczgAAAB8AABkAABkAACFAgBkAABkAACFAgBkAABkAACFAgCI\nAQCIAAAUiAEAiAAAFIgAABeFAgBmBAAZUykBTqkAKQHaAXopAtoCX2TaAWpyAQAAAPoyRDovX0hL\nU0RhdGEvV3JhcHBlci9hdXRvTUwvdGVzdGluZy9SZXNOZXRfbW9kZWwucHnaCDxsYW1iZGE+KQAA\nAHMAAAAA\n", null, [4, 31]], "function_type": "lambda", "trainable": true}, "class_name": "Lambda", "inbound_nodes": [[["leaky_re_lu_2", 0, 0, {}]]]}, {"name": "lambda_31", "config": {"name": "lambda_31", "output_shape_type": "raw", "output_shape": null, "arguments": {}, "function": ["4wEAAAAAAAAAAQAAAAcAAAATAAAAczgAAAB8AABkAABkAACFAgBkAABkAACFAgBkAABkAACFAgCI\nAQCIAAAUiAEAiAAAFIgAABeFAgBmBAAZUykBTqkAKQHaAXopAtoCX2TaAWpyAQAAAPoyRDovX0hL\nU0RhdGEvV3JhcHBlci9hdXRvTUwvdGVzdGluZy9SZXNOZXRfbW9kZWwucHnaCDxsYW1iZGE+KQAA\nAHMAAAAA\n", null, [4, 31]], "function_type": "lambda", "trainable": true}, "class_name": "Lambda", "inbound_nodes": [[["leaky_re_lu_2", 0, 0, {}]]]}, {"name": "lambda_32", "config": {"name": "lambda_32", "output_shape_type": "raw", "output_shape": null, "arguments": {}, "function": ["4wEAAAAAAAAAAQAAAAcAAAATAAAAczgAAAB8AABkAABkAACFAgBkAABkAACFAgBkAABkAACFAgCI\nAQCIAAAUiAEAiAAAFIgAABeFAgBmBAAZUykBTqkAKQHaAXopAtoCX2TaAWpyAQAAAPoyRDovX0hL\nU0RhdGEvV3JhcHBlci9hdXRvTUwvdGVzdGluZy9SZXNOZXRfbW9kZWwucHnaCDxsYW1iZGE+KQAA\nAHMAAAAA\n", null, [4, 31]], "function_type": "lambda", "trainable": true}, "class_name": "Lambda", "inbound_nodes": [[["leaky_re_lu_2", 0, 0, {}]]]}, {"name": "conv2d_3", "config": {"kernel_initializer": {"config": {"scale": 1.0, "mode": "fan_avg", "distribution": "uniform", "seed": null}, "class_name": "VarianceScaling"}, "bias_initializer": {"config": {}, "class_name": "Zeros"}, "filters": 4, "kernel_size": [3, 3], "padding": "same", "kernel_regularizer": null, "bias_regularizer": null, "use_bias": true, "name": "conv2d_3", "activation": "linear", "activity_regularizer": null, "strides": [1, 1], "dilation_rate": [1, 1], "data_format": "channels_last", "kernel_constraint": null, "trainable": true, "bias_constraint": null}, "class_name": "Conv2D", "inbound_nodes": [[["lambda_1", 0, 0, {}]]]}, {"name": "conv2d_4", "config": {"kernel_initializer": {"config": {"scale": 1.0, "mode": "fan_avg", "distribution": "uniform", "seed": null}, "class_name": "VarianceScaling"}, "bias_initializer": {"config": {}, "class_name": "Zeros"}, "filters": 4, "kernel_size": [3, 3], "padding": "same", "kernel_regularizer": null, "bias_regularizer": null, "use_bias": true, "name": "conv2d_4", "activation": "linear", "activity_regularizer": null, "strides": [1, 1], "dilation_rate": [1, 1], "data_format": "channels_last", "kernel_constraint": null, "trainable": true, "bias_constraint": null}, "class_name": "Conv2D", "inbound_nodes": [[["lambda_2", 0, 0, {}]]]}, {"name": "conv2d_5", "config": {"kernel_initializer": {"config": {"scale": 1.0, "mode": "fan_avg", "distribution": "uniform", "seed": null}, "class_name": "VarianceScaling"}, "bias_initializer": {"config": {}, "class_name": "Zeros"}, "filters": 4, "kernel_size": [3, 3], "padding": "same", "kernel_regularizer": null, "bias_regularizer": null, "use_bias": true, "name": "conv2d_5", "activation": "linear", "activity_regularizer": null, "strides": [1, 1], "dilation_rate": [1, 1], "data_format": "channels_last", "kernel_constraint": null, "trainable": true, "bias_constraint": null}, "class_name": "Conv2D", "inbound_nodes": [[["lambda_3", 0, 0, {}]]]}, {"name": "conv2d_6", "config": {"kernel_initializer": {"config": {"scale": 1.0, "mode": "fan_avg", "distribution": "uniform", "seed": null}, "class_name": "VarianceScaling"}, "bias_initializer": {"config": {}, "class_name": "Zeros"}, "filters": 4, "kernel_size": [3, 3], "padding": "same", "kernel_regularizer": null, "bias_regularizer": null, "use_bias": true, "name": "conv2d_6", "activation": "linear", "activity_regularizer": null, "strides": [1, 1], "dilation_rate": [1, 1], "data_format": "channels_last", "kernel_constraint": null, "trainable": true, "bias_constraint": null}, "class_name": "Conv2D", "inbound_nodes": [[["lambda_4", 0, 0, {}]]]}, {"name": "conv2d_7", "config": {"kernel_initializer": {"config": {"scale": 1.0, "mode": "fan_avg", "distribution": "uniform", "seed": null}, "class_name": "VarianceScaling"}, "bias_initializer": {"config": {}, "class_name": "Zeros"}, "filters": 4, "kernel_size": [3, 3], "padding": "same", "kernel_regularizer": null, "bias_regularizer": null, "use_bias": true, "name": "conv2d_7", "activation": "linear", "activity_regularizer": null, "strides": [1, 1], "dilation_rate": [1, 1], "data_format": "channels_last", "kernel_constraint": null, "trainable": true, "bias_constraint": null}, "class_name": "Conv2D", "inbound_nodes": [[["lambda_5", 0, 0, {}]]]}, {"name": "conv2d_8", "config": {"kernel_initializer": {"config": {"scale": 1.0, "mode": "fan_avg", "distribution": "uniform", "seed": null}, "class_name": "VarianceScaling"}, "bias_initializer": {"config": {}, "class_name": "Zeros"}, "filters": 4, "kernel_size": [3, 3], "padding": "same", "kernel_regularizer": null, "bias_regularizer": null, "use_bias": true, "name": "conv2d_8", "activation": "linear", "activity_regularizer": null, "strides": [1, 1], "dilation_rate": [1, 1], "data_format": "channels_last", "kernel_constraint": null, "trainable": true, "bias_constraint": null}, "class_name": "Conv2D", "inbound_nodes": [[["lambda_6", 0, 0, {}]]]}, {"name": "conv2d_9", "config": {"kernel_initializer": {"config": {"scale": 1.0, "mode": "fan_avg", "distribution": "uniform", "seed": null}, "class_name": "VarianceScaling"}, "bias_initializer": {"config": {}, "class_name": "Zeros"}, "filters": 4, "kernel_size": [3, 3], "padding": "same", "kernel_regularizer": null, "bias_regularizer": null, "use_bias": true, "name": "conv2d_9", "activation": "linear", "activity_regularizer": null, "strides": [1, 1], "dilation_rate": [1, 1], "data_format": "channels_last", "kernel_constraint": null, "trainable": true, "bias_constraint": null}, "class_name": "Conv2D", "inbound_nodes": [[["lambda_7", 0, 0, {}]]]}, {"name": "conv2d_10", "config": {"kernel_initializer": {"config": {"scale": 1.0, "mode": "fan_avg", "distribution": "uniform", "seed": null}, "class_name": "VarianceScaling"}, "bias_initializer": {"config": {}, "class_name": "Zeros"}, "filters": 4, "kernel_size": [3, 3], "padding": "same", "kernel_regularizer": null, "bias_regularizer": null, "use_bias": true, "name": "conv2d_10", "activation": "linear", "activity_regularizer": null, "strides": [1, 1], "dilation_rate": [1, 1], "data_format": "channels_last", "kernel_constraint": null, "trainable": true, "bias_constraint": null}, "class_name": "Conv2D", "inbound_nodes": [[["lambda_8", 0, 0, {}]]]}, {"name": "conv2d_11", "config": {"kernel_initializer": {"config": {"scale": 1.0, "mode": "fan_avg", "distribution": "uniform", "seed": null}, "class_name": "VarianceScaling"}, "bias_initializer": {"config": {}, "class_name": "Zeros"}, "filters": 4, "kernel_size": [3, 3], "padding": "same", "kernel_regularizer": null, "bias_regularizer": null, "use_bias": true, "name": "conv2d_11", "activation": "linear", "activity_regularizer": null, "strides": [1, 1], "dilation_rate": [1, 1], "data_format": "channels_last", "kernel_constraint": null, "trainable": true, "bias_constraint": null}, "class_name": "Conv2D", "inbound_nodes": [[["lambda_9", 0, 0, {}]]]}, {"name": "conv2d_12", "config": {"kernel_initializer": {"config": {"scale": 1.0, "mode": "fan_avg", "distribution": "uniform", "seed": null}, "class_name": "VarianceScaling"}, "bias_initializer": {"config": {}, "class_name": "Zeros"}, "filters": 4, "kernel_size": [3, 3], "padding": "same", "kernel_regularizer": null, "bias_regularizer": null, "use_bias": true, "name": "conv2d_12", "activation": "linear", "activity_regularizer": null, "strides": [1, 1], "dilation_rate": [1, 1], "data_format": "channels_last", "kernel_constraint": null, "trainable": true, "bias_constraint": null}, "class_name": "Conv2D", "inbound_nodes": [[["lambda_10", 0, 0, {}]]]}, {"name": "conv2d_13", "config": {"kernel_initializer": {"config": {"scale": 1.0, "mode": "fan_avg", "distribution": "uniform", "seed": null}, "class_name": "VarianceScaling"}, "bias_initializer": {"config": {}, "class_name": "Zeros"}, "filters": 4, "kernel_size": [3, 3], "padding": "same", "kernel_regularizer": null, "bias_regularizer": null, "use_bias": true, "name": "conv2d_13", "activation": "linear", "activity_regularizer": null, "strides": [1, 1], "dilation_rate": [1, 1], "data_format": "channels_last", "kernel_constraint": null, "trainable": true, "bias_constraint": null}, "class_name": "Conv2D", "inbound_nodes": [[["lambda_11", 0, 0, {}]]]}, {"name": "conv2d_14", "config": {"kernel_initializer": {"config": {"scale": 1.0, "mode": "fan_avg", "distribution": "uniform", "seed": null}, "class_name": "VarianceScaling"}, "bias_initializer": {"config": {}, "class_name": "Zeros"}, "filters": 4, "kernel_size": [3, 3], "padding": "same", "kernel_regularizer": null, "bias_regularizer": null, "use_bias": true, "name": "conv2d_14", "activation": "linear", "activity_regularizer": null, "strides": [1, 1], "dilation_rate": [1, 1], "data_format": "channels_last", "kernel_constraint": null, "trainable": true, "bias_constraint": null}, "class_name": "Conv2D", "inbound_nodes": [[["lambda_12", 0, 0, {}]]]}, {"name": "conv2d_15", "config": {"kernel_initializer": {"config": {"scale": 1.0, "mode": "fan_avg", "distribution": "uniform", "seed": null}, "class_name": "VarianceScaling"}, "bias_initializer": {"config": {}, "class_name": "Zeros"}, "filters": 4, "kernel_size": [3, 3], "padding": "same", "kernel_regularizer": null, "bias_regularizer": null, "use_bias": true, "name": "conv2d_15", "activation": "linear", "activity_regularizer": null, "strides": [1, 1], "dilation_rate": [1, 1], "data_format": "channels_last", "kernel_constraint": null, "trainable": true, "bias_constraint": null}, "class_name": "Conv2D", "inbound_nodes": [[["lambda_13", 0, 0, {}]]]}, {"name": "conv2d_16", "config": {"kernel_initializer": {"config": {"scale": 1.0, "mode": "fan_avg", "distribution": "uniform", "seed": null}, "class_name": "VarianceScaling"}, "bias_initializer": {"config": {}, "class_name": "Zeros"}, "filters": 4, "kernel_size": [3, 3], "padding": "same", "kernel_regularizer": null, "bias_regularizer": null, "use_bias": true, "name": "conv2d_16", "activation": "linear", "activity_regularizer": null, "strides": [1, 1], "dilation_rate": [1, 1], "data_format": "channels_last", "kernel_constraint": null, "trainable": true, "bias_constraint": null}, "class_name": "Conv2D", "inbound_nodes": [[["lambda_14", 0, 0, {}]]]}, {"name": "conv2d_17", "config": {"kernel_initializer": {"config": {"scale": 1.0, "mode": "fan_avg", "distribution": "uniform", "seed": null}, "class_name": "VarianceScaling"}, "bias_initializer": {"config": {}, "class_name": "Zeros"}, "filters": 4, "kernel_size": [3, 3], "padding": "same", "kernel_regularizer": null, "bias_regularizer": null, "use_bias": true, "name": "conv2d_17", "activation": "linear", "activity_regularizer": null, "strides": [1, 1], "dilation_rate": [1, 1], "data_format": "channels_last", "kernel_constraint": null, "trainable": true, "bias_constraint": null}, "class_name": "Conv2D", "inbound_nodes": [[["lambda_15", 0, 0, {}]]]}, {"name": "conv2d_18", "config": {"kernel_initializer": {"config": {"scale": 1.0, "mode": "fan_avg", "distribution": "uniform", "seed": null}, "class_name": "VarianceScaling"}, "bias_initializer": {"config": {}, "class_name": "Zeros"}, "filters": 4, "kernel_size": [3, 3], "padding": "same", "kernel_regularizer": null, "bias_regularizer": null, "use_bias": true, "name": "conv2d_18", "activation": "linear", "activity_regularizer": null, "strides": [1, 1], "dilation_rate": [1, 1], "data_format": "channels_last", "kernel_constraint": null, "trainable": true, "bias_constraint": null}, "class_name": "Conv2D", "inbound_nodes": [[["lambda_16", 0, 0, {}]]]}, {"name": "conv2d_19", "config": {"kernel_initializer": {"config": {"scale": 1.0, "mode": "fan_avg", "distribution": "uniform", "seed": null}, "class_name": "VarianceScaling"}, "bias_initializer": {"config": {}, "class_name": "Zeros"}, "filters": 4, "kernel_size": [3, 3], "padding": "same", "kernel_regularizer": null, "bias_regularizer": null, "use_bias": true, "name": "conv2d_19", "activation": "linear", "activity_regularizer": null, "strides": [1, 1], "dilation_rate": [1, 1], "data_format": "channels_last", "kernel_constraint": null, "trainable": true, "bias_constraint": null}, "class_name": "Conv2D", "inbound_nodes": [[["lambda_17", 0, 0, {}]]]}, {"name": "conv2d_20", "config": {"kernel_initializer": {"config": {"scale": 1.0, "mode": "fan_avg", "distribution": "uniform", "seed": null}, "class_name": "VarianceScaling"}, "bias_initializer": {"config": {}, "class_name": "Zeros"}, "filters": 4, "kernel_size": [3, 3], "padding": "same", "kernel_regularizer": null, "bias_regularizer": null, "use_bias": true, "name": "conv2d_20", "activation": "linear", "activity_regularizer": null, "strides": [1, 1], "dilation_rate": [1, 1], "data_format": "channels_last", "kernel_constraint": null, "trainable": true, "bias_constraint": null}, "class_name": "Conv2D", "inbound_nodes": [[["lambda_18", 0, 0, {}]]]}, {"name": "conv2d_21", "config": {"kernel_initializer": {"config": {"scale": 1.0, "mode": "fan_avg", "distribution": "uniform", "seed": null}, "class_name": "VarianceScaling"}, "bias_initializer": {"config": {}, "class_name": "Zeros"}, "filters": 4, "kernel_size": [3, 3], "padding": "same", "kernel_regularizer": null, "bias_regularizer": null, "use_bias": true, "name": "conv2d_21", "activation": "linear", "activity_regularizer": null, "strides": [1, 1], "dilation_rate": [1, 1], "data_format": "channels_last", "kernel_constraint": null, "trainable": true, "bias_constraint": null}, "class_name": "Conv2D", "inbound_nodes": [[["lambda_19", 0, 0, {}]]]}, {"name": "conv2d_22", "config": {"kernel_initializer": {"config": {"scale": 1.0, "mode": "fan_avg", "distribution": "uniform", "seed": null}, "class_name": "VarianceScaling"}, "bias_initializer": {"config": {}, "class_name": "Zeros"}, "filters": 4, "kernel_size": [3, 3], "padding": "same", "kernel_regularizer": null, "bias_regularizer": null, "use_bias": true, "name": "conv2d_22", "activation": "linear", "activity_regularizer": null, "strides": [1, 1], "dilation_rate": [1, 1], "data_format": "channels_last", "kernel_constraint": null, "trainable": true, "bias_constraint": null}, "class_name": "Conv2D", "inbound_nodes": [[["lambda_20", 0, 0, {}]]]}, {"name": "conv2d_23", "config": {"kernel_initializer": {"config": {"scale": 1.0, "mode": "fan_avg", "distribution": "uniform", "seed": null}, "class_name": "VarianceScaling"}, "bias_initializer": {"config": {}, "class_name": "Zeros"}, "filters": 4, "kernel_size": [3, 3], "padding": "same", "kernel_regularizer": null, "bias_regularizer": null, "use_bias": true, "name": "conv2d_23", "activation": "linear", "activity_regularizer": null, "strides": [1, 1], "dilation_rate": [1, 1], "data_format": "channels_last", "kernel_constraint": null, "trainable": true, "bias_constraint": null}, "class_name": "Conv2D", "inbound_nodes": [[["lambda_21", 0, 0, {}]]]}, {"name": "conv2d_24", "config": {"kernel_initializer": {"config": {"scale": 1.0, "mode": "fan_avg", "distribution": "uniform", "seed": null}, "class_name": "VarianceScaling"}, "bias_initializer": {"config": {}, "class_name": "Zeros"}, "filters": 4, "kernel_size": [3, 3], "padding": "same", "kernel_regularizer": null, "bias_regularizer": null, "use_bias": true, "name": "conv2d_24", "activation": "linear", "activity_regularizer": null, "strides": [1, 1], "dilation_rate": [1, 1], "data_format": "channels_last", "kernel_constraint": null, "trainable": true, "bias_constraint": null}, "class_name": "Conv2D", "inbound_nodes": [[["lambda_22", 0, 0, {}]]]}, {"name": "conv2d_25", "config": {"kernel_initializer": {"config": {"scale": 1.0, "mode": "fan_avg", "distribution": "uniform", "seed": null}, "class_name": "VarianceScaling"}, "bias_initializer": {"config": {}, "class_name": "Zeros"}, "filters": 4, "kernel_size": [3, 3], "padding": "same", "kernel_regularizer": null, "bias_regularizer": null, "use_bias": true, "name": "conv2d_25", "activation": "linear", "activity_regularizer": null, "strides": [1, 1], "dilation_rate": [1, 1], "data_format": "channels_last", "kernel_constraint": null, "trainable": true, "bias_constraint": null}, "class_name": "Conv2D", "inbound_nodes": [[["lambda_23", 0, 0, {}]]]}, {"name": "conv2d_26", "config": {"kernel_initializer": {"config": {"scale": 1.0, "mode": "fan_avg", "distribution": "uniform", "seed": null}, "class_name": "VarianceScaling"}, "bias_initializer": {"config": {}, "class_name": "Zeros"}, "filters": 4, "kernel_size": [3, 3], "padding": "same", "kernel_regularizer": null, "bias_regularizer": null, "use_bias": true, "name": "conv2d_26", "activation": "linear", "activity_regularizer": null, "strides": [1, 1], "dilation_rate": [1, 1], "data_format": "channels_last", "kernel_constraint": null, "trainable": true, "bias_constraint": null}, "class_name": "Conv2D", "inbound_nodes": [[["lambda_24", 0, 0, {}]]]}, {"name": "conv2d_27", "config": {"kernel_initializer": {"config": {"scale": 1.0, "mode": "fan_avg", "distribution": "uniform", "seed": null}, "class_name": "VarianceScaling"}, "bias_initializer": {"config": {}, "class_name": "Zeros"}, "filters": 4, "kernel_size": [3, 3], "padding": "same", "kernel_regularizer": null, "bias_regularizer": null, "use_bias": true, "name": "conv2d_27", "activation": "linear", "activity_regularizer": null, "strides": [1, 1], "dilation_rate": [1, 1], "data_format": "channels_last", "kernel_constraint": null, "trainable": true, "bias_constraint": null}, "class_name": "Conv2D", "inbound_nodes": [[["lambda_25", 0, 0, {}]]]}, {"name": "conv2d_28", "config": {"kernel_initializer": {"config": {"scale": 1.0, "mode": "fan_avg", "distribution": "uniform", "seed": null}, "class_name": "VarianceScaling"}, "bias_initializer": {"config": {}, "class_name": "Zeros"}, "filters": 4, "kernel_size": [3, 3], "padding": "same", "kernel_regularizer": null, "bias_regularizer": null, "use_bias": true, "name": "conv2d_28", "activation": "linear", "activity_regularizer": null, "strides": [1, 1], "dilation_rate": [1, 1], "data_format": "channels_last", "kernel_constraint": null, "trainable": true, "bias_constraint": null}, "class_name": "Conv2D", "inbound_nodes": [[["lambda_26", 0, 0, {}]]]}, {"name": "conv2d_29", "config": {"kernel_initializer": {"config": {"scale": 1.0, "mode": "fan_avg", "distribution": "uniform", "seed": null}, "class_name": "VarianceScaling"}, "bias_initializer": {"config": {}, "class_name": "Zeros"}, "filters": 4, "kernel_size": [3, 3], "padding": "same", "kernel_regularizer": null, "bias_regularizer": null, "use_bias": true, "name": "conv2d_29", "activation": "linear", "activity_regularizer": null, "strides": [1, 1], "dilation_rate": [1, 1], "data_format": "channels_last", "kernel_constraint": null, "trainable": true, "bias_constraint": null}, "class_name": "Conv2D", "inbound_nodes": [[["lambda_27", 0, 0, {}]]]}, {"name": "conv2d_30", "config": {"kernel_initializer": {"config": {"scale": 1.0, "mode": "fan_avg", "distribution": "uniform", "seed": null}, "class_name": "VarianceScaling"}, "bias_initializer": {"config": {}, "class_name": "Zeros"}, "filters": 4, "kernel_size": [3, 3], "padding": "same", "kernel_regularizer": null, "bias_regularizer": null, "use_bias": true, "name": "conv2d_30", "activation": "linear", "activity_regularizer": null, "strides": [1, 1], "dilation_rate": [1, 1], "data_format": "channels_last", "kernel_constraint": null, "trainable": true, "bias_constraint": null}, "class_name": "Conv2D", "inbound_nodes": [[["lambda_28", 0, 0, {}]]]}, {"name": "conv2d_31", "config": {"kernel_initializer": {"config": {"scale": 1.0, "mode": "fan_avg", "distribution": "uniform", "seed": null}, "class_name": "VarianceScaling"}, "bias_initializer": {"config": {}, "class_name": "Zeros"}, "filters": 4, "kernel_size": [3, 3], "padding": "same", "kernel_regularizer": null, "bias_regularizer": null, "use_bias": true, "name": "conv2d_31", "activation": "linear", "activity_regularizer": null, "strides": [1, 1], "dilation_rate": [1, 1], "data_format": "channels_last", "kernel_constraint": null, "trainable": true, "bias_constraint": null}, "class_name": "Conv2D", "inbound_nodes": [[["lambda_29", 0, 0, {}]]]}, {"name": "conv2d_32", "config": {"kernel_initializer": {"config": {"scale": 1.0, "mode": "fan_avg", "distribution": "uniform", "seed": null}, "class_name": "VarianceScaling"}, "bias_initializer": {"config": {}, "class_name": "Zeros"}, "filters": 4, "kernel_size": [3, 3], "padding": "same", "kernel_regularizer": null, "bias_regularizer": null, "use_bias": true, "name": "conv2d_32", "activation": "linear", "activity_regularizer": null, "strides": [1, 1], "dilation_rate": [1, 1], "data_format": "channels_last", "kernel_constraint": null, "trainable": true, "bias_constraint": null}, "class_name": "Conv2D", "inbound_nodes": [[["lambda_30", 0, 0, {}]]]}, {"name": "conv2d_33", "config": {"kernel_initializer": {"config": {"scale": 1.0, "mode": "fan_avg", "distribution": "uniform", "seed": null}, "class_name": "VarianceScaling"}, "bias_initializer": {"config": {}, "class_name": "Zeros"}, "filters": 4, "kernel_size": [3, 3], "padding": "same", "kernel_regularizer": null, "bias_regularizer": null, "use_bias": true, "name": "conv2d_33", "activation": "linear", "activity_regularizer": null, "strides": [1, 1], "dilation_rate": [1, 1], "data_format": "channels_last", "kernel_constraint": null, "trainable": true, "bias_constraint": null}, "class_name": "Conv2D", "inbound_nodes": [[["lambda_31", 0, 0, {}]]]}, {"name": "conv2d_34", "config": {"kernel_initializer": {"config": {"scale": 1.0, "mode": "fan_avg", "distribution": "uniform", "seed": null}, "class_name": "VarianceScaling"}, "bias_initializer": {"config": {}, "class_name": "Zeros"}, "filters": 4, "kernel_size": [3, 3], "padding": "same", "kernel_regularizer": null, "bias_regularizer": null, "use_bias": true, "name": "conv2d_34", "activation": "linear", "activity_regularizer": null, "strides": [1, 1], "dilation_rate": [1, 1], "data_format": "channels_last", "kernel_constraint": null, "trainable": true, "bias_constraint": null}, "class_name": "Conv2D", "inbound_nodes": [[["lambda_32", 0, 0, {}]]]}, {"name": "concatenate_1", "config": {"name": "concatenate_1", "trainable": true, "axis": -1}, "class_name": "Concatenate", "inbound_nodes": [[["conv2d_3", 0, 0, {}], ["conv2d_4", 0, 0, {}], ["conv2d_5", 0, 0, {}], ["conv2d_6", 0, 0, {}], ["conv2d_7", 0, 0, {}], ["conv2d_8", 0, 0, {}], ["conv2d_9", 0, 0, {}], ["conv2d_10", 0, 0, {}], ["conv2d_11", 0, 0, {}], ["conv2d_12", 0, 0, {}], ["conv2d_13", 0, 0, {}], ["conv2d_14", 0, 0, {}], ["conv2d_15", 0, 0, {}], ["conv2d_16", 0, 0, {}], ["conv2d_17", 0, 0, {}], ["conv2d_18", 0, 0, {}], ["conv2d_19", 0, 0, {}], ["conv2d_20", 0, 0, {}], ["conv2d_21", 0, 0, {}], ["conv2d_22", 0, 0, {}], ["conv2d_23", 0, 0, {}], ["conv2d_24", 0, 0, {}], ["conv2d_25", 0, 0, {}], ["conv2d_26", 0, 0, {}], ["conv2d_27", 0, 0, {}], ["conv2d_28", 0, 0, {}], ["conv2d_29", 0, 0, {}], ["conv2d_30", 0, 0, {}], ["conv2d_31", 0, 0, {}], ["conv2d_32", 0, 0, {}], ["conv2d_33", 0, 0, {}], ["conv2d_34", 0, 0, {}]]]}, {"name": "batch_normalization_3", "config": {"epsilon": 0.001, "momentum": 0.99, "beta_constraint": null, "scale": true, "gamma_constraint": null, "gamma_regularizer": null, "gamma_initializer": {"config": {}, "class_name": "Ones"}, "axis": -1, "name": "batch_normalization_3", "center": true, "beta_regularizer": null, "beta_initializer": {"config": {}, "class_name": "Zeros"}, "moving_mean_initializer": {"config": {}, "class_name": "Zeros"}, "moving_variance_initializer": {"config": {}, "class_name": "Ones"}, "trainable": true}, "class_name": "BatchNormalization", "inbound_nodes": [[["concatenate_1", 0, 0, {}]]]}, {"name": "leaky_re_lu_3", "config": {"name": "leaky_re_lu_3", "alpha": 0.30000001192092896, "trainable": true}, "class_name": "LeakyReLU", "inbound_nodes": [[["batch_normalization_3", 0, 0, {}]]]}, {"name": "conv2d_36", "config": {"kernel_initializer": {"config": {"scale": 1.0, "mode": "fan_avg", "distribution": "uniform", "seed": null}, "class_name": "VarianceScaling"}, "bias_initializer": {"config": {}, "class_name": "Zeros"}, "filters": 256, "kernel_size": [1, 1], "padding": "same", "kernel_regularizer": null, "bias_regularizer": null, "use_bias": true, "name": "conv2d_36", "activation": "linear", "activity_regularizer": null, "strides": [1, 1], "dilation_rate": [1, 1], "data_format": "channels_last", "kernel_constraint": null, "trainable": true, "bias_constraint": null}, "class_name": "Conv2D", "inbound_nodes": [[["max_pooling2d_1", 0, 0, {}]]]}, {"name": "conv2d_35", "config": {"kernel_initializer": {"config": {"scale": 1.0, "mode": "fan_avg", "distribution": "uniform", "seed": null}, "class_name": "VarianceScaling"}, "bias_initializer": {"config": {}, "class_name": "Zeros"}, "filters": 256, "kernel_size": [1, 1], "padding": "same", "kernel_regularizer": null, "bias_regularizer": null, "use_bias": true, "name": "conv2d_35", "activation": "linear", "activity_regularizer": null, "strides": [1, 1], "dilation_rate": [1, 1], "data_format": "channels_last", "kernel_constraint": null, "trainable": true, "bias_constraint": null}, "class_name": "Conv2D", "inbound_nodes": [[["leaky_re_lu_3", 0, 0, {}]]]}, {"name": "batch_normalization_5", "config": {"epsilon": 0.001, "momentum": 0.99, "beta_constraint": null, "scale": true, "gamma_constraint": null, "gamma_regularizer": null, "gamma_initializer": {"config": {}, "class_name": "Ones"}, "axis": -1, "name": "batch_normalization_5", "center": true, "beta_regularizer": null, "beta_initializer": {"config": {}, "class_name": "Zeros"}, "moving_mean_initializer": {"config": {}, "class_name": "Zeros"}, "moving_variance_initializer": {"config": {}, "class_name": "Ones"}, "trainable": true}, "class_name": "BatchNormalization", "inbound_nodes": [[["conv2d_36", 0, 0, {}]]]}, {"name": "batch_normalization_4", "config": {"epsilon": 0.001, "momentum": 0.99, "beta_constraint": null, "scale": true, "gamma_constraint": null, "gamma_regularizer": null, "gamma_initializer": {"config": {}, "class_name": "Ones"}, "axis": -1, "name": "batch_normalization_4", "center": true, "beta_regularizer": null, "beta_initializer": {"config": {}, "class_name": "Zeros"}, "moving_mean_initializer": {"config": {}, "class_name": "Zeros"}, "moving_variance_initializer": {"config": {}, "class_name": "Ones"}, "trainable": true}, "class_name": "BatchNormalization", "inbound_nodes": [[["conv2d_35", 0, 0, {}]]]}, {"name": "add_1", "config": {"name": "add_1", "trainable": true}, "class_name": "Add", "inbound_nodes": [[["batch_normalization_5", 0, 0, {}], ["batch_normalization_4", 0, 0, {}]]]}, {"name": "leaky_re_lu_4", "config": {"name": "leaky_re_lu_4", "alpha": 0.30000001192092896, "trainable": true}, "class_name": "LeakyReLU", "inbound_nodes": [[["add_1", 0, 0, {}]]]}, {"name": "conv2d_37", "config": {"kernel_initializer": {"config": {"scale": 1.0, "mode": "fan_avg", "distribution": "uniform", "seed": null}, "class_name": "VarianceScaling"}, "bias_initializer": {"config": {}, "class_name": "Zeros"}, "filters": 128, "kernel_size": [1, 1], "padding": "same", "kernel_regularizer": null, "bias_regularizer": null, "use_bias": true, "name": "conv2d_37", "activation": "linear", "activity_regularizer": null, "strides": [1, 1], "dilation_rate": [1, 1], "data_format": "channels_last", "kernel_constraint": null, "trainable": true, "bias_constraint": null}, "class_name": "Conv2D", "inbound_nodes": [[["leaky_re_lu_4", 0, 0, {}]]]}, {"name": "batch_normalization_6", "config": {"epsilon": 0.001, "momentum": 0.99, "beta_constraint": null, "scale": true, "gamma_constraint": null, "gamma_regularizer": null, "gamma_initializer": {"config": {}, "class_name": "Ones"}, "axis": -1, "name": "batch_normalization_6", "center": true, "beta_regularizer": null, "beta_initializer": {"config": {}, "class_name": "Zeros"}, "moving_mean_initializer": {"config": {}, "class_name": "Zeros"}, "moving_variance_initializer": {"config": {}, "class_name": "Ones"}, "trainable": true}, "class_name": "BatchNormalization", "inbound_nodes": [[["conv2d_37", 0, 0, {}]]]}, {"name": "leaky_re_lu_5", "config": {"name": "leaky_re_lu_5", "alpha": 0.30000001192092896, "trainable": true}, "class_name": "LeakyReLU", "inbound_nodes": [[["batch_normalization_6", 0, 0, {}]]]}, {"name": "lambda_33", "config": {"name": "lambda_33", "output_shape_type": "raw", "output_shape": null, "arguments": {}, "function": ["4wEAAAAAAAAAAQAAAAcAAAATAAAAczgAAAB8AABkAABkAACFAgBkAABkAACFAgBkAABkAACFAgCI\nAQCIAAAUiAEAiAAAFIgAABeFAgBmBAAZUykBTqkAKQHaAXopAtoCX2TaAWpyAQAAAPoyRDovX0hL\nU0RhdGEvV3JhcHBlci9hdXRvTUwvdGVzdGluZy9SZXNOZXRfbW9kZWwucHnaCDxsYW1iZGE+KQAA\nAHMAAAAA\n", null, [4, 31]], "function_type": "lambda", "trainable": true}, "class_name": "Lambda", "inbound_nodes": [[["leaky_re_lu_5", 0, 0, {}]]]}, {"name": "lambda_34", "config": {"name": "lambda_34", "output_shape_type": "raw", "output_shape": null, "arguments": {}, "function": ["4wEAAAAAAAAAAQAAAAcAAAATAAAAczgAAAB8AABkAABkAACFAgBkAABkAACFAgBkAABkAACFAgCI\nAQCIAAAUiAEAiAAAFIgAABeFAgBmBAAZUykBTqkAKQHaAXopAtoCX2TaAWpyAQAAAPoyRDovX0hL\nU0RhdGEvV3JhcHBlci9hdXRvTUwvdGVzdGluZy9SZXNOZXRfbW9kZWwucHnaCDxsYW1iZGE+KQAA\nAHMAAAAA\n", null, [4, 31]], "function_type": "lambda", "trainable": true}, "class_name": "Lambda", "inbound_nodes": [[["leaky_re_lu_5", 0, 0, {}]]]}, {"name": "lambda_35", "config": {"name": "lambda_35", "output_shape_type": "raw", "output_shape": null, "arguments": {}, "function": ["4wEAAAAAAAAAAQAAAAcAAAATAAAAczgAAAB8AABkAABkAACFAgBkAABkAACFAgBkAABkAACFAgCI\nAQCIAAAUiAEAiAAAFIgAABeFAgBmBAAZUykBTqkAKQHaAXopAtoCX2TaAWpyAQAAAPoyRDovX0hL\nU0RhdGEvV3JhcHBlci9hdXRvTUwvdGVzdGluZy9SZXNOZXRfbW9kZWwucHnaCDxsYW1iZGE+KQAA\nAHMAAAAA\n", null, [4, 31]], "function_type": "lambda", "trainable": true}, "class_name": "Lambda", "inbound_nodes": [[["leaky_re_lu_5", 0, 0, {}]]]}, {"name": "lambda_36", "config": {"name": "lambda_36", "output_shape_type": "raw", "output_shape": null, "arguments": {}, "function": ["4wEAAAAAAAAAAQAAAAcAAAATAAAAczgAAAB8AABkAABkAACFAgBkAABkAACFAgBkAABkAACFAgCI\nAQCIAAAUiAEAiAAAFIgAABeFAgBmBAAZUykBTqkAKQHaAXopAtoCX2TaAWpyAQAAAPoyRDovX0hL\nU0RhdGEvV3JhcHBlci9hdXRvTUwvdGVzdGluZy9SZXNOZXRfbW9kZWwucHnaCDxsYW1iZGE+KQAA\nAHMAAAAA\n", null, [4, 31]], "function_type": "lambda", "trainable": true}, "class_name": "Lambda", "inbound_nodes": [[["leaky_re_lu_5", 0, 0, {}]]]}, {"name": "lambda_37", "config": {"name": "lambda_37", "output_shape_type": "raw", "output_shape": null, "arguments": {}, "function": ["4wEAAAAAAAAAAQAAAAcAAAATAAAAczgAAAB8AABkAABkAACFAgBkAABkAACFAgBkAABkAACFAgCI\nAQCIAAAUiAEAiAAAFIgAABeFAgBmBAAZUykBTqkAKQHaAXopAtoCX2TaAWpyAQAAAPoyRDovX0hL\nU0RhdGEvV3JhcHBlci9hdXRvTUwvdGVzdGluZy9SZXNOZXRfbW9kZWwucHnaCDxsYW1iZGE+KQAA\nAHMAAAAA\n", null, [4, 31]], "function_type": "lambda", "trainable": true}, "class_name": "Lambda", "inbound_nodes": [[["leaky_re_lu_5", 0, 0, {}]]]}, {"name": "lambda_38", "config": {"name": "lambda_38", "output_shape_type": "raw", "output_shape": null, "arguments": {}, "function": ["4wEAAAAAAAAAAQAAAAcAAAATAAAAczgAAAB8AABkAABkAACFAgBkAABkAACFAgBkAABkAACFAgCI\nAQCIAAAUiAEAiAAAFIgAABeFAgBmBAAZUykBTqkAKQHaAXopAtoCX2TaAWpyAQAAAPoyRDovX0hL\nU0RhdGEvV3JhcHBlci9hdXRvTUwvdGVzdGluZy9SZXNOZXRfbW9kZWwucHnaCDxsYW1iZGE+KQAA\nAHMAAAAA\n", null, [4, 31]], "function_type": "lambda", "trainable": true}, "class_name": "Lambda", "inbound_nodes": [[["leaky_re_lu_5", 0, 0, {}]]]}, {"name": "lambda_39", "config": {"name": "lambda_39", "output_shape_type": "raw", "output_shape": null, "arguments": {}, "function": ["4wEAAAAAAAAAAQAAAAcAAAATAAAAczgAAAB8AABkAABkAACFAgBkAABkAACFAgBkAABkAACFAgCI\nAQCIAAAUiAEAiAAAFIgAABeFAgBmBAAZUykBTqkAKQHaAXopAtoCX2TaAWpyAQAAAPoyRDovX0hL\nU0RhdGEvV3JhcHBlci9hdXRvTUwvdGVzdGluZy9SZXNOZXRfbW9kZWwucHnaCDxsYW1iZGE+KQAA\nAHMAAAAA\n", null, [4, 31]], "function_type": "lambda", "trainable": true}, "class_name": "Lambda", "inbound_nodes": [[["leaky_re_lu_5", 0, 0, {}]]]}, {"name": "lambda_40", "config": {"name": "lambda_40", "output_shape_type": "raw", "output_shape": null, "arguments": {}, "function": ["4wEAAAAAAAAAAQAAAAcAAAATAAAAczgAAAB8AABkAABkAACFAgBkAABkAACFAgBkAABkAACFAgCI\nAQCIAAAUiAEAiAAAFIgAABeFAgBmBAAZUykBTqkAKQHaAXopAtoCX2TaAWpyAQAAAPoyRDovX0hL\nU0RhdGEvV3JhcHBlci9hdXRvTUwvdGVzdGluZy9SZXNOZXRfbW9kZWwucHnaCDxsYW1iZGE+KQAA\nAHMAAAAA\n", null, [4, 31]], "function_type": "lambda", "trainable": true}, "class_name": "Lambda", "inbound_nodes": [[["leaky_re_lu_5", 0, 0, {}]]]}, {"name": "lambda_41", "config": {"name": "lambda_41", "output_shape_type": "raw", "output_shape": null, "arguments": {}, "function": ["4wEAAAAAAAAAAQAAAAcAAAATAAAAczgAAAB8AABkAABkAACFAgBkAABkAACFAgBkAABkAACFAgCI\nAQCIAAAUiAEAiAAAFIgAABeFAgBmBAAZUykBTqkAKQHaAXopAtoCX2TaAWpyAQAAAPoyRDovX0hL\nU0RhdGEvV3JhcHBlci9hdXRvTUwvdGVzdGluZy9SZXNOZXRfbW9kZWwucHnaCDxsYW1iZGE+KQAA\nAHMAAAAA\n", null, [4, 31]], "function_type": "lambda", "trainable": true}, "class_name": "Lambda", "inbound_nodes": [[["leaky_re_lu_5", 0, 0, {}]]]}, {"name": "lambda_42", "config": {"name": "lambda_42", "output_shape_type": "raw", "output_shape": null, "arguments": {}, "function": ["4wEAAAAAAAAAAQAAAAcAAAATAAAAczgAAAB8AABkAABkAACFAgBkAABkAACFAgBkAABkAACFAgCI\nAQCIAAAUiAEAiAAAFIgAABeFAgBmBAAZUykBTqkAKQHaAXopAtoCX2TaAWpyAQAAAPoyRDovX0hL\nU0RhdGEvV3JhcHBlci9hdXRvTUwvdGVzdGluZy9SZXNOZXRfbW9kZWwucHnaCDxsYW1iZGE+KQAA\nAHMAAAAA\n", null, [4, 31]], "function_type": "lambda", "trainable": true}, "class_name": "Lambda", "inbound_nodes": [[["leaky_re_lu_5", 0, 0, {}]]]}, {"name": "lambda_43", "config": {"name": "lambda_43", "output_shape_type": "raw", "output_shape": null, "arguments": {}, "function": ["4wEAAAAAAAAAAQAAAAcAAAATAAAAczgAAAB8AABkAABkAACFAgBkAABkAACFAgBkAABkAACFAgCI\nAQCIAAAUiAEAiAAAFIgAABeFAgBmBAAZUykBTqkAKQHaAXopAtoCX2TaAWpyAQAAAPoyRDovX0hL\nU0RhdGEvV3JhcHBlci9hdXRvTUwvdGVzdGluZy9SZXNOZXRfbW9kZWwucHnaCDxsYW1iZGE+KQAA\nAHMAAAAA\n", null, [4, 31]], "function_type": "lambda", "trainable": true}, "class_name": "Lambda", "inbound_nodes": [[["leaky_re_lu_5", 0, 0, {}]]]}, {"name": "lambda_44", "config": {"name": "lambda_44", "output_shape_type": "raw", "output_shape": null, "arguments": {}, "function": ["4wEAAAAAAAAAAQAAAAcAAAATAAAAczgAAAB8AABkAABkAACFAgBkAABkAACFAgBkAABkAACFAgCI\nAQCIAAAUiAEAiAAAFIgAABeFAgBmBAAZUykBTqkAKQHaAXopAtoCX2TaAWpyAQAAAPoyRDovX0hL\nU0RhdGEvV3JhcHBlci9hdXRvTUwvdGVzdGluZy9SZXNOZXRfbW9kZWwucHnaCDxsYW1iZGE+KQAA\nAHMAAAAA\n", null, [4, 31]], "function_type": "lambda", "trainable": true}, "class_name": "Lambda", "inbound_nodes": [[["leaky_re_lu_5", 0, 0, {}]]]}, {"name": "lambda_45", "config": {"name": "lambda_45", "output_shape_type": "raw", "output_shape": null, "arguments": {}, "function": ["4wEAAAAAAAAAAQAAAAcAAAATAAAAczgAAAB8AABkAABkAACFAgBkAABkAACFAgBkAABkAACFAgCI\nAQCIAAAUiAEAiAAAFIgAABeFAgBmBAAZUykBTqkAKQHaAXopAtoCX2TaAWpyAQAAAPoyRDovX0hL\nU0RhdGEvV3JhcHBlci9hdXRvTUwvdGVzdGluZy9SZXNOZXRfbW9kZWwucHnaCDxsYW1iZGE+KQAA\nAHMAAAAA\n", null, [4, 31]], "function_type": "lambda", "trainable": true}, "class_name": "Lambda", "inbound_nodes": [[["leaky_re_lu_5", 0, 0, {}]]]}, {"name": "lambda_46", "config": {"name": "lambda_46", "output_shape_type": "raw", "output_shape": null, "arguments": {}, "function": ["4wEAAAAAAAAAAQAAAAcAAAATAAAAczgAAAB8AABkAABkAACFAgBkAABkAACFAgBkAABkAACFAgCI\nAQCIAAAUiAEAiAAAFIgAABeFAgBmBAAZUykBTqkAKQHaAXopAtoCX2TaAWpyAQAAAPoyRDovX0hL\nU0RhdGEvV3JhcHBlci9hdXRvTUwvdGVzdGluZy9SZXNOZXRfbW9kZWwucHnaCDxsYW1iZGE+KQAA\nAHMAAAAA\n", null, [4, 31]], "function_type": "lambda", "trainable": true}, "class_name": "Lambda", "inbound_nodes": [[["leaky_re_lu_5", 0, 0, {}]]]}, {"name": "lambda_47", "config": {"name": "lambda_47", "output_shape_type": "raw", "output_shape": null, "arguments": {}, "function": ["4wEAAAAAAAAAAQAAAAcAAAATAAAAczgAAAB8AABkAABkAACFAgBkAABkAACFAgBkAABkAACFAgCI\nAQCIAAAUiAEAiAAAFIgAABeFAgBmBAAZUykBTqkAKQHaAXopAtoCX2TaAWpyAQAAAPoyRDovX0hL\nU0RhdGEvV3JhcHBlci9hdXRvTUwvdGVzdGluZy9SZXNOZXRfbW9kZWwucHnaCDxsYW1iZGE+KQAA\nAHMAAAAA\n", null, [4, 31]], "function_type": "lambda", "trainable": true}, "class_name": "Lambda", "inbound_nodes": [[["leaky_re_lu_5", 0, 0, {}]]]}, {"name": "lambda_48", "config": {"name": "lambda_48", "output_shape_type": "raw", "output_shape": null, "arguments": {}, "function": ["4wEAAAAAAAAAAQAAAAcAAAATAAAAczgAAAB8AABkAABkAACFAgBkAABkAACFAgBkAABkAACFAgCI\nAQCIAAAUiAEAiAAAFIgAABeFAgBmBAAZUykBTqkAKQHaAXopAtoCX2TaAWpyAQAAAPoyRDovX0hL\nU0RhdGEvV3JhcHBlci9hdXRvTUwvdGVzdGluZy9SZXNOZXRfbW9kZWwucHnaCDxsYW1iZGE+KQAA\nAHMAAAAA\n", null, [4, 31]], "function_type": "lambda", "trainable": true}, "class_name": "Lambda", "inbound_nodes": [[["leaky_re_lu_5", 0, 0, {}]]]}, {"name": "lambda_49", "config": {"name": "lambda_49", "output_shape_type": "raw", "output_shape": null, "arguments": {}, "function": ["4wEAAAAAAAAAAQAAAAcAAAATAAAAczgAAAB8AABkAABkAACFAgBkAABkAACFAgBkAABkAACFAgCI\nAQCIAAAUiAEAiAAAFIgAABeFAgBmBAAZUykBTqkAKQHaAXopAtoCX2TaAWpyAQAAAPoyRDovX0hL\nU0RhdGEvV3JhcHBlci9hdXRvTUwvdGVzdGluZy9SZXNOZXRfbW9kZWwucHnaCDxsYW1iZGE+KQAA\nAHMAAAAA\n", null, [4, 31]], "function_type": "lambda", "trainable": true}, "class_name": "Lambda", "inbound_nodes": [[["leaky_re_lu_5", 0, 0, {}]]]}, {"name": "lambda_50", "config": {"name": "lambda_50", "output_shape_type": "raw", "output_shape": null, "arguments": {}, "function": ["4wEAAAAAAAAAAQAAAAcAAAATAAAAczgAAAB8AABkAABkAACFAgBkAABkAACFAgBkAABkAACFAgCI\nAQCIAAAUiAEAiAAAFIgAABeFAgBmBAAZUykBTqkAKQHaAXopAtoCX2TaAWpyAQAAAPoyRDovX0hL\nU0RhdGEvV3JhcHBlci9hdXRvTUwvdGVzdGluZy9SZXNOZXRfbW9kZWwucHnaCDxsYW1iZGE+KQAA\nAHMAAAAA\n", null, [4, 31]], "function_type": "lambda", "trainable": true}, "class_name": "Lambda", "inbound_nodes": [[["leaky_re_lu_5", 0, 0, {}]]]}, {"name": "lambda_51", "config": {"name": "lambda_51", "output_shape_type": "raw", "output_shape": null, "arguments": {}, "function": ["4wEAAAAAAAAAAQAAAAcAAAATAAAAczgAAAB8AABkAABkAACFAgBkAABkAACFAgBkAABkAACFAgCI\nAQCIAAAUiAEAiAAAFIgAABeFAgBmBAAZUykBTqkAKQHaAXopAtoCX2TaAWpyAQAAAPoyRDovX0hL\nU0RhdGEvV3JhcHBlci9hdXRvTUwvdGVzdGluZy9SZXNOZXRfbW9kZWwucHnaCDxsYW1iZGE+KQAA\nAHMAAAAA\n", null, [4, 31]], "function_type": "lambda", "trainable": true}, "class_name": "Lambda", "inbound_nodes": [[["leaky_re_lu_5", 0, 0, {}]]]}, {"name": "lambda_52", "config": {"name": "lambda_52", "output_shape_type": "raw", "output_shape": null, "arguments": {}, "function": ["4wEAAAAAAAAAAQAAAAcAAAATAAAAczgAAAB8AABkAABkAACFAgBkAABkAACFAgBkAABkAACFAgCI\nAQCIAAAUiAEAiAAAFIgAABeFAgBmBAAZUykBTqkAKQHaAXopAtoCX2TaAWpyAQAAAPoyRDovX0hL\nU0RhdGEvV3JhcHBlci9hdXRvTUwvdGVzdGluZy9SZXNOZXRfbW9kZWwucHnaCDxsYW1iZGE+KQAA\nAHMAAAAA\n", null, [4, 31]], "function_type": "lambda", "trainable": true}, "class_name": "Lambda", "inbound_nodes": [[["leaky_re_lu_5", 0, 0, {}]]]}, {"name": "lambda_53", "config": {"name": "lambda_53", "output_shape_type": "raw", "output_shape": null, "arguments": {}, "function": ["4wEAAAAAAAAAAQAAAAcAAAATAAAAczgAAAB8AABkAABkAACFAgBkAABkAACFAgBkAABkAACFAgCI\nAQCIAAAUiAEAiAAAFIgAABeFAgBmBAAZUykBTqkAKQHaAXopAtoCX2TaAWpyAQAAAPoyRDovX0hL\nU0RhdGEvV3JhcHBlci9hdXRvTUwvdGVzdGluZy9SZXNOZXRfbW9kZWwucHnaCDxsYW1iZGE+KQAA\nAHMAAAAA\n", null, [4, 31]], "function_type": "lambda", "trainable": true}, "class_name": "Lambda", "inbound_nodes": [[["leaky_re_lu_5", 0, 0, {}]]]}, {"name": "lambda_54", "config": {"name": "lambda_54", "output_shape_type": "raw", "output_shape": null, "arguments": {}, "function": ["4wEAAAAAAAAAAQAAAAcAAAATAAAAczgAAAB8AABkAABkAACFAgBkAABkAACFAgBkAABkAACFAgCI\nAQCIAAAUiAEAiAAAFIgAABeFAgBmBAAZUykBTqkAKQHaAXopAtoCX2TaAWpyAQAAAPoyRDovX0hL\nU0RhdGEvV3JhcHBlci9hdXRvTUwvdGVzdGluZy9SZXNOZXRfbW9kZWwucHnaCDxsYW1iZGE+KQAA\nAHMAAAAA\n", null, [4, 31]], "function_type": "lambda", "trainable": true}, "class_name": "Lambda", "inbound_nodes": [[["leaky_re_lu_5", 0, 0, {}]]]}, {"name": "lambda_55", "config": {"name": "lambda_55", "output_shape_type": "raw", "output_shape": null, "arguments": {}, "function": ["4wEAAAAAAAAAAQAAAAcAAAATAAAAczgAAAB8AABkAABkAACFAgBkAABkAACFAgBkAABkAACFAgCI\nAQCIAAAUiAEAiAAAFIgAABeFAgBmBAAZUykBTqkAKQHaAXopAtoCX2TaAWpyAQAAAPoyRDovX0hL\nU0RhdGEvV3JhcHBlci9hdXRvTUwvdGVzdGluZy9SZXNOZXRfbW9kZWwucHnaCDxsYW1iZGE+KQAA\nAHMAAAAA\n", null, [4, 31]], "function_type": "lambda", "trainable": true}, "class_name": "Lambda", "inbound_nodes": [[["leaky_re_lu_5", 0, 0, {}]]]}, {"name": "lambda_56", "config": {"name": "lambda_56", "output_shape_type": "raw", "output_shape": null, "arguments": {}, "function": ["4wEAAAAAAAAAAQAAAAcAAAATAAAAczgAAAB8AABkAABkAACFAgBkAABkAACFAgBkAABkAACFAgCI\nAQCIAAAUiAEAiAAAFIgAABeFAgBmBAAZUykBTqkAKQHaAXopAtoCX2TaAWpyAQAAAPoyRDovX0hL\nU0RhdGEvV3JhcHBlci9hdXRvTUwvdGVzdGluZy9SZXNOZXRfbW9kZWwucHnaCDxsYW1iZGE+KQAA\nAHMAAAAA\n", null, [4, 31]], "function_type": "lambda", "trainable": true}, "class_name": "Lambda", "inbound_nodes": [[["leaky_re_lu_5", 0, 0, {}]]]}, {"name": "lambda_57", "config": {"name": "lambda_57", "output_shape_type": "raw", "output_shape": null, "arguments": {}, "function": ["4wEAAAAAAAAAAQAAAAcAAAATAAAAczgAAAB8AABkAABkAACFAgBkAABkAACFAgBkAABkAACFAgCI\nAQCIAAAUiAEAiAAAFIgAABeFAgBmBAAZUykBTqkAKQHaAXopAtoCX2TaAWpyAQAAAPoyRDovX0hL\nU0RhdGEvV3JhcHBlci9hdXRvTUwvdGVzdGluZy9SZXNOZXRfbW9kZWwucHnaCDxsYW1iZGE+KQAA\nAHMAAAAA\n", null, [4, 31]], "function_type": "lambda", "trainable": true}, "class_name": "Lambda", "inbound_nodes": [[["leaky_re_lu_5", 0, 0, {}]]]}, {"name": "lambda_58", "config": {"name": "lambda_58", "output_shape_type": "raw", "output_shape": null, "arguments": {}, "function": ["4wEAAAAAAAAAAQAAAAcAAAATAAAAczgAAAB8AABkAABkAACFAgBkAABkAACFAgBkAABkAACFAgCI\nAQCIAAAUiAEAiAAAFIgAABeFAgBmBAAZUykBTqkAKQHaAXopAtoCX2TaAWpyAQAAAPoyRDovX0hL\nU0RhdGEvV3JhcHBlci9hdXRvTUwvdGVzdGluZy9SZXNOZXRfbW9kZWwucHnaCDxsYW1iZGE+KQAA\nAHMAAAAA\n", null, [4, 31]], "function_type": "lambda", "trainable": true}, "class_name": "Lambda", "inbound_nodes": [[["leaky_re_lu_5", 0, 0, {}]]]}, {"name": "lambda_59", "config": {"name": "lambda_59", "output_shape_type": "raw", "output_shape": null, "arguments": {}, "function": ["4wEAAAAAAAAAAQAAAAcAAAATAAAAczgAAAB8AABkAABkAACFAgBkAABkAACFAgBkAABkAACFAgCI\nAQCIAAAUiAEAiAAAFIgAABeFAgBmBAAZUykBTqkAKQHaAXopAtoCX2TaAWpyAQAAAPoyRDovX0hL\nU0RhdGEvV3JhcHBlci9hdXRvTUwvdGVzdGluZy9SZXNOZXRfbW9kZWwucHnaCDxsYW1iZGE+KQAA\nAHMAAAAA\n", null, [4, 31]], "function_type": "lambda", "trainable": true}, "class_name": "Lambda", "inbound_nodes": [[["leaky_re_lu_5", 0, 0, {}]]]}, {"name": "lambda_60", "config": {"name": "lambda_60", "output_shape_type": "raw", "output_shape": null, "arguments": {}, "function": ["4wEAAAAAAAAAAQAAAAcAAAATAAAAczgAAAB8AABkAABkAACFAgBkAABkAACFAgBkAABkAACFAgCI\nAQCIAAAUiAEAiAAAFIgAABeFAgBmBAAZUykBTqkAKQHaAXopAtoCX2TaAWpyAQAAAPoyRDovX0hL\nU0RhdGEvV3JhcHBlci9hdXRvTUwvdGVzdGluZy9SZXNOZXRfbW9kZWwucHnaCDxsYW1iZGE+KQAA\nAHMAAAAA\n", null, [4, 31]], "function_type": "lambda", "trainable": true}, "class_name": "Lambda", "inbound_nodes": [[["leaky_re_lu_5", 0, 0, {}]]]}, {"name": "lambda_61", "config": {"name": "lambda_61", "output_shape_type": "raw", "output_shape": null, "arguments": {}, "function": ["4wEAAAAAAAAAAQAAAAcAAAATAAAAczgAAAB8AABkAABkAACFAgBkAABkAACFAgBkAABkAACFAgCI\nAQCIAAAUiAEAiAAAFIgAABeFAgBmBAAZUykBTqkAKQHaAXopAtoCX2TaAWpyAQAAAPoyRDovX0hL\nU0RhdGEvV3JhcHBlci9hdXRvTUwvdGVzdGluZy9SZXNOZXRfbW9kZWwucHnaCDxsYW1iZGE+KQAA\nAHMAAAAA\n", null, [4, 31]], "function_type": "lambda", "trainable": true}, "class_name": "Lambda", "inbound_nodes": [[["leaky_re_lu_5", 0, 0, {}]]]}, {"name": "lambda_62", "config": {"name": "lambda_62", "output_shape_type": "raw", "output_shape": null, "arguments": {}, "function": ["4wEAAAAAAAAAAQAAAAcAAAATAAAAczgAAAB8AABkAABkAACFAgBkAABkAACFAgBkAABkAACFAgCI\nAQCIAAAUiAEAiAAAFIgAABeFAgBmBAAZUykBTqkAKQHaAXopAtoCX2TaAWpyAQAAAPoyRDovX0hL\nU0RhdGEvV3JhcHBlci9hdXRvTUwvdGVzdGluZy9SZXNOZXRfbW9kZWwucHnaCDxsYW1iZGE+KQAA\nAHMAAAAA\n", null, [4, 31]], "function_type": "lambda", "trainable": true}, "class_name": "Lambda", "inbound_nodes": [[["leaky_re_lu_5", 0, 0, {}]]]}, {"name": "lambda_63", "config": {"name": "lambda_63", "output_shape_type": "raw", "output_shape": null, "arguments": {}, "function": ["4wEAAAAAAAAAAQAAAAcAAAATAAAAczgAAAB8AABkAABkAACFAgBkAABkAACFAgBkAABkAACFAgCI\nAQCIAAAUiAEAiAAAFIgAABeFAgBmBAAZUykBTqkAKQHaAXopAtoCX2TaAWpyAQAAAPoyRDovX0hL\nU0RhdGEvV3JhcHBlci9hdXRvTUwvdGVzdGluZy9SZXNOZXRfbW9kZWwucHnaCDxsYW1iZGE+KQAA\nAHMAAAAA\n", null, [4, 31]], "function_type": "lambda", "trainable": true}, "class_name": "Lambda", "inbound_nodes": [[["leaky_re_lu_5", 0, 0, {}]]]}, {"name": "lambda_64", "config": {"name": "lambda_64", "output_shape_type": "raw", "output_shape": null, "arguments": {}, "function": ["4wEAAAAAAAAAAQAAAAcAAAATAAAAczgAAAB8AABkAABkAACFAgBkAABkAACFAgBkAABkAACFAgCI\nAQCIAAAUiAEAiAAAFIgAABeFAgBmBAAZUykBTqkAKQHaAXopAtoCX2TaAWpyAQAAAPoyRDovX0hL\nU0RhdGEvV3JhcHBlci9hdXRvTUwvdGVzdGluZy9SZXNOZXRfbW9kZWwucHnaCDxsYW1iZGE+KQAA\nAHMAAAAA\n", null, [4, 31]], "function_type": "lambda", "trainable": true}, "class_name": "Lambda", "inbound_nodes": [[["leaky_re_lu_5", 0, 0, {}]]]}, {"name": "conv2d_38", "config": {"kernel_initializer": {"config": {"scale": 1.0, "mode": "fan_avg", "distribution": "uniform", "seed": null}, "class_name": "VarianceScaling"}, "bias_initializer": {"config": {}, "class_name": "Zeros"}, "filters": 4, "kernel_size": [3, 3], "padding": "same", "kernel_regularizer": null, "bias_regularizer": null, "use_bias": true, "name": "conv2d_38", "activation": "linear", "activity_regularizer": null, "strides": [1, 1], "dilation_rate": [1, 1], "data_format": "channels_last", "kernel_constraint": null, "trainable": true, "bias_constraint": null}, "class_name": "Conv2D", "inbound_nodes": [[["lambda_33", 0, 0, {}]]]}, {"name": "conv2d_39", "config": {"kernel_initializer": {"config": {"scale": 1.0, "mode": "fan_avg", "distribution": "uniform", "seed": null}, "class_name": "VarianceScaling"}, "bias_initializer": {"config": {}, "class_name": "Zeros"}, "filters": 4, "kernel_size": [3, 3], "padding": "same", "kernel_regularizer": null, "bias_regularizer": null, "use_bias": true, "name": "conv2d_39", "activation": "linear", "activity_regularizer": null, "strides": [1, 1], "dilation_rate": [1, 1], "data_format": "channels_last", "kernel_constraint": null, "trainable": true, "bias_constraint": null}, "class_name": "Conv2D", "inbound_nodes": [[["lambda_34", 0, 0, {}]]]}, {"name": "conv2d_40", "config": {"kernel_initializer": {"config": {"scale": 1.0, "mode": "fan_avg", "distribution": "uniform", "seed": null}, "class_name": "VarianceScaling"}, "bias_initializer": {"config": {}, "class_name": "Zeros"}, "filters": 4, "kernel_size": [3, 3], "padding": "same", "kernel_regularizer": null, "bias_regularizer": null, "use_bias": true, "name": "conv2d_40", "activation": "linear", "activity_regularizer": null, "strides": [1, 1], "dilation_rate": [1, 1], "data_format": "channels_last", "kernel_constraint": null, "trainable": true, "bias_constraint": null}, "class_name": "Conv2D", "inbound_nodes": [[["lambda_35", 0, 0, {}]]]}, {"name": "conv2d_41", "config": {"kernel_initializer": {"config": {"scale": 1.0, "mode": "fan_avg", "distribution": "uniform", "seed": null}, "class_name": "VarianceScaling"}, "bias_initializer": {"config": {}, "class_name": "Zeros"}, "filters": 4, "kernel_size": [3, 3], "padding": "same", "kernel_regularizer": null, "bias_regularizer": null, "use_bias": true, "name": "conv2d_41", "activation": "linear", "activity_regularizer": null, "strides": [1, 1], "dilation_rate": [1, 1], "data_format": "channels_last", "kernel_constraint": null, "trainable": true, "bias_constraint": null}, "class_name": "Conv2D", "inbound_nodes": [[["lambda_36", 0, 0, {}]]]}, {"name": "conv2d_42", "config": {"kernel_initializer": {"config": {"scale": 1.0, "mode": "fan_avg", "distribution": "uniform", "seed": null}, "class_name": "VarianceScaling"}, "bias_initializer": {"config": {}, "class_name": "Zeros"}, "filters": 4, "kernel_size": [3, 3], "padding": "same", "kernel_regularizer": null, "bias_regularizer": null, "use_bias": true, "name": "conv2d_42", "activation": "linear", "activity_regularizer": null, "strides": [1, 1], "dilation_rate": [1, 1], "data_format": "channels_last", "kernel_constraint": null, "trainable": true, "bias_constraint": null}, "class_name": "Conv2D", "inbound_nodes": [[["lambda_37", 0, 0, {}]]]}, {"name": "conv2d_43", "config": {"kernel_initializer": {"config": {"scale": 1.0, "mode": "fan_avg", "distribution": "uniform", "seed": null}, "class_name": "VarianceScaling"}, "bias_initializer": {"config": {}, "class_name": "Zeros"}, "filters": 4, "kernel_size": [3, 3], "padding": "same", "kernel_regularizer": null, "bias_regularizer": null, "use_bias": true, "name": "conv2d_43", "activation": "linear", "activity_regularizer": null, "strides": [1, 1], "dilation_rate": [1, 1], "data_format": "channels_last", "kernel_constraint": null, "trainable": true, "bias_constraint": null}, "class_name": "Conv2D", "inbound_nodes": [[["lambda_38", 0, 0, {}]]]}, {"name": "conv2d_44", "config": {"kernel_initializer": {"config": {"scale": 1.0, "mode": "fan_avg", "distribution": "uniform", "seed": null}, "class_name": "VarianceScaling"}, "bias_initializer": {"config": {}, "class_name": "Zeros"}, "filters": 4, "kernel_size": [3, 3], "padding": "same", "kernel_regularizer": null, "bias_regularizer": null, "use_bias": true, "name": "conv2d_44", "activation": "linear", "activity_regularizer": null, "strides": [1, 1], "dilation_rate": [1, 1], "data_format": "channels_last", "kernel_constraint": null, "trainable": true, "bias_constraint": null}, "class_name": "Conv2D", "inbound_nodes": [[["lambda_39", 0, 0, {}]]]}, {"name": "conv2d_45", "config": {"kernel_initializer": {"config": {"scale": 1.0, "mode": "fan_avg", "distribution": "uniform", "seed": null}, "class_name": "VarianceScaling"}, "bias_initializer": {"config": {}, "class_name": "Zeros"}, "filters": 4, "kernel_size": [3, 3], "padding": "same", "kernel_regularizer": null, "bias_regularizer": null, "use_bias": true, "name": "conv2d_45", "activation": "linear", "activity_regularizer": null, "strides": [1, 1], "dilation_rate": [1, 1], "data_format": "channels_last", "kernel_constraint": null, "trainable": true, "bias_constraint": null}, "class_name": "Conv2D", "inbound_nodes": [[["lambda_40", 0, 0, {}]]]}, {"name": "conv2d_46", "config": {"kernel_initializer": {"config": {"scale": 1.0, "mode": "fan_avg", "distribution": "uniform", "seed": null}, "class_name": "VarianceScaling"}, "bias_initializer": {"config": {}, "class_name": "Zeros"}, "filters": 4, "kernel_size": [3, 3], "padding": "same", "kernel_regularizer": null, "bias_regularizer": null, "use_bias": true, "name": "conv2d_46", "activation": "linear", "activity_regularizer": null, "strides": [1, 1], "dilation_rate": [1, 1], "data_format": "channels_last", "kernel_constraint": null, "trainable": true, "bias_constraint": null}, "class_name": "Conv2D", "inbound_nodes": [[["lambda_41", 0, 0, {}]]]}, {"name": "conv2d_47", "config": {"kernel_initializer": {"config": {"scale": 1.0, "mode": "fan_avg", "distribution": "uniform", "seed": null}, "class_name": "VarianceScaling"}, "bias_initializer": {"config": {}, "class_name": "Zeros"}, "filters": 4, "kernel_size": [3, 3], "padding": "same", "kernel_regularizer": null, "bias_regularizer": null, "use_bias": true, "name": "conv2d_47", "activation": "linear", "activity_regularizer": null, "strides": [1, 1], "dilation_rate": [1, 1], "data_format": "channels_last", "kernel_constraint": null, "trainable": true, "bias_constraint": null}, "class_name": "Conv2D", "inbound_nodes": [[["lambda_42", 0, 0, {}]]]}, {"name": "conv2d_48", "config": {"kernel_initializer": {"config": {"scale": 1.0, "mode": "fan_avg", "distribution": "uniform", "seed": null}, "class_name": "VarianceScaling"}, "bias_initializer": {"config": {}, "class_name": "Zeros"}, "filters": 4, "kernel_size": [3, 3], "padding": "same", "kernel_regularizer": null, "bias_regularizer": null, "use_bias": true, "name": "conv2d_48", "activation": "linear", "activity_regularizer": null, "strides": [1, 1], "dilation_rate": [1, 1], "data_format": "channels_last", "kernel_constraint": null, "trainable": true, "bias_constraint": null}, "class_name": "Conv2D", "inbound_nodes": [[["lambda_43", 0, 0, {}]]]}, {"name": "conv2d_49", "config": {"kernel_initializer": {"config": {"scale": 1.0, "mode": "fan_avg", "distribution": "uniform", "seed": null}, "class_name": "VarianceScaling"}, "bias_initializer": {"config": {}, "class_name": "Zeros"}, "filters": 4, "kernel_size": [3, 3], "padding": "same", "kernel_regularizer": null, "bias_regularizer": null, "use_bias": true, "name": "conv2d_49", "activation": "linear", "activity_regularizer": null, "strides": [1, 1], "dilation_rate": [1, 1], "data_format": "channels_last", "kernel_constraint": null, "trainable": true, "bias_constraint": null}, "class_name": "Conv2D", "inbound_nodes": [[["lambda_44", 0, 0, {}]]]}, {"name": "conv2d_50", "config": {"kernel_initializer": {"config": {"scale": 1.0, "mode": "fan_avg", "distribution": "uniform", "seed": null}, "class_name": "VarianceScaling"}, "bias_initializer": {"config": {}, "class_name": "Zeros"}, "filters": 4, "kernel_size": [3, 3], "padding": "same", "kernel_regularizer": null, "bias_regularizer": null, "use_bias": true, "name": "conv2d_50", "activation": "linear", "activity_regularizer": null, "strides": [1, 1], "dilation_rate": [1, 1], "data_format": "channels_last", "kernel_constraint": null, "trainable": true, "bias_constraint": null}, "class_name": "Conv2D", "inbound_nodes": [[["lambda_45", 0, 0, {}]]]}, {"name": "conv2d_51", "config": {"kernel_initializer": {"config": {"scale": 1.0, "mode": "fan_avg", "distribution": "uniform", "seed": null}, "class_name": "VarianceScaling"}, "bias_initializer": {"config": {}, "class_name": "Zeros"}, "filters": 4, "kernel_size": [3, 3], "padding": "same", "kernel_regularizer": null, "bias_regularizer": null, "use_bias": true, "name": "conv2d_51", "activation": "linear", "activity_regularizer": null, "strides": [1, 1], "dilation_rate": [1, 1], "data_format": "channels_last", "kernel_constraint": null, "trainable": true, "bias_constraint": null}, "class_name": "Conv2D", "inbound_nodes": [[["lambda_46", 0, 0, {}]]]}, {"name": "conv2d_52", "config": {"kernel_initializer": {"config": {"scale": 1.0, "mode": "fan_avg", "distribution": "uniform", "seed": null}, "class_name": "VarianceScaling"}, "bias_initializer": {"config": {}, "class_name": "Zeros"}, "filters": 4, "kernel_size": [3, 3], "padding": "same", "kernel_regularizer": null, "bias_regularizer": null, "use_bias": true, "name": "conv2d_52", "activation": "linear", "activity_regularizer": null, "strides": [1, 1], "dilation_rate": [1, 1], "data_format": "channels_last", "kernel_constraint": null, "trainable": true, "bias_constraint": null}, "class_name": "Conv2D", "inbound_nodes": [[["lambda_47", 0, 0, {}]]]}, {"name": "conv2d_53", "config": {"kernel_initializer": {"config": {"scale": 1.0, "mode": "fan_avg", "distribution": "uniform", "seed": null}, "class_name": "VarianceScaling"}, "bias_initializer": {"config": {}, "class_name": "Zeros"}, "filters": 4, "kernel_size": [3, 3], "padding": "same", "kernel_regularizer": null, "bias_regularizer": null, "use_bias": true, "name": "conv2d_53", "activation": "linear", "activity_regularizer": null, "strides": [1, 1], "dilation_rate": [1, 1], "data_format": "channels_last", "kernel_constraint": null, "trainable": true, "bias_constraint": null}, "class_name": "Conv2D", "inbound_nodes": [[["lambda_48", 0, 0, {}]]]}, {"name": "conv2d_54", "config": {"kernel_initializer": {"config": {"scale": 1.0, "mode": "fan_avg", "distribution": "uniform", "seed": null}, "class_name": "VarianceScaling"}, "bias_initializer": {"config": {}, "class_name": "Zeros"}, "filters": 4, "kernel_size": [3, 3], "padding": "same", "kernel_regularizer": null, "bias_regularizer": null, "use_bias": true, "name": "conv2d_54", "activation": "linear", "activity_regularizer": null, "strides": [1, 1], "dilation_rate": [1, 1], "data_format": "channels_last", "kernel_constraint": null, "trainable": true, "bias_constraint": null}, "class_name": "Conv2D", "inbound_nodes": [[["lambda_49", 0, 0, {}]]]}, {"name": "conv2d_55", "config": {"kernel_initializer": {"config": {"scale": 1.0, "mode": "fan_avg", "distribution": "uniform", "seed": null}, "class_name": "VarianceScaling"}, "bias_initializer": {"config": {}, "class_name": "Zeros"}, "filters": 4, "kernel_size": [3, 3], "padding": "same", "kernel_regularizer": null, "bias_regularizer": null, "use_bias": true, "name": "conv2d_55", "activation": "linear", "activity_regularizer": null, "strides": [1, 1], "dilation_rate": [1, 1], "data_format": "channels_last", "kernel_constraint": null, "trainable": true, "bias_constraint": null}, "class_name": "Conv2D", "inbound_nodes": [[["lambda_50", 0, 0, {}]]]}, {"name": "conv2d_56", "config": {"kernel_initializer": {"config": {"scale": 1.0, "mode": "fan_avg", "distribution": "uniform", "seed": null}, "class_name": "VarianceScaling"}, "bias_initializer": {"config": {}, "class_name": "Zeros"}, "filters": 4, "kernel_size": [3, 3], "padding": "same", "kernel_regularizer": null, "bias_regularizer": null, "use_bias": true, "name": "conv2d_56", "activation": "linear", "activity_regularizer": null, "strides": [1, 1], "dilation_rate": [1, 1], "data_format": "channels_last", "kernel_constraint": null, "trainable": true, "bias_constraint": null}, "class_name": "Conv2D", "inbound_nodes": [[["lambda_51", 0, 0, {}]]]}, {"name": "conv2d_57", "config": {"kernel_initializer": {"config": {"scale": 1.0, "mode": "fan_avg", "distribution": "uniform", "seed": null}, "class_name": "VarianceScaling"}, "bias_initializer": {"config": {}, "class_name": "Zeros"}, "filters": 4, "kernel_size": [3, 3], "padding": "same", "kernel_regularizer": null, "bias_regularizer": null, "use_bias": true, "name": "conv2d_57", "activation": "linear", "activity_regularizer": null, "strides": [1, 1], "dilation_rate": [1, 1], "data_format": "channels_last", "kernel_constraint": null, "trainable": true, "bias_constraint": null}, "class_name": "Conv2D", "inbound_nodes": [[["lambda_52", 0, 0, {}]]]}, {"name": "conv2d_58", "config": {"kernel_initializer": {"config": {"scale": 1.0, "mode": "fan_avg", "distribution": "uniform", "seed": null}, "class_name": "VarianceScaling"}, "bias_initializer": {"config": {}, "class_name": "Zeros"}, "filters": 4, "kernel_size": [3, 3], "padding": "same", "kernel_regularizer": null, "bias_regularizer": null, "use_bias": true, "name": "conv2d_58", "activation": "linear", "activity_regularizer": null, "strides": [1, 1], "dilation_rate": [1, 1], "data_format": "channels_last", "kernel_constraint": null, "trainable": true, "bias_constraint": null}, "class_name": "Conv2D", "inbound_nodes": [[["lambda_53", 0, 0, {}]]]}, {"name": "conv2d_59", "config": {"kernel_initializer": {"config": {"scale": 1.0, "mode": "fan_avg", "distribution": "uniform", "seed": null}, "class_name": "VarianceScaling"}, "bias_initializer": {"config": {}, "class_name": "Zeros"}, "filters": 4, "kernel_size": [3, 3], "padding": "same", "kernel_regularizer": null, "bias_regularizer": null, "use_bias": true, "name": "conv2d_59", "activation": "linear", "activity_regularizer": null, "strides": [1, 1], "dilation_rate": [1, 1], "data_format": "channels_last", "kernel_constraint": null, "trainable": true, "bias_constraint": null}, "class_name": "Conv2D", "inbound_nodes": [[["lambda_54", 0, 0, {}]]]}, {"name": "conv2d_60", "config": {"kernel_initializer": {"config": {"scale": 1.0, "mode": "fan_avg", "distribution": "uniform", "seed": null}, "class_name": "VarianceScaling"}, "bias_initializer": {"config": {}, "class_name": "Zeros"}, "filters": 4, "kernel_size": [3, 3], "padding": "same", "kernel_regularizer": null, "bias_regularizer": null, "use_bias": true, "name": "conv2d_60", "activation": "linear", "activity_regularizer": null, "strides": [1, 1], "dilation_rate": [1, 1], "data_format": "channels_last", "kernel_constraint": null, "trainable": true, "bias_constraint": null}, "class_name": "Conv2D", "inbound_nodes": [[["lambda_55", 0, 0, {}]]]}, {"name": "conv2d_61", "config": {"kernel_initializer": {"config": {"scale": 1.0, "mode": "fan_avg", "distribution": "uniform", "seed": null}, "class_name": "VarianceScaling"}, "bias_initializer": {"config": {}, "class_name": "Zeros"}, "filters": 4, "kernel_size": [3, 3], "padding": "same", "kernel_regularizer": null, "bias_regularizer": null, "use_bias": true, "name": "conv2d_61", "activation": "linear", "activity_regularizer": null, "strides": [1, 1], "dilation_rate": [1, 1], "data_format": "channels_last", "kernel_constraint": null, "trainable": true, "bias_constraint": null}, "class_name": "Conv2D", "inbound_nodes": [[["lambda_56", 0, 0, {}]]]}, {"name": "conv2d_62", "config": {"kernel_initializer": {"config": {"scale": 1.0, "mode": "fan_avg", "distribution": "uniform", "seed": null}, "class_name": "VarianceScaling"}, "bias_initializer": {"config": {}, "class_name": "Zeros"}, "filters": 4, "kernel_size": [3, 3], "padding": "same", "kernel_regularizer": null, "bias_regularizer": null, "use_bias": true, "name": "conv2d_62", "activation": "linear", "activity_regularizer": null, "strides": [1, 1], "dilation_rate": [1, 1], "data_format": "channels_last", "kernel_constraint": null, "trainable": true, "bias_constraint": null}, "class_name": "Conv2D", "inbound_nodes": [[["lambda_57", 0, 0, {}]]]}, {"name": "conv2d_63", "config": {"kernel_initializer": {"config": {"scale": 1.0, "mode": "fan_avg", "distribution": "uniform", "seed": null}, "class_name": "VarianceScaling"}, "bias_initializer": {"config": {}, "class_name": "Zeros"}, "filters": 4, "kernel_size": [3, 3], "padding": "same", "kernel_regularizer": null, "bias_regularizer": null, "use_bias": true, "name": "conv2d_63", "activation": "linear", "activity_regularizer": null, "strides": [1, 1], "dilation_rate": [1, 1], "data_format": "channels_last", "kernel_constraint": null, "trainable": true, "bias_constraint": null}, "class_name": "Conv2D", "inbound_nodes": [[["lambda_58", 0, 0, {}]]]}, {"name": "conv2d_64", "config": {"kernel_initializer": {"config": {"scale": 1.0, "mode": "fan_avg", "distribution": "uniform", "seed": null}, "class_name": "VarianceScaling"}, "bias_initializer": {"config": {}, "class_name": "Zeros"}, "filters": 4, "kernel_size": [3, 3], "padding": "same", "kernel_regularizer": null, "bias_regularizer": null, "use_bias": true, "name": "conv2d_64", "activation": "linear", "activity_regularizer": null, "strides": [1, 1], "dilation_rate": [1, 1], "data_format": "channels_last", "kernel_constraint": null, "trainable": true, "bias_constraint": null}, "class_name": "Conv2D", "inbound_nodes": [[["lambda_59", 0, 0, {}]]]}, {"name": "conv2d_65", "config": {"kernel_initializer": {"config": {"scale": 1.0, "mode": "fan_avg", "distribution": "uniform", "seed": null}, "class_name": "VarianceScaling"}, "bias_initializer": {"config": {}, "class_name": "Zeros"}, "filters": 4, "kernel_size": [3, 3], "padding": "same", "kernel_regularizer": null, "bias_regularizer": null, "use_bias": true, "name": "conv2d_65", "activation": "linear", "activity_regularizer": null, "strides": [1, 1], "dilation_rate": [1, 1], "data_format": "channels_last", "kernel_constraint": null, "trainable": true, "bias_constraint": null}, "class_name": "Conv2D", "inbound_nodes": [[["lambda_60", 0, 0, {}]]]}, {"name": "conv2d_66", "config": {"kernel_initializer": {"config": {"scale": 1.0, "mode": "fan_avg", "distribution": "uniform", "seed": null}, "class_name": "VarianceScaling"}, "bias_initializer": {"config": {}, "class_name": "Zeros"}, "filters": 4, "kernel_size": [3, 3], "padding": "same", "kernel_regularizer": null, "bias_regularizer": null, "use_bias": true, "name": "conv2d_66", "activation": "linear", "activity_regularizer": null, "strides": [1, 1], "dilation_rate": [1, 1], "data_format": "channels_last", "kernel_constraint": null, "trainable": true, "bias_constraint": null}, "class_name": "Conv2D", "inbound_nodes": [[["lambda_61", 0, 0, {}]]]}, {"name": "conv2d_67", "config": {"kernel_initializer": {"config": {"scale": 1.0, "mode": "fan_avg", "distribution": "uniform", "seed": null}, "class_name": "VarianceScaling"}, "bias_initializer": {"config": {}, "class_name": "Zeros"}, "filters": 4, "kernel_size": [3, 3], "padding": "same", "kernel_regularizer": null, "bias_regularizer": null, "use_bias": true, "name": "conv2d_67", "activation": "linear", "activity_regularizer": null, "strides": [1, 1], "dilation_rate": [1, 1], "data_format": "channels_last", "kernel_constraint": null, "trainable": true, "bias_constraint": null}, "class_name": "Conv2D", "inbound_nodes": [[["lambda_62", 0, 0, {}]]]}, {"name": "conv2d_68", "config": {"kernel_initializer": {"config": {"scale": 1.0, "mode": "fan_avg", "distribution": "uniform", "seed": null}, "class_name": "VarianceScaling"}, "bias_initializer": {"config": {}, "class_name": "Zeros"}, "filters": 4, "kernel_size": [3, 3], "padding": "same", "kernel_regularizer": null, "bias_regularizer": null, "use_bias": true, "name": "conv2d_68", "activation": "linear", "activity_regularizer": null, "strides": [1, 1], "dilation_rate": [1, 1], "data_format": "channels_last", "kernel_constraint": null, "trainable": true, "bias_constraint": null}, "class_name": "Conv2D", "inbound_nodes": [[["lambda_63", 0, 0, {}]]]}, {"name": "conv2d_69", "config": {"kernel_initializer": {"config": {"scale": 1.0, "mode": "fan_avg", "distribution": "uniform", "seed": null}, "class_name": "VarianceScaling"}, "bias_initializer": {"config": {}, "class_name": "Zeros"}, "filters": 4, "kernel_size": [3, 3], "padding": "same", "kernel_regularizer": null, "bias_regularizer": null, "use_bias": true, "name": "conv2d_69", "activation": "linear", "activity_regularizer": null, "strides": [1, 1], "dilation_rate": [1, 1], "data_format": "channels_last", "kernel_constraint": null, "trainable": true, "bias_constraint": null}, "class_name": "Conv2D", "inbound_nodes": [[["lambda_64", 0, 0, {}]]]}, {"name": "concatenate_2", "config": {"name": "concatenate_2", "trainable": true, "axis": -1}, "class_name": "Concatenate", "inbound_nodes": [[["conv2d_38", 0, 0, {}], ["conv2d_39", 0, 0, {}], ["conv2d_40", 0, 0, {}], ["conv2d_41", 0, 0, {}], ["conv2d_42", 0, 0, {}], ["conv2d_43", 0, 0, {}], ["conv2d_44", 0, 0, {}], ["conv2d_45", 0, 0, {}], ["conv2d_46", 0, 0, {}], ["conv2d_47", 0, 0, {}], ["conv2d_48", 0, 0, {}], ["conv2d_49", 0, 0, {}], ["conv2d_50", 0, 0, {}], ["conv2d_51", 0, 0, {}], ["conv2d_52", 0, 0, {}], ["conv2d_53", 0, 0, {}], ["conv2d_54", 0, 0, {}], ["conv2d_55", 0, 0, {}], ["conv2d_56", 0, 0, {}], ["conv2d_57", 0, 0, {}], ["conv2d_58", 0, 0, {}], ["conv2d_59", 0, 0, {}], ["conv2d_60", 0, 0, {}], ["conv2d_61", 0, 0, {}], ["conv2d_62", 0, 0, {}], ["conv2d_63", 0, 0, {}], ["conv2d_64", 0, 0, {}], ["conv2d_65", 0, 0, {}], ["conv2d_66", 0, 0, {}], ["conv2d_67", 0, 0, {}], ["conv2d_68", 0, 0, {}], ["conv2d_69", 0, 0, {}]]]}, {"name": "batch_normalization_7", "config": {"epsilon": 0.001, "momentum": 0.99, "beta_constraint": null, "scale": true, "gamma_constraint": null, "gamma_regularizer": null, "gamma_initializer": {"config": {}, "class_name": "Ones"}, "axis": -1, "name": "batch_normalization_7", "center": true, "beta_regularizer": null, "beta_initializer": {"config": {}, "class_name": "Zeros"}, "moving_mean_initializer": {"config": {}, "class_name": "Zeros"}, "moving_variance_initializer": {"config": {}, "class_name": "Ones"}, "trainable": true}, "class_name": "BatchNormalization", "inbound_nodes": [[["concatenate_2", 0, 0, {}]]]}, {"name": "leaky_re_lu_6", "config": {"name": "leaky_re_lu_6", "alpha": 0.30000001192092896, "trainable": true}, "class_name": "LeakyReLU", "inbound_nodes": [[["batch_normalization_7", 0, 0, {}]]]}, {"name": "conv2d_70", "config": {"kernel_initializer": {"config": {"scale": 1.0, "mode": "fan_avg", "distribution": "uniform", "seed": null}, "class_name": "VarianceScaling"}, "bias_initializer": {"config": {}, "class_name": "Zeros"}, "filters": 256, "kernel_size": [1, 1], "padding": "same", "kernel_regularizer": null, "bias_regularizer": null, "use_bias": true, "name": "conv2d_70", "activation": "linear", "activity_regularizer": null, "strides": [1, 1], "dilation_rate": [1, 1], "data_format": "channels_last", "kernel_constraint": null, "trainable": true, "bias_constraint": null}, "class_name": "Conv2D", "inbound_nodes": [[["leaky_re_lu_6", 0, 0, {}]]]}, {"name": "batch_normalization_8", "config": {"epsilon": 0.001, "momentum": 0.99, "beta_constraint": null, "scale": true, "gamma_constraint": null, "gamma_regularizer": null, "gamma_initializer": {"config": {}, "class_name": "Ones"}, "axis": -1, "name": "batch_normalization_8", "center": true, "beta_regularizer": null, "beta_initializer": {"config": {}, "class_name": "Zeros"}, "moving_mean_initializer": {"config": {}, "class_name": "Zeros"}, "moving_variance_initializer": {"config": {}, "class_name": "Ones"}, "trainable": true}, "class_name": "BatchNormalization", "inbound_nodes": [[["conv2d_70", 0, 0, {}]]]}, {"name": "add_2", "config": {"name": "add_2", "trainable": true}, "class_name": "Add", "inbound_nodes": [[["leaky_re_lu_4", 0, 0, {}], ["batch_normalization_8", 0, 0, {}]]]}, {"name": "leaky_re_lu_7", "config": {"name": "leaky_re_lu_7", "alpha": 0.30000001192092896, "trainable": true}, "class_name": "LeakyReLU", "inbound_nodes": [[["add_2", 0, 0, {}]]]}, {"name": "conv2d_71", "config": {"kernel_initializer": {"config": {"scale": 1.0, "mode": "fan_avg", "distribution": "uniform", "seed": null}, "class_name": "VarianceScaling"}, "bias_initializer": {"config": {}, "class_name": "Zeros"}, "filters": 256, "kernel_size": [1, 1], "padding": "same", "kernel_regularizer": null, "bias_regularizer": null, "use_bias": true, "name": "conv2d_71", "activation": "linear", "activity_regularizer": null, "strides": [1, 1], "dilation_rate": [1, 1], "data_format": "channels_last", "kernel_constraint": null, "trainable": true, "bias_constraint": null}, "class_name": "Conv2D", "inbound_nodes": [[["leaky_re_lu_7", 0, 0, {}]]]}, {"name": "batch_normalization_9", "config": {"epsilon": 0.001, "momentum": 0.99, "beta_constraint": null, "scale": true, "gamma_constraint": null, "gamma_regularizer": null, "gamma_initializer": {"config": {}, "class_name": "Ones"}, "axis": -1, "name": "batch_normalization_9", "center": true, "beta_regularizer": null, "beta_initializer": {"config": {}, "class_name": "Zeros"}, "moving_mean_initializer": {"config": {}, "class_name": "Zeros"}, "moving_variance_initializer": {"config": {}, "class_name": "Ones"}, "trainable": true}, "class_name": "BatchNormalization", "inbound_nodes": [[["conv2d_71", 0, 0, {}]]]}, {"name": "leaky_re_lu_8", "config": {"name": "leaky_re_lu_8", "alpha": 0.30000001192092896, "trainable": true}, "class_name": "LeakyReLU", "inbound_nodes": [[["batch_normalization_9", 0, 0, {}]]]}, {"name": "lambda_65", "config": {"name": "lambda_65", "output_shape_type": "raw", "output_shape": null, "arguments": {}, "function": ["4wEAAAAAAAAAAQAAAAcAAAATAAAAczgAAAB8AABkAABkAACFAgBkAABkAACFAgBkAABkAACFAgCI\nAQCIAAAUiAEAiAAAFIgAABeFAgBmBAAZUykBTqkAKQHaAXopAtoCX2TaAWpyAQAAAPoyRDovX0hL\nU0RhdGEvV3JhcHBlci9hdXRvTUwvdGVzdGluZy9SZXNOZXRfbW9kZWwucHnaCDxsYW1iZGE+KQAA\nAHMAAAAA\n", null, [8, 31]], "function_type": "lambda", "trainable": true}, "class_name": "Lambda", "inbound_nodes": [[["leaky_re_lu_8", 0, 0, {}]]]}, {"name": "lambda_66", "config": {"name": "lambda_66", "output_shape_type": "raw", "output_shape": null, "arguments": {}, "function": ["4wEAAAAAAAAAAQAAAAcAAAATAAAAczgAAAB8AABkAABkAACFAgBkAABkAACFAgBkAABkAACFAgCI\nAQCIAAAUiAEAiAAAFIgAABeFAgBmBAAZUykBTqkAKQHaAXopAtoCX2TaAWpyAQAAAPoyRDovX0hL\nU0RhdGEvV3JhcHBlci9hdXRvTUwvdGVzdGluZy9SZXNOZXRfbW9kZWwucHnaCDxsYW1iZGE+KQAA\nAHMAAAAA\n", null, [8, 31]], "function_type": "lambda", "trainable": true}, "class_name": "Lambda", "inbound_nodes": [[["leaky_re_lu_8", 0, 0, {}]]]}, {"name": "lambda_67", "config": {"name": "lambda_67", "output_shape_type": "raw", "output_shape": null, "arguments": {}, "function": ["4wEAAAAAAAAAAQAAAAcAAAATAAAAczgAAAB8AABkAABkAACFAgBkAABkAACFAgBkAABkAACFAgCI\nAQCIAAAUiAEAiAAAFIgAABeFAgBmBAAZUykBTqkAKQHaAXopAtoCX2TaAWpyAQAAAPoyRDovX0hL\nU0RhdGEvV3JhcHBlci9hdXRvTUwvdGVzdGluZy9SZXNOZXRfbW9kZWwucHnaCDxsYW1iZGE+KQAA\nAHMAAAAA\n", null, [8, 31]], "function_type": "lambda", "trainable": true}, "class_name": "Lambda", "inbound_nodes": [[["leaky_re_lu_8", 0, 0, {}]]]}, {"name": "lambda_68", "config": {"name": "lambda_68", "output_shape_type": "raw", "output_shape": null, "arguments": {}, "function": ["4wEAAAAAAAAAAQAAAAcAAAATAAAAczgAAAB8AABkAABkAACFAgBkAABkAACFAgBkAABkAACFAgCI\nAQCIAAAUiAEAiAAAFIgAABeFAgBmBAAZUykBTqkAKQHaAXopAtoCX2TaAWpyAQAAAPoyRDovX0hL\nU0RhdGEvV3JhcHBlci9hdXRvTUwvdGVzdGluZy9SZXNOZXRfbW9kZWwucHnaCDxsYW1iZGE+KQAA\nAHMAAAAA\n", null, [8, 31]], "function_type": "lambda", "trainable": true}, "class_name": "Lambda", "inbound_nodes": [[["leaky_re_lu_8", 0, 0, {}]]]}, {"name": "lambda_69", "config": {"name": "lambda_69", "output_shape_type": "raw", "output_shape": null, "arguments": {}, "function": ["4wEAAAAAAAAAAQAAAAcAAAATAAAAczgAAAB8AABkAABkAACFAgBkAABkAACFAgBkAABkAACFAgCI\nAQCIAAAUiAEAiAAAFIgAABeFAgBmBAAZUykBTqkAKQHaAXopAtoCX2TaAWpyAQAAAPoyRDovX0hL\nU0RhdGEvV3JhcHBlci9hdXRvTUwvdGVzdGluZy9SZXNOZXRfbW9kZWwucHnaCDxsYW1iZGE+KQAA\nAHMAAAAA\n", null, [8, 31]], "function_type": "lambda", "trainable": true}, "class_name": "Lambda", "inbound_nodes": [[["leaky_re_lu_8", 0, 0, {}]]]}, {"name": "lambda_70", "config": {"name": "lambda_70", "output_shape_type": "raw", "output_shape": null, "arguments": {}, "function": ["4wEAAAAAAAAAAQAAAAcAAAATAAAAczgAAAB8AABkAABkAACFAgBkAABkAACFAgBkAABkAACFAgCI\nAQCIAAAUiAEAiAAAFIgAABeFAgBmBAAZUykBTqkAKQHaAXopAtoCX2TaAWpyAQAAAPoyRDovX0hL\nU0RhdGEvV3JhcHBlci9hdXRvTUwvdGVzdGluZy9SZXNOZXRfbW9kZWwucHnaCDxsYW1iZGE+KQAA\nAHMAAAAA\n", null, [8, 31]], "function_type": "lambda", "trainable": true}, "class_name": "Lambda", "inbound_nodes": [[["leaky_re_lu_8", 0, 0, {}]]]}, {"name": "lambda_71", "config": {"name": "lambda_71", "output_shape_type": "raw", "output_shape": null, "arguments": {}, "function": ["4wEAAAAAAAAAAQAAAAcAAAATAAAAczgAAAB8AABkAABkAACFAgBkAABkAACFAgBkAABkAACFAgCI\nAQCIAAAUiAEAiAAAFIgAABeFAgBmBAAZUykBTqkAKQHaAXopAtoCX2TaAWpyAQAAAPoyRDovX0hL\nU0RhdGEvV3JhcHBlci9hdXRvTUwvdGVzdGluZy9SZXNOZXRfbW9kZWwucHnaCDxsYW1iZGE+KQAA\nAHMAAAAA\n", null, [8, 31]], "function_type": "lambda", "trainable": true}, "class_name": "Lambda", "inbound_nodes": [[["leaky_re_lu_8", 0, 0, {}]]]}, {"name": "lambda_72", "config": {"name": "lambda_72", "output_shape_type": "raw", "output_shape": null, "arguments": {}, "function": ["4wEAAAAAAAAAAQAAAAcAAAATAAAAczgAAAB8AABkAABkAACFAgBkAABkAACFAgBkAABkAACFAgCI\nAQCIAAAUiAEAiAAAFIgAABeFAgBmBAAZUykBTqkAKQHaAXopAtoCX2TaAWpyAQAAAPoyRDovX0hL\nU0RhdGEvV3JhcHBlci9hdXRvTUwvdGVzdGluZy9SZXNOZXRfbW9kZWwucHnaCDxsYW1iZGE+KQAA\nAHMAAAAA\n", null, [8, 31]], "function_type": "lambda", "trainable": true}, "class_name": "Lambda", "inbound_nodes": [[["leaky_re_lu_8", 0, 0, {}]]]}, {"name": "lambda_73", "config": {"name": "lambda_73", "output_shape_type": "raw", "output_shape": null, "arguments": {}, "function": ["4wEAAAAAAAAAAQAAAAcAAAATAAAAczgAAAB8AABkAABkAACFAgBkAABkAACFAgBkAABkAACFAgCI\nAQCIAAAUiAEAiAAAFIgAABeFAgBmBAAZUykBTqkAKQHaAXopAtoCX2TaAWpyAQAAAPoyRDovX0hL\nU0RhdGEvV3JhcHBlci9hdXRvTUwvdGVzdGluZy9SZXNOZXRfbW9kZWwucHnaCDxsYW1iZGE+KQAA\nAHMAAAAA\n", null, [8, 31]], "function_type": "lambda", "trainable": true}, "class_name": "Lambda", "inbound_nodes": [[["leaky_re_lu_8", 0, 0, {}]]]}, {"name": "lambda_74", "config": {"name": "lambda_74", "output_shape_type": "raw", "output_shape": null, "arguments": {}, "function": ["4wEAAAAAAAAAAQAAAAcAAAATAAAAczgAAAB8AABkAABkAACFAgBkAABkAACFAgBkAABkAACFAgCI\nAQCIAAAUiAEAiAAAFIgAABeFAgBmBAAZUykBTqkAKQHaAXopAtoCX2TaAWpyAQAAAPoyRDovX0hL\nU0RhdGEvV3JhcHBlci9hdXRvTUwvdGVzdGluZy9SZXNOZXRfbW9kZWwucHnaCDxsYW1iZGE+KQAA\nAHMAAAAA\n", null, [8, 31]], "function_type": "lambda", "trainable": true}, "class_name": "Lambda", "inbound_nodes": [[["leaky_re_lu_8", 0, 0, {}]]]}, {"name": "lambda_75", "config": {"name": "lambda_75", "output_shape_type": "raw", "output_shape": null, "arguments": {}, "function": ["4wEAAAAAAAAAAQAAAAcAAAATAAAAczgAAAB8AABkAABkAACFAgBkAABkAACFAgBkAABkAACFAgCI\nAQCIAAAUiAEAiAAAFIgAABeFAgBmBAAZUykBTqkAKQHaAXopAtoCX2TaAWpyAQAAAPoyRDovX0hL\nU0RhdGEvV3JhcHBlci9hdXRvTUwvdGVzdGluZy9SZXNOZXRfbW9kZWwucHnaCDxsYW1iZGE+KQAA\nAHMAAAAA\n", null, [8, 31]], "function_type": "lambda", "trainable": true}, "class_name": "Lambda", "inbound_nodes": [[["leaky_re_lu_8", 0, 0, {}]]]}, {"name": "lambda_76", "config": {"name": "lambda_76", "output_shape_type": "raw", "output_shape": null, "arguments": {}, "function": ["4wEAAAAAAAAAAQAAAAcAAAATAAAAczgAAAB8AABkAABkAACFAgBkAABkAACFAgBkAABkAACFAgCI\nAQCIAAAUiAEAiAAAFIgAABeFAgBmBAAZUykBTqkAKQHaAXopAtoCX2TaAWpyAQAAAPoyRDovX0hL\nU0RhdGEvV3JhcHBlci9hdXRvTUwvdGVzdGluZy9SZXNOZXRfbW9kZWwucHnaCDxsYW1iZGE+KQAA\nAHMAAAAA\n", null, [8, 31]], "function_type": "lambda", "trainable": true}, "class_name": "Lambda", "inbound_nodes": [[["leaky_re_lu_8", 0, 0, {}]]]}, {"name": "lambda_77", "config": {"name": "lambda_77", "output_shape_type": "raw", "output_shape": null, "arguments": {}, "function": ["4wEAAAAAAAAAAQAAAAcAAAATAAAAczgAAAB8AABkAABkAACFAgBkAABkAACFAgBkAABkAACFAgCI\nAQCIAAAUiAEAiAAAFIgAABeFAgBmBAAZUykBTqkAKQHaAXopAtoCX2TaAWpyAQAAAPoyRDovX0hL\nU0RhdGEvV3JhcHBlci9hdXRvTUwvdGVzdGluZy9SZXNOZXRfbW9kZWwucHnaCDxsYW1iZGE+KQAA\nAHMAAAAA\n", null, [8, 31]], "function_type": "lambda", "trainable": true}, "class_name": "Lambda", "inbound_nodes": [[["leaky_re_lu_8", 0, 0, {}]]]}, {"name": "lambda_78", "config": {"name": "lambda_78", "output_shape_type": "raw", "output_shape": null, "arguments": {}, "function": ["4wEAAAAAAAAAAQAAAAcAAAATAAAAczgAAAB8AABkAABkAACFAgBkAABkAACFAgBkAABkAACFAgCI\nAQCIAAAUiAEAiAAAFIgAABeFAgBmBAAZUykBTqkAKQHaAXopAtoCX2TaAWpyAQAAAPoyRDovX0hL\nU0RhdGEvV3JhcHBlci9hdXRvTUwvdGVzdGluZy9SZXNOZXRfbW9kZWwucHnaCDxsYW1iZGE+KQAA\nAHMAAAAA\n", null, [8, 31]], "function_type": "lambda", "trainable": true}, "class_name": "Lambda", "inbound_nodes": [[["leaky_re_lu_8", 0, 0, {}]]]}, {"name": "lambda_79", "config": {"name": "lambda_79", "output_shape_type": "raw", "output_shape": null, "arguments": {}, "function": ["4wEAAAAAAAAAAQAAAAcAAAATAAAAczgAAAB8AABkAABkAACFAgBkAABkAACFAgBkAABkAACFAgCI\nAQCIAAAUiAEAiAAAFIgAABeFAgBmBAAZUykBTqkAKQHaAXopAtoCX2TaAWpyAQAAAPoyRDovX0hL\nU0RhdGEvV3JhcHBlci9hdXRvTUwvdGVzdGluZy9SZXNOZXRfbW9kZWwucHnaCDxsYW1iZGE+KQAA\nAHMAAAAA\n", null, [8, 31]], "function_type": "lambda", "trainable": true}, "class_name": "Lambda", "inbound_nodes": [[["leaky_re_lu_8", 0, 0, {}]]]}, {"name": "lambda_80", "config": {"name": "lambda_80", "output_shape_type": "raw", "output_shape": null, "arguments": {}, "function": ["4wEAAAAAAAAAAQAAAAcAAAATAAAAczgAAAB8AABkAABkAACFAgBkAABkAACFAgBkAABkAACFAgCI\nAQCIAAAUiAEAiAAAFIgAABeFAgBmBAAZUykBTqkAKQHaAXopAtoCX2TaAWpyAQAAAPoyRDovX0hL\nU0RhdGEvV3JhcHBlci9hdXRvTUwvdGVzdGluZy9SZXNOZXRfbW9kZWwucHnaCDxsYW1iZGE+KQAA\nAHMAAAAA\n", null, [8, 31]], "function_type": "lambda", "trainable": true}, "class_name": "Lambda", "inbound_nodes": [[["leaky_re_lu_8", 0, 0, {}]]]}, {"name": "lambda_81", "config": {"name": "lambda_81", "output_shape_type": "raw", "output_shape": null, "arguments": {}, "function": ["4wEAAAAAAAAAAQAAAAcAAAATAAAAczgAAAB8AABkAABkAACFAgBkAABkAACFAgBkAABkAACFAgCI\nAQCIAAAUiAEAiAAAFIgAABeFAgBmBAAZUykBTqkAKQHaAXopAtoCX2TaAWpyAQAAAPoyRDovX0hL\nU0RhdGEvV3JhcHBlci9hdXRvTUwvdGVzdGluZy9SZXNOZXRfbW9kZWwucHnaCDxsYW1iZGE+KQAA\nAHMAAAAA\n", null, [8, 31]], "function_type": "lambda", "trainable": true}, "class_name": "Lambda", "inbound_nodes": [[["leaky_re_lu_8", 0, 0, {}]]]}, {"name": "lambda_82", "config": {"name": "lambda_82", "output_shape_type": "raw", "output_shape": null, "arguments": {}, "function": ["4wEAAAAAAAAAAQAAAAcAAAATAAAAczgAAAB8AABkAABkAACFAgBkAABkAACFAgBkAABkAACFAgCI\nAQCIAAAUiAEAiAAAFIgAABeFAgBmBAAZUykBTqkAKQHaAXopAtoCX2TaAWpyAQAAAPoyRDovX0hL\nU0RhdGEvV3JhcHBlci9hdXRvTUwvdGVzdGluZy9SZXNOZXRfbW9kZWwucHnaCDxsYW1iZGE+KQAA\nAHMAAAAA\n", null, [8, 31]], "function_type": "lambda", "trainable": true}, "class_name": "Lambda", "inbound_nodes": [[["leaky_re_lu_8", 0, 0, {}]]]}, {"name": "lambda_83", "config": {"name": "lambda_83", "output_shape_type": "raw", "output_shape": null, "arguments": {}, "function": ["4wEAAAAAAAAAAQAAAAcAAAATAAAAczgAAAB8AABkAABkAACFAgBkAABkAACFAgBkAABkAACFAgCI\nAQCIAAAUiAEAiAAAFIgAABeFAgBmBAAZUykBTqkAKQHaAXopAtoCX2TaAWpyAQAAAPoyRDovX0hL\nU0RhdGEvV3JhcHBlci9hdXRvTUwvdGVzdGluZy9SZXNOZXRfbW9kZWwucHnaCDxsYW1iZGE+KQAA\nAHMAAAAA\n", null, [8, 31]], "function_type": "lambda", "trainable": true}, "class_name": "Lambda", "inbound_nodes": [[["leaky_re_lu_8", 0, 0, {}]]]}, {"name": "lambda_84", "config": {"name": "lambda_84", "output_shape_type": "raw", "output_shape": null, "arguments": {}, "function": ["4wEAAAAAAAAAAQAAAAcAAAATAAAAczgAAAB8AABkAABkAACFAgBkAABkAACFAgBkAABkAACFAgCI\nAQCIAAAUiAEAiAAAFIgAABeFAgBmBAAZUykBTqkAKQHaAXopAtoCX2TaAWpyAQAAAPoyRDovX0hL\nU0RhdGEvV3JhcHBlci9hdXRvTUwvdGVzdGluZy9SZXNOZXRfbW9kZWwucHnaCDxsYW1iZGE+KQAA\nAHMAAAAA\n", null, [8, 31]], "function_type": "lambda", "trainable": true}, "class_name": "Lambda", "inbound_nodes": [[["leaky_re_lu_8", 0, 0, {}]]]}, {"name": "lambda_85", "config": {"name": "lambda_85", "output_shape_type": "raw", "output_shape": null, "arguments": {}, "function": ["4wEAAAAAAAAAAQAAAAcAAAATAAAAczgAAAB8AABkAABkAACFAgBkAABkAACFAgBkAABkAACFAgCI\nAQCIAAAUiAEAiAAAFIgAABeFAgBmBAAZUykBTqkAKQHaAXopAtoCX2TaAWpyAQAAAPoyRDovX0hL\nU0RhdGEvV3JhcHBlci9hdXRvTUwvdGVzdGluZy9SZXNOZXRfbW9kZWwucHnaCDxsYW1iZGE+KQAA\nAHMAAAAA\n", null, [8, 31]], "function_type": "lambda", "trainable": true}, "class_name": "Lambda", "inbound_nodes": [[["leaky_re_lu_8", 0, 0, {}]]]}, {"name": "lambda_86", "config": {"name": "lambda_86", "output_shape_type": "raw", "output_shape": null, "arguments": {}, "function": ["4wEAAAAAAAAAAQAAAAcAAAATAAAAczgAAAB8AABkAABkAACFAgBkAABkAACFAgBkAABkAACFAgCI\nAQCIAAAUiAEAiAAAFIgAABeFAgBmBAAZUykBTqkAKQHaAXopAtoCX2TaAWpyAQAAAPoyRDovX0hL\nU0RhdGEvV3JhcHBlci9hdXRvTUwvdGVzdGluZy9SZXNOZXRfbW9kZWwucHnaCDxsYW1iZGE+KQAA\nAHMAAAAA\n", null, [8, 31]], "function_type": "lambda", "trainable": true}, "class_name": "Lambda", "inbound_nodes": [[["leaky_re_lu_8", 0, 0, {}]]]}, {"name": "lambda_87", "config": {"name": "lambda_87", "output_shape_type": "raw", "output_shape": null, "arguments": {}, "function": ["4wEAAAAAAAAAAQAAAAcAAAATAAAAczgAAAB8AABkAABkAACFAgBkAABkAACFAgBkAABkAACFAgCI\nAQCIAAAUiAEAiAAAFIgAABeFAgBmBAAZUykBTqkAKQHaAXopAtoCX2TaAWpyAQAAAPoyRDovX0hL\nU0RhdGEvV3JhcHBlci9hdXRvTUwvdGVzdGluZy9SZXNOZXRfbW9kZWwucHnaCDxsYW1iZGE+KQAA\nAHMAAAAA\n", null, [8, 31]], "function_type": "lambda", "trainable": true}, "class_name": "Lambda", "inbound_nodes": [[["leaky_re_lu_8", 0, 0, {}]]]}, {"name": "lambda_88", "config": {"name": "lambda_88", "output_shape_type": "raw", "output_shape": null, "arguments": {}, "function": ["4wEAAAAAAAAAAQAAAAcAAAATAAAAczgAAAB8AABkAABkAACFAgBkAABkAACFAgBkAABkAACFAgCI\nAQCIAAAUiAEAiAAAFIgAABeFAgBmBAAZUykBTqkAKQHaAXopAtoCX2TaAWpyAQAAAPoyRDovX0hL\nU0RhdGEvV3JhcHBlci9hdXRvTUwvdGVzdGluZy9SZXNOZXRfbW9kZWwucHnaCDxsYW1iZGE+KQAA\nAHMAAAAA\n", null, [8, 31]], "function_type": "lambda", "trainable": true}, "class_name": "Lambda", "inbound_nodes": [[["leaky_re_lu_8", 0, 0, {}]]]}, {"name": "lambda_89", "config": {"name": "lambda_89", "output_shape_type": "raw", "output_shape": null, "arguments": {}, "function": ["4wEAAAAAAAAAAQAAAAcAAAATAAAAczgAAAB8AABkAABkAACFAgBkAABkAACFAgBkAABkAACFAgCI\nAQCIAAAUiAEAiAAAFIgAABeFAgBmBAAZUykBTqkAKQHaAXopAtoCX2TaAWpyAQAAAPoyRDovX0hL\nU0RhdGEvV3JhcHBlci9hdXRvTUwvdGVzdGluZy9SZXNOZXRfbW9kZWwucHnaCDxsYW1iZGE+KQAA\nAHMAAAAA\n", null, [8, 31]], "function_type": "lambda", "trainable": true}, "class_name": "Lambda", "inbound_nodes": [[["leaky_re_lu_8", 0, 0, {}]]]}, {"name": "lambda_90", "config": {"name": "lambda_90", "output_shape_type": "raw", "output_shape": null, "arguments": {}, "function": ["4wEAAAAAAAAAAQAAAAcAAAATAAAAczgAAAB8AABkAABkAACFAgBkAABkAACFAgBkAABkAACFAgCI\nAQCIAAAUiAEAiAAAFIgAABeFAgBmBAAZUykBTqkAKQHaAXopAtoCX2TaAWpyAQAAAPoyRDovX0hL\nU0RhdGEvV3JhcHBlci9hdXRvTUwvdGVzdGluZy9SZXNOZXRfbW9kZWwucHnaCDxsYW1iZGE+KQAA\nAHMAAAAA\n", null, [8, 31]], "function_type": "lambda", "trainable": true}, "class_name": "Lambda", "inbound_nodes": [[["leaky_re_lu_8", 0, 0, {}]]]}, {"name": "lambda_91", "config": {"name": "lambda_91", "output_shape_type": "raw", "output_shape": null, "arguments": {}, "function": ["4wEAAAAAAAAAAQAAAAcAAAATAAAAczgAAAB8AABkAABkAACFAgBkAABkAACFAgBkAABkAACFAgCI\nAQCIAAAUiAEAiAAAFIgAABeFAgBmBAAZUykBTqkAKQHaAXopAtoCX2TaAWpyAQAAAPoyRDovX0hL\nU0RhdGEvV3JhcHBlci9hdXRvTUwvdGVzdGluZy9SZXNOZXRfbW9kZWwucHnaCDxsYW1iZGE+KQAA\nAHMAAAAA\n", null, [8, 31]], "function_type": "lambda", "trainable": true}, "class_name": "Lambda", "inbound_nodes": [[["leaky_re_lu_8", 0, 0, {}]]]}, {"name": "lambda_92", "config": {"name": "lambda_92", "output_shape_type": "raw", "output_shape": null, "arguments": {}, "function": ["4wEAAAAAAAAAAQAAAAcAAAATAAAAczgAAAB8AABkAABkAACFAgBkAABkAACFAgBkAABkAACFAgCI\nAQCIAAAUiAEAiAAAFIgAABeFAgBmBAAZUykBTqkAKQHaAXopAtoCX2TaAWpyAQAAAPoyRDovX0hL\nU0RhdGEvV3JhcHBlci9hdXRvTUwvdGVzdGluZy9SZXNOZXRfbW9kZWwucHnaCDxsYW1iZGE+KQAA\nAHMAAAAA\n", null, [8, 31]], "function_type": "lambda", "trainable": true}, "class_name": "Lambda", "inbound_nodes": [[["leaky_re_lu_8", 0, 0, {}]]]}, {"name": "lambda_93", "config": {"name": "lambda_93", "output_shape_type": "raw", "output_shape": null, "arguments": {}, "function": ["4wEAAAAAAAAAAQAAAAcAAAATAAAAczgAAAB8AABkAABkAACFAgBkAABkAACFAgBkAABkAACFAgCI\nAQCIAAAUiAEAiAAAFIgAABeFAgBmBAAZUykBTqkAKQHaAXopAtoCX2TaAWpyAQAAAPoyRDovX0hL\nU0RhdGEvV3JhcHBlci9hdXRvTUwvdGVzdGluZy9SZXNOZXRfbW9kZWwucHnaCDxsYW1iZGE+KQAA\nAHMAAAAA\n", null, [8, 31]], "function_type": "lambda", "trainable": true}, "class_name": "Lambda", "inbound_nodes": [[["leaky_re_lu_8", 0, 0, {}]]]}, {"name": "lambda_94", "config": {"name": "lambda_94", "output_shape_type": "raw", "output_shape": null, "arguments": {}, "function": ["4wEAAAAAAAAAAQAAAAcAAAATAAAAczgAAAB8AABkAABkAACFAgBkAABkAACFAgBkAABkAACFAgCI\nAQCIAAAUiAEAiAAAFIgAABeFAgBmBAAZUykBTqkAKQHaAXopAtoCX2TaAWpyAQAAAPoyRDovX0hL\nU0RhdGEvV3JhcHBlci9hdXRvTUwvdGVzdGluZy9SZXNOZXRfbW9kZWwucHnaCDxsYW1iZGE+KQAA\nAHMAAAAA\n", null, [8, 31]], "function_type": "lambda", "trainable": true}, "class_name": "Lambda", "inbound_nodes": [[["leaky_re_lu_8", 0, 0, {}]]]}, {"name": "lambda_95", "config": {"name": "lambda_95", "output_shape_type": "raw", "output_shape": null, "arguments": {}, "function": ["4wEAAAAAAAAAAQAAAAcAAAATAAAAczgAAAB8AABkAABkAACFAgBkAABkAACFAgBkAABkAACFAgCI\nAQCIAAAUiAEAiAAAFIgAABeFAgBmBAAZUykBTqkAKQHaAXopAtoCX2TaAWpyAQAAAPoyRDovX0hL\nU0RhdGEvV3JhcHBlci9hdXRvTUwvdGVzdGluZy9SZXNOZXRfbW9kZWwucHnaCDxsYW1iZGE+KQAA\nAHMAAAAA\n", null, [8, 31]], "function_type": "lambda", "trainable": true}, "class_name": "Lambda", "inbound_nodes": [[["leaky_re_lu_8", 0, 0, {}]]]}, {"name": "lambda_96", "config": {"name": "lambda_96", "output_shape_type": "raw", "output_shape": null, "arguments": {}, "function": ["4wEAAAAAAAAAAQAAAAcAAAATAAAAczgAAAB8AABkAABkAACFAgBkAABkAACFAgBkAABkAACFAgCI\nAQCIAAAUiAEAiAAAFIgAABeFAgBmBAAZUykBTqkAKQHaAXopAtoCX2TaAWpyAQAAAPoyRDovX0hL\nU0RhdGEvV3JhcHBlci9hdXRvTUwvdGVzdGluZy9SZXNOZXRfbW9kZWwucHnaCDxsYW1iZGE+KQAA\nAHMAAAAA\n", null, [8, 31]], "function_type": "lambda", "trainable": true}, "class_name": "Lambda", "inbound_nodes": [[["leaky_re_lu_8", 0, 0, {}]]]}, {"name": "conv2d_72", "config": {"kernel_initializer": {"config": {"scale": 1.0, "mode": "fan_avg", "distribution": "uniform", "seed": null}, "class_name": "VarianceScaling"}, "bias_initializer": {"config": {}, "class_name": "Zeros"}, "filters": 8, "kernel_size": [3, 3], "padding": "same", "kernel_regularizer": null, "bias_regularizer": null, "use_bias": true, "name": "conv2d_72", "activation": "linear", "activity_regularizer": null, "strides": [2, 2], "dilation_rate": [1, 1], "data_format": "channels_last", "kernel_constraint": null, "trainable": true, "bias_constraint": null}, "class_name": "Conv2D", "inbound_nodes": [[["lambda_65", 0, 0, {}]]]}, {"name": "conv2d_73", "config": {"kernel_initializer": {"config": {"scale": 1.0, "mode": "fan_avg", "distribution": "uniform", "seed": null}, "class_name": "VarianceScaling"}, "bias_initializer": {"config": {}, "class_name": "Zeros"}, "filters": 8, "kernel_size": [3, 3], "padding": "same", "kernel_regularizer": null, "bias_regularizer": null, "use_bias": true, "name": "conv2d_73", "activation": "linear", "activity_regularizer": null, "strides": [2, 2], "dilation_rate": [1, 1], "data_format": "channels_last", "kernel_constraint": null, "trainable": true, "bias_constraint": null}, "class_name": "Conv2D", "inbound_nodes": [[["lambda_66", 0, 0, {}]]]}, {"name": "conv2d_74", "config": {"kernel_initializer": {"config": {"scale": 1.0, "mode": "fan_avg", "distribution": "uniform", "seed": null}, "class_name": "VarianceScaling"}, "bias_initializer": {"config": {}, "class_name": "Zeros"}, "filters": 8, "kernel_size": [3, 3], "padding": "same", "kernel_regularizer": null, "bias_regularizer": null, "use_bias": true, "name": "conv2d_74", "activation": "linear", "activity_regularizer": null, "strides": [2, 2], "dilation_rate": [1, 1], "data_format": "channels_last", "kernel_constraint": null, "trainable": true, "bias_constraint": null}, "class_name": "Conv2D", "inbound_nodes": [[["lambda_67", 0, 0, {}]]]}, {"name": "conv2d_75", "config": {"kernel_initializer": {"config": {"scale": 1.0, "mode": "fan_avg", "distribution": "uniform", "seed": null}, "class_name": "VarianceScaling"}, "bias_initializer": {"config": {}, "class_name": "Zeros"}, "filters": 8, "kernel_size": [3, 3], "padding": "same", "kernel_regularizer": null, "bias_regularizer": null, "use_bias": true, "name": "conv2d_75", "activation": "linear", "activity_regularizer": null, "strides": [2, 2], "dilation_rate": [1, 1], "data_format": "channels_last", "kernel_constraint": null, "trainable": true, "bias_constraint": null}, "class_name": "Conv2D", "inbound_nodes": [[["lambda_68", 0, 0, {}]]]}, {"name": "conv2d_76", "config": {"kernel_initializer": {"config": {"scale": 1.0, "mode": "fan_avg", "distribution": "uniform", "seed": null}, "class_name": "VarianceScaling"}, "bias_initializer": {"config": {}, "class_name": "Zeros"}, "filters": 8, "kernel_size": [3, 3], "padding": "same", "kernel_regularizer": null, "bias_regularizer": null, "use_bias": true, "name": "conv2d_76", "activation": "linear", "activity_regularizer": null, "strides": [2, 2], "dilation_rate": [1, 1], "data_format": "channels_last", "kernel_constraint": null, "trainable": true, "bias_constraint": null}, "class_name": "Conv2D", "inbound_nodes": [[["lambda_69", 0, 0, {}]]]}, {"name": "conv2d_77", "config": {"kernel_initializer": {"config": {"scale": 1.0, "mode": "fan_avg", "distribution": "uniform", "seed": null}, "class_name": "VarianceScaling"}, "bias_initializer": {"config": {}, "class_name": "Zeros"}, "filters": 8, "kernel_size": [3, 3], "padding": "same", "kernel_regularizer": null, "bias_regularizer": null, "use_bias": true, "name": "conv2d_77", "activation": "linear", "activity_regularizer": null, "strides": [2, 2], "dilation_rate": [1, 1], "data_format": "channels_last", "kernel_constraint": null, "trainable": true, "bias_constraint": null}, "class_name": "Conv2D", "inbound_nodes": [[["lambda_70", 0, 0, {}]]]}, {"name": "conv2d_78", "config": {"kernel_initializer": {"config": {"scale": 1.0, "mode": "fan_avg", "distribution": "uniform", "seed": null}, "class_name": "VarianceScaling"}, "bias_initializer": {"config": {}, "class_name": "Zeros"}, "filters": 8, "kernel_size": [3, 3], "padding": "same", "kernel_regularizer": null, "bias_regularizer": null, "use_bias": true, "name": "conv2d_78", "activation": "linear", "activity_regularizer": null, "strides": [2, 2], "dilation_rate": [1, 1], "data_format": "channels_last", "kernel_constraint": null, "trainable": true, "bias_constraint": null}, "class_name": "Conv2D", "inbound_nodes": [[["lambda_71", 0, 0, {}]]]}, {"name": "conv2d_79", "config": {"kernel_initializer": {"config": {"scale": 1.0, "mode": "fan_avg", "distribution": "uniform", "seed": null}, "class_name": "VarianceScaling"}, "bias_initializer": {"config": {}, "class_name": "Zeros"}, "filters": 8, "kernel_size": [3, 3], "padding": "same", "kernel_regularizer": null, "bias_regularizer": null, "use_bias": true, "name": "conv2d_79", "activation": "linear", "activity_regularizer": null, "strides": [2, 2], "dilation_rate": [1, 1], "data_format": "channels_last", "kernel_constraint": null, "trainable": true, "bias_constraint": null}, "class_name": "Conv2D", "inbound_nodes": [[["lambda_72", 0, 0, {}]]]}, {"name": "conv2d_80", "config": {"kernel_initializer": {"config": {"scale": 1.0, "mode": "fan_avg", "distribution": "uniform", "seed": null}, "class_name": "VarianceScaling"}, "bias_initializer": {"config": {}, "class_name": "Zeros"}, "filters": 8, "kernel_size": [3, 3], "padding": "same", "kernel_regularizer": null, "bias_regularizer": null, "use_bias": true, "name": "conv2d_80", "activation": "linear", "activity_regularizer": null, "strides": [2, 2], "dilation_rate": [1, 1], "data_format": "channels_last", "kernel_constraint": null, "trainable": true, "bias_constraint": null}, "class_name": "Conv2D", "inbound_nodes": [[["lambda_73", 0, 0, {}]]]}, {"name": "conv2d_81", "config": {"kernel_initializer": {"config": {"scale": 1.0, "mode": "fan_avg", "distribution": "uniform", "seed": null}, "class_name": "VarianceScaling"}, "bias_initializer": {"config": {}, "class_name": "Zeros"}, "filters": 8, "kernel_size": [3, 3], "padding": "same", "kernel_regularizer": null, "bias_regularizer": null, "use_bias": true, "name": "conv2d_81", "activation": "linear", "activity_regularizer": null, "strides": [2, 2], "dilation_rate": [1, 1], "data_format": "channels_last", "kernel_constraint": null, "trainable": true, "bias_constraint": null}, "class_name": "Conv2D", "inbound_nodes": [[["lambda_74", 0, 0, {}]]]}, {"name": "conv2d_82", "config": {"kernel_initializer": {"config": {"scale": 1.0, "mode": "fan_avg", "distribution": "uniform", "seed": null}, "class_name": "VarianceScaling"}, "bias_initializer": {"config": {}, "class_name": "Zeros"}, "filters": 8, "kernel_size": [3, 3], "padding": "same", "kernel_regularizer": null, "bias_regularizer": null, "use_bias": true, "name": "conv2d_82", "activation": "linear", "activity_regularizer": null, "strides": [2, 2], "dilation_rate": [1, 1], "data_format": "channels_last", "kernel_constraint": null, "trainable": true, "bias_constraint": null}, "class_name": "Conv2D", "inbound_nodes": [[["lambda_75", 0, 0, {}]]]}, {"name": "conv2d_83", "config": {"kernel_initializer": {"config": {"scale": 1.0, "mode": "fan_avg", "distribution": "uniform", "seed": null}, "class_name": "VarianceScaling"}, "bias_initializer": {"config": {}, "class_name": "Zeros"}, "filters": 8, "kernel_size": [3, 3], "padding": "same", "kernel_regularizer": null, "bias_regularizer": null, "use_bias": true, "name": "conv2d_83", "activation": "linear", "activity_regularizer": null, "strides": [2, 2], "dilation_rate": [1, 1], "data_format": "channels_last", "kernel_constraint": null, "trainable": true, "bias_constraint": null}, "class_name": "Conv2D", "inbound_nodes": [[["lambda_76", 0, 0, {}]]]}, {"name": "conv2d_84", "config": {"kernel_initializer": {"config": {"scale": 1.0, "mode": "fan_avg", "distribution": "uniform", "seed": null}, "class_name": "VarianceScaling"}, "bias_initializer": {"config": {}, "class_name": "Zeros"}, "filters": 8, "kernel_size": [3, 3], "padding": "same", "kernel_regularizer": null, "bias_regularizer": null, "use_bias": true, "name": "conv2d_84", "activation": "linear", "activity_regularizer": null, "strides": [2, 2], "dilation_rate": [1, 1], "data_format": "channels_last", "kernel_constraint": null, "trainable": true, "bias_constraint": null}, "class_name": "Conv2D", "inbound_nodes": [[["lambda_77", 0, 0, {}]]]}, {"name": "conv2d_85", "config": {"kernel_initializer": {"config": {"scale": 1.0, "mode": "fan_avg", "distribution": "uniform", "seed": null}, "class_name": "VarianceScaling"}, "bias_initializer": {"config": {}, "class_name": "Zeros"}, "filters": 8, "kernel_size": [3, 3], "padding": "same", "kernel_regularizer": null, "bias_regularizer": null, "use_bias": true, "name": "conv2d_85", "activation": "linear", "activity_regularizer": null, "strides": [2, 2], "dilation_rate": [1, 1], "data_format": "channels_last", "kernel_constraint": null, "trainable": true, "bias_constraint": null}, "class_name": "Conv2D", "inbound_nodes": [[["lambda_78", 0, 0, {}]]]}, {"name": "conv2d_86", "config": {"kernel_initializer": {"config": {"scale": 1.0, "mode": "fan_avg", "distribution": "uniform", "seed": null}, "class_name": "VarianceScaling"}, "bias_initializer": {"config": {}, "class_name": "Zeros"}, "filters": 8, "kernel_size": [3, 3], "padding": "same", "kernel_regularizer": null, "bias_regularizer": null, "use_bias": true, "name": "conv2d_86", "activation": "linear", "activity_regularizer": null, "strides": [2, 2], "dilation_rate": [1, 1], "data_format": "channels_last", "kernel_constraint": null, "trainable": true, "bias_constraint": null}, "class_name": "Conv2D", "inbound_nodes": [[["lambda_79", 0, 0, {}]]]}, {"name": "conv2d_87", "config": {"kernel_initializer": {"config": {"scale": 1.0, "mode": "fan_avg", "distribution": "uniform", "seed": null}, "class_name": "VarianceScaling"}, "bias_initializer": {"config": {}, "class_name": "Zeros"}, "filters": 8, "kernel_size": [3, 3], "padding": "same", "kernel_regularizer": null, "bias_regularizer": null, "use_bias": true, "name": "conv2d_87", "activation": "linear", "activity_regularizer": null, "strides": [2, 2], "dilation_rate": [1, 1], "data_format": "channels_last", "kernel_constraint": null, "trainable": true, "bias_constraint": null}, "class_name": "Conv2D", "inbound_nodes": [[["lambda_80", 0, 0, {}]]]}, {"name": "conv2d_88", "config": {"kernel_initializer": {"config": {"scale": 1.0, "mode": "fan_avg", "distribution": "uniform", "seed": null}, "class_name": "VarianceScaling"}, "bias_initializer": {"config": {}, "class_name": "Zeros"}, "filters": 8, "kernel_size": [3, 3], "padding": "same", "kernel_regularizer": null, "bias_regularizer": null, "use_bias": true, "name": "conv2d_88", "activation": "linear", "activity_regularizer": null, "strides": [2, 2], "dilation_rate": [1, 1], "data_format": "channels_last", "kernel_constraint": null, "trainable": true, "bias_constraint": null}, "class_name": "Conv2D", "inbound_nodes": [[["lambda_81", 0, 0, {}]]]}, {"name": "conv2d_89", "config": {"kernel_initializer": {"config": {"scale": 1.0, "mode": "fan_avg", "distribution": "uniform", "seed": null}, "class_name": "VarianceScaling"}, "bias_initializer": {"config": {}, "class_name": "Zeros"}, "filters": 8, "kernel_size": [3, 3], "padding": "same", "kernel_regularizer": null, "bias_regularizer": null, "use_bias": true, "name": "conv2d_89", "activation": "linear", "activity_regularizer": null, "strides": [2, 2], "dilation_rate": [1, 1], "data_format": "channels_last", "kernel_constraint": null, "trainable": true, "bias_constraint": null}, "class_name": "Conv2D", "inbound_nodes": [[["lambda_82", 0, 0, {}]]]}, {"name": "conv2d_90", "config": {"kernel_initializer": {"config": {"scale": 1.0, "mode": "fan_avg", "distribution": "uniform", "seed": null}, "class_name": "VarianceScaling"}, "bias_initializer": {"config": {}, "class_name": "Zeros"}, "filters": 8, "kernel_size": [3, 3], "padding": "same", "kernel_regularizer": null, "bias_regularizer": null, "use_bias": true, "name": "conv2d_90", "activation": "linear", "activity_regularizer": null, "strides": [2, 2], "dilation_rate": [1, 1], "data_format": "channels_last", "kernel_constraint": null, "trainable": true, "bias_constraint": null}, "class_name": "Conv2D", "inbound_nodes": [[["lambda_83", 0, 0, {}]]]}, {"name": "conv2d_91", "config": {"kernel_initializer": {"config": {"scale": 1.0, "mode": "fan_avg", "distribution": "uniform", "seed": null}, "class_name": "VarianceScaling"}, "bias_initializer": {"config": {}, "class_name": "Zeros"}, "filters": 8, "kernel_size": [3, 3], "padding": "same", "kernel_regularizer": null, "bias_regularizer": null, "use_bias": true, "name": "conv2d_91", "activation": "linear", "activity_regularizer": null, "strides": [2, 2], "dilation_rate": [1, 1], "data_format": "channels_last", "kernel_constraint": null, "trainable": true, "bias_constraint": null}, "class_name": "Conv2D", "inbound_nodes": [[["lambda_84", 0, 0, {}]]]}, {"name": "conv2d_92", "config": {"kernel_initializer": {"config": {"scale": 1.0, "mode": "fan_avg", "distribution": "uniform", "seed": null}, "class_name": "VarianceScaling"}, "bias_initializer": {"config": {}, "class_name": "Zeros"}, "filters": 8, "kernel_size": [3, 3], "padding": "same", "kernel_regularizer": null, "bias_regularizer": null, "use_bias": true, "name": "conv2d_92", "activation": "linear", "activity_regularizer": null, "strides": [2, 2], "dilation_rate": [1, 1], "data_format": "channels_last", "kernel_constraint": null, "trainable": true, "bias_constraint": null}, "class_name": "Conv2D", "inbound_nodes": [[["lambda_85", 0, 0, {}]]]}, {"name": "conv2d_93", "config": {"kernel_initializer": {"config": {"scale": 1.0, "mode": "fan_avg", "distribution": "uniform", "seed": null}, "class_name": "VarianceScaling"}, "bias_initializer": {"config": {}, "class_name": "Zeros"}, "filters": 8, "kernel_size": [3, 3], "padding": "same", "kernel_regularizer": null, "bias_regularizer": null, "use_bias": true, "name": "conv2d_93", "activation": "linear", "activity_regularizer": null, "strides": [2, 2], "dilation_rate": [1, 1], "data_format": "channels_last", "kernel_constraint": null, "trainable": true, "bias_constraint": null}, "class_name": "Conv2D", "inbound_nodes": [[["lambda_86", 0, 0, {}]]]}, {"name": "conv2d_94", "config": {"kernel_initializer": {"config": {"scale": 1.0, "mode": "fan_avg", "distribution": "uniform", "seed": null}, "class_name": "VarianceScaling"}, "bias_initializer": {"config": {}, "class_name": "Zeros"}, "filters": 8, "kernel_size": [3, 3], "padding": "same", "kernel_regularizer": null, "bias_regularizer": null, "use_bias": true, "name": "conv2d_94", "activation": "linear", "activity_regularizer": null, "strides": [2, 2], "dilation_rate": [1, 1], "data_format": "channels_last", "kernel_constraint": null, "trainable": true, "bias_constraint": null}, "class_name": "Conv2D", "inbound_nodes": [[["lambda_87", 0, 0, {}]]]}, {"name": "conv2d_95", "config": {"kernel_initializer": {"config": {"scale": 1.0, "mode": "fan_avg", "distribution": "uniform", "seed": null}, "class_name": "VarianceScaling"}, "bias_initializer": {"config": {}, "class_name": "Zeros"}, "filters": 8, "kernel_size": [3, 3], "padding": "same", "kernel_regularizer": null, "bias_regularizer": null, "use_bias": true, "name": "conv2d_95", "activation": "linear", "activity_regularizer": null, "strides": [2, 2], "dilation_rate": [1, 1], "data_format": "channels_last", "kernel_constraint": null, "trainable": true, "bias_constraint": null}, "class_name": "Conv2D", "inbound_nodes": [[["lambda_88", 0, 0, {}]]]}, {"name": "conv2d_96", "config": {"kernel_initializer": {"config": {"scale": 1.0, "mode": "fan_avg", "distribution": "uniform", "seed": null}, "class_name": "VarianceScaling"}, "bias_initializer": {"config": {}, "class_name": "Zeros"}, "filters": 8, "kernel_size": [3, 3], "padding": "same", "kernel_regularizer": null, "bias_regularizer": null, "use_bias": true, "name": "conv2d_96", "activation": "linear", "activity_regularizer": null, "strides": [2, 2], "dilation_rate": [1, 1], "data_format": "channels_last", "kernel_constraint": null, "trainable": true, "bias_constraint": null}, "class_name": "Conv2D", "inbound_nodes": [[["lambda_89", 0, 0, {}]]]}, {"name": "conv2d_97", "config": {"kernel_initializer": {"config": {"scale": 1.0, "mode": "fan_avg", "distribution": "uniform", "seed": null}, "class_name": "VarianceScaling"}, "bias_initializer": {"config": {}, "class_name": "Zeros"}, "filters": 8, "kernel_size": [3, 3], "padding": "same", "kernel_regularizer": null, "bias_regularizer": null, "use_bias": true, "name": "conv2d_97", "activation": "linear", "activity_regularizer": null, "strides": [2, 2], "dilation_rate": [1, 1], "data_format": "channels_last", "kernel_constraint": null, "trainable": true, "bias_constraint": null}, "class_name": "Conv2D", "inbound_nodes": [[["lambda_90", 0, 0, {}]]]}, {"name": "conv2d_98", "config": {"kernel_initializer": {"config": {"scale": 1.0, "mode": "fan_avg", "distribution": "uniform", "seed": null}, "class_name": "VarianceScaling"}, "bias_initializer": {"config": {}, "class_name": "Zeros"}, "filters": 8, "kernel_size": [3, 3], "padding": "same", "kernel_regularizer": null, "bias_regularizer": null, "use_bias": true, "name": "conv2d_98", "activation": "linear", "activity_regularizer": null, "strides": [2, 2], "dilation_rate": [1, 1], "data_format": "channels_last", "kernel_constraint": null, "trainable": true, "bias_constraint": null}, "class_name": "Conv2D", "inbound_nodes": [[["lambda_91", 0, 0, {}]]]}, {"name": "conv2d_99", "config": {"kernel_initializer": {"config": {"scale": 1.0, "mode": "fan_avg", "distribution": "uniform", "seed": null}, "class_name": "VarianceScaling"}, "bias_initializer": {"config": {}, "class_name": "Zeros"}, "filters": 8, "kernel_size": [3, 3], "padding": "same", "kernel_regularizer": null, "bias_regularizer": null, "use_bias": true, "name": "conv2d_99", "activation": "linear", "activity_regularizer": null, "strides": [2, 2], "dilation_rate": [1, 1], "data_format": "channels_last", "kernel_constraint": null, "trainable": true, "bias_constraint": null}, "class_name": "Conv2D", "inbound_nodes": [[["lambda_92", 0, 0, {}]]]}, {"name": "conv2d_100", "config": {"kernel_initializer": {"config": {"scale": 1.0, "mode": "fan_avg", "distribution": "uniform", "seed": null}, "class_name": "VarianceScaling"}, "bias_initializer": {"config": {}, "class_name": "Zeros"}, "filters": 8, "kernel_size": [3, 3], "padding": "same", "kernel_regularizer": null, "bias_regularizer": null, "use_bias": true, "name": "conv2d_100", "activation": "linear", "activity_regularizer": null, "strides": [2, 2], "dilation_rate": [1, 1], "data_format": "channels_last", "kernel_constraint": null, "trainable": true, "bias_constraint": null}, "class_name": "Conv2D", "inbound_nodes": [[["lambda_93", 0, 0, {}]]]}, {"name": "conv2d_101", "config": {"kernel_initializer": {"config": {"scale": 1.0, "mode": "fan_avg", "distribution": "uniform", "seed": null}, "class_name": "VarianceScaling"}, "bias_initializer": {"config": {}, "class_name": "Zeros"}, "filters": 8, "kernel_size": [3, 3], "padding": "same", "kernel_regularizer": null, "bias_regularizer": null, "use_bias": true, "name": "conv2d_101", "activation": "linear", "activity_regularizer": null, "strides": [2, 2], "dilation_rate": [1, 1], "data_format": "channels_last", "kernel_constraint": null, "trainable": true, "bias_constraint": null}, "class_name": "Conv2D", "inbound_nodes": [[["lambda_94", 0, 0, {}]]]}, {"name": "conv2d_102", "config": {"kernel_initializer": {"config": {"scale": 1.0, "mode": "fan_avg", "distribution": "uniform", "seed": null}, "class_name": "VarianceScaling"}, "bias_initializer": {"config": {}, "class_name": "Zeros"}, "filters": 8, "kernel_size": [3, 3], "padding": "same", "kernel_regularizer": null, "bias_regularizer": null, "use_bias": true, "name": "conv2d_102", "activation": "linear", "activity_regularizer": null, "strides": [2, 2], "dilation_rate": [1, 1], "data_format": "channels_last", "kernel_constraint": null, "trainable": true, "bias_constraint": null}, "class_name": "Conv2D", "inbound_nodes": [[["lambda_95", 0, 0, {}]]]}, {"name": "conv2d_103", "config": {"kernel_initializer": {"config": {"scale": 1.0, "mode": "fan_avg", "distribution": "uniform", "seed": null}, "class_name": "VarianceScaling"}, "bias_initializer": {"config": {}, "class_name": "Zeros"}, "filters": 8, "kernel_size": [3, 3], "padding": "same", "kernel_regularizer": null, "bias_regularizer": null, "use_bias": true, "name": "conv2d_103", "activation": "linear", "activity_regularizer": null, "strides": [2, 2], "dilation_rate": [1, 1], "data_format": "channels_last", "kernel_constraint": null, "trainable": true, "bias_constraint": null}, "class_name": "Conv2D", "inbound_nodes": [[["lambda_96", 0, 0, {}]]]}, {"name": "concatenate_3", "config": {"name": "concatenate_3", "trainable": true, "axis": -1}, "class_name": "Concatenate", "inbound_nodes": [[["conv2d_72", 0, 0, {}], ["conv2d_73", 0, 0, {}], ["conv2d_74", 0, 0, {}], ["conv2d_75", 0, 0, {}], ["conv2d_76", 0, 0, {}], ["conv2d_77", 0, 0, {}], ["conv2d_78", 0, 0, {}], ["conv2d_79", 0, 0, {}], ["conv2d_80", 0, 0, {}], ["conv2d_81", 0, 0, {}], ["conv2d_82", 0, 0, {}], ["conv2d_83", 0, 0, {}], ["conv2d_84", 0, 0, {}], ["conv2d_85", 0, 0, {}], ["conv2d_86", 0, 0, {}], ["conv2d_87", 0, 0, {}], ["conv2d_88", 0, 0, {}], ["conv2d_89", 0, 0, {}], ["conv2d_90", 0, 0, {}], ["conv2d_91", 0, 0, {}], ["conv2d_92", 0, 0, {}], ["conv2d_93", 0, 0, {}], ["conv2d_94", 0, 0, {}], ["conv2d_95", 0, 0, {}], ["conv2d_96", 0, 0, {}], ["conv2d_97", 0, 0, {}], ["conv2d_98", 0, 0, {}], ["conv2d_99", 0, 0, {}], ["conv2d_100", 0, 0, {}], ["conv2d_101", 0, 0, {}], ["conv2d_102", 0, 0, {}], ["conv2d_103", 0, 0, {}]]]}, {"name": "batch_normalization_10", "config": {"epsilon": 0.001, "momentum": 0.99, "beta_constraint": null, "scale": true, "gamma_constraint": null, "gamma_regularizer": null, "gamma_initializer": {"config": {}, "class_name": "Ones"}, "axis": -1, "name": "batch_normalization_10", "center": true, "beta_regularizer": null, "beta_initializer": {"config": {}, "class_name": "Zeros"}, "moving_mean_initializer": {"config": {}, "class_name": "Zeros"}, "moving_variance_initializer": {"config": {}, "class_name": "Ones"}, "trainable": true}, "class_name": "BatchNormalization", "inbound_nodes": [[["concatenate_3", 0, 0, {}]]]}, {"name": "leaky_re_lu_9", "config": {"name": "leaky_re_lu_9", "alpha": 0.30000001192092896, "trainable": true}, "class_name": "LeakyReLU", "inbound_nodes": [[["batch_normalization_10", 0, 0, {}]]]}, {"name": "conv2d_105", "config": {"kernel_initializer": {"config": {"scale": 1.0, "mode": "fan_avg", "distribution": "uniform", "seed": null}, "class_name": "VarianceScaling"}, "bias_initializer": {"config": {}, "class_name": "Zeros"}, "filters": 512, "kernel_size": [1, 1], "padding": "same", "kernel_regularizer": null, "bias_regularizer": null, "use_bias": true, "name": "conv2d_105", "activation": "linear", "activity_regularizer": null, "strides": [2, 2], "dilation_rate": [1, 1], "data_format": "channels_last", "kernel_constraint": null, "trainable": true, "bias_constraint": null}, "class_name": "Conv2D", "inbound_nodes": [[["leaky_re_lu_7", 0, 0, {}]]]}, {"name": "conv2d_104", "config": {"kernel_initializer": {"config": {"scale": 1.0, "mode": "fan_avg", "distribution": "uniform", "seed": null}, "class_name": "VarianceScaling"}, "bias_initializer": {"config": {}, "class_name": "Zeros"}, "filters": 512, "kernel_size": [1, 1], "padding": "same", "kernel_regularizer": null, "bias_regularizer": null, "use_bias": true, "name": "conv2d_104", "activation": "linear", "activity_regularizer": null, "strides": [1, 1], "dilation_rate": [1, 1], "data_format": "channels_last", "kernel_constraint": null, "trainable": true, "bias_constraint": null}, "class_name": "Conv2D", "inbound_nodes": [[["leaky_re_lu_9", 0, 0, {}]]]}, {"name": "batch_normalization_12", "config": {"epsilon": 0.001, "momentum": 0.99, "beta_constraint": null, "scale": true, "gamma_constraint": null, "gamma_regularizer": null, "gamma_initializer": {"config": {}, "class_name": "Ones"}, "axis": -1, "name": "batch_normalization_12", "center": true, "beta_regularizer": null, "beta_initializer": {"config": {}, "class_name": "Zeros"}, "moving_mean_initializer": {"config": {}, "class_name": "Zeros"}, "moving_variance_initializer": {"config": {}, "class_name": "Ones"}, "trainable": true}, "class_name": "BatchNormalization", "inbound_nodes": [[["conv2d_105", 0, 0, {}]]]}, {"name": "batch_normalization_11", "config": {"epsilon": 0.001, "momentum": 0.99, "beta_constraint": null, "scale": true, "gamma_constraint": null, "gamma_regularizer": null, "gamma_initializer": {"config": {}, "class_name": "Ones"}, "axis": -1, "name": "batch_normalization_11", "center": true, "beta_regularizer": null, "beta_initializer": {"config": {}, "class_name": "Zeros"}, "moving_mean_initializer": {"config": {}, "class_name": "Zeros"}, "moving_variance_initializer": {"config": {}, "class_name": "Ones"}, "trainable": true}, "class_name": "BatchNormalization", "inbound_nodes": [[["conv2d_104", 0, 0, {}]]]}, {"name": "add_3", "config": {"name": "add_3", "trainable": true}, "class_name": "Add", "inbound_nodes": [[["batch_normalization_12", 0, 0, {}], ["batch_normalization_11", 0, 0, {}]]]}, {"name": "leaky_re_lu_10", "config": {"name": "leaky_re_lu_10", "alpha": 0.30000001192092896, "trainable": true}, "class_name": "LeakyReLU", "inbound_nodes": [[["add_3", 0, 0, {}]]]}, {"name": "conv2d_106", "config": {"kernel_initializer": {"config": {"scale": 1.0, "mode": "fan_avg", "distribution": "uniform", "seed": null}, "class_name": "VarianceScaling"}, "bias_initializer": {"config": {}, "class_name": "Zeros"}, "filters": 256, "kernel_size": [1, 1], "padding": "same", "kernel_regularizer": null, "bias_regularizer": null, "use_bias": true, "name": "conv2d_106", "activation": "linear", "activity_regularizer": null, "strides": [1, 1], "dilation_rate": [1, 1], "data_format": "channels_last", "kernel_constraint": null, "trainable": true, "bias_constraint": null}, "class_name": "Conv2D", "inbound_nodes": [[["leaky_re_lu_10", 0, 0, {}]]]}, {"name": "batch_normalization_13", "config": {"epsilon": 0.001, "momentum": 0.99, "beta_constraint": null, "scale": true, "gamma_constraint": null, "gamma_regularizer": null, "gamma_initializer": {"config": {}, "class_name": "Ones"}, "axis": -1, "name": "batch_normalization_13", "center": true, "beta_regularizer": null, "beta_initializer": {"config": {}, "class_name": "Zeros"}, "moving_mean_initializer": {"config": {}, "class_name": "Zeros"}, "moving_variance_initializer": {"config": {}, "class_name": "Ones"}, "trainable": true}, "class_name": "BatchNormalization", "inbound_nodes": [[["conv2d_106", 0, 0, {}]]]}, {"name": "leaky_re_lu_11", "config": {"name": "leaky_re_lu_11", "alpha": 0.30000001192092896, "trainable": true}, "class_name": "LeakyReLU", "inbound_nodes": [[["batch_normalization_13", 0, 0, {}]]]}, {"name": "lambda_97", "config": {"name": "lambda_97", "output_shape_type": "raw", "output_shape": null, "arguments": {}, "function": ["4wEAAAAAAAAAAQAAAAcAAAATAAAAczgAAAB8AABkAABkAACFAgBkAABkAACFAgBkAABkAACFAgCI\nAQCIAAAUiAEAiAAAFIgAABeFAgBmBAAZUykBTqkAKQHaAXopAtoCX2TaAWpyAQAAAPoyRDovX0hL\nU0RhdGEvV3JhcHBlci9hdXRvTUwvdGVzdGluZy9SZXNOZXRfbW9kZWwucHnaCDxsYW1iZGE+KQAA\nAHMAAAAA\n", null, [8, 31]], "function_type": "lambda", "trainable": true}, "class_name": "Lambda", "inbound_nodes": [[["leaky_re_lu_11", 0, 0, {}]]]}, {"name": "lambda_98", "config": {"name": "lambda_98", "output_shape_type": "raw", "output_shape": null, "arguments": {}, "function": ["4wEAAAAAAAAAAQAAAAcAAAATAAAAczgAAAB8AABkAABkAACFAgBkAABkAACFAgBkAABkAACFAgCI\nAQCIAAAUiAEAiAAAFIgAABeFAgBmBAAZUykBTqkAKQHaAXopAtoCX2TaAWpyAQAAAPoyRDovX0hL\nU0RhdGEvV3JhcHBlci9hdXRvTUwvdGVzdGluZy9SZXNOZXRfbW9kZWwucHnaCDxsYW1iZGE+KQAA\nAHMAAAAA\n", null, [8, 31]], "function_type": "lambda", "trainable": true}, "class_name": "Lambda", "inbound_nodes": [[["leaky_re_lu_11", 0, 0, {}]]]}, {"name": "lambda_99", "config": {"name": "lambda_99", "output_shape_type": "raw", "output_shape": null, "arguments": {}, "function": ["4wEAAAAAAAAAAQAAAAcAAAATAAAAczgAAAB8AABkAABkAACFAgBkAABkAACFAgBkAABkAACFAgCI\nAQCIAAAUiAEAiAAAFIgAABeFAgBmBAAZUykBTqkAKQHaAXopAtoCX2TaAWpyAQAAAPoyRDovX0hL\nU0RhdGEvV3JhcHBlci9hdXRvTUwvdGVzdGluZy9SZXNOZXRfbW9kZWwucHnaCDxsYW1iZGE+KQAA\nAHMAAAAA\n", null, [8, 31]], "function_type": "lambda", "trainable": true}, "class_name": "Lambda", "inbound_nodes": [[["leaky_re_lu_11", 0, 0, {}]]]}, {"name": "lambda_100", "config": {"name": "lambda_100", "output_shape_type": "raw", "output_shape": null, "arguments": {}, "function": ["4wEAAAAAAAAAAQAAAAcAAAATAAAAczgAAAB8AABkAABkAACFAgBkAABkAACFAgBkAABkAACFAgCI\nAQCIAAAUiAEAiAAAFIgAABeFAgBmBAAZUykBTqkAKQHaAXopAtoCX2TaAWpyAQAAAPoyRDovX0hL\nU0RhdGEvV3JhcHBlci9hdXRvTUwvdGVzdGluZy9SZXNOZXRfbW9kZWwucHnaCDxsYW1iZGE+KQAA\nAHMAAAAA\n", null, [8, 31]], "function_type": "lambda", "trainable": true}, "class_name": "Lambda", "inbound_nodes": [[["leaky_re_lu_11", 0, 0, {}]]]}, {"name": "lambda_101", "config": {"name": "lambda_101", "output_shape_type": "raw", "output_shape": null, "arguments": {}, "function": ["4wEAAAAAAAAAAQAAAAcAAAATAAAAczgAAAB8AABkAABkAACFAgBkAABkAACFAgBkAABkAACFAgCI\nAQCIAAAUiAEAiAAAFIgAABeFAgBmBAAZUykBTqkAKQHaAXopAtoCX2TaAWpyAQAAAPoyRDovX0hL\nU0RhdGEvV3JhcHBlci9hdXRvTUwvdGVzdGluZy9SZXNOZXRfbW9kZWwucHnaCDxsYW1iZGE+KQAA\nAHMAAAAA\n", null, [8, 31]], "function_type": "lambda", "trainable": true}, "class_name": "Lambda", "inbound_nodes": [[["leaky_re_lu_11", 0, 0, {}]]]}, {"name": "lambda_102", "config": {"name": "lambda_102", "output_shape_type": "raw", "output_shape": null, "arguments": {}, "function": ["4wEAAAAAAAAAAQAAAAcAAAATAAAAczgAAAB8AABkAABkAACFAgBkAABkAACFAgBkAABkAACFAgCI\nAQCIAAAUiAEAiAAAFIgAABeFAgBmBAAZUykBTqkAKQHaAXopAtoCX2TaAWpyAQAAAPoyRDovX0hL\nU0RhdGEvV3JhcHBlci9hdXRvTUwvdGVzdGluZy9SZXNOZXRfbW9kZWwucHnaCDxsYW1iZGE+KQAA\nAHMAAAAA\n", null, [8, 31]], "function_type": "lambda", "trainable": true}, "class_name": "Lambda", "inbound_nodes": [[["leaky_re_lu_11", 0, 0, {}]]]}, {"name": "lambda_103", "config": {"name": "lambda_103", "output_shape_type": "raw", "output_shape": null, "arguments": {}, "function": ["4wEAAAAAAAAAAQAAAAcAAAATAAAAczgAAAB8AABkAABkAACFAgBkAABkAACFAgBkAABkAACFAgCI\nAQCIAAAUiAEAiAAAFIgAABeFAgBmBAAZUykBTqkAKQHaAXopAtoCX2TaAWpyAQAAAPoyRDovX0hL\nU0RhdGEvV3JhcHBlci9hdXRvTUwvdGVzdGluZy9SZXNOZXRfbW9kZWwucHnaCDxsYW1iZGE+KQAA\nAHMAAAAA\n", null, [8, 31]], "function_type": "lambda", "trainable": true}, "class_name": "Lambda", "inbound_nodes": [[["leaky_re_lu_11", 0, 0, {}]]]}, {"name": "lambda_104", "config": {"name": "lambda_104", "output_shape_type": "raw", "output_shape": null, "arguments": {}, "function": ["4wEAAAAAAAAAAQAAAAcAAAATAAAAczgAAAB8AABkAABkAACFAgBkAABkAACFAgBkAABkAACFAgCI\nAQCIAAAUiAEAiAAAFIgAABeFAgBmBAAZUykBTqkAKQHaAXopAtoCX2TaAWpyAQAAAPoyRDovX0hL\nU0RhdGEvV3JhcHBlci9hdXRvTUwvdGVzdGluZy9SZXNOZXRfbW9kZWwucHnaCDxsYW1iZGE+KQAA\nAHMAAAAA\n", null, [8, 31]], "function_type": "lambda", "trainable": true}, "class_name": "Lambda", "inbound_nodes": [[["leaky_re_lu_11", 0, 0, {}]]]}, {"name": "lambda_105", "config": {"name": "lambda_105", "output_shape_type": "raw", "output_shape": null, "arguments": {}, "function": ["4wEAAAAAAAAAAQAAAAcAAAATAAAAczgAAAB8AABkAABkAACFAgBkAABkAACFAgBkAABkAACFAgCI\nAQCIAAAUiAEAiAAAFIgAABeFAgBmBAAZUykBTqkAKQHaAXopAtoCX2TaAWpyAQAAAPoyRDovX0hL\nU0RhdGEvV3JhcHBlci9hdXRvTUwvdGVzdGluZy9SZXNOZXRfbW9kZWwucHnaCDxsYW1iZGE+KQAA\nAHMAAAAA\n", null, [8, 31]], "function_type": "lambda", "trainable": true}, "class_name": "Lambda", "inbound_nodes": [[["leaky_re_lu_11", 0, 0, {}]]]}, {"name": "lambda_106", "config": {"name": "lambda_106", "output_shape_type": "raw", "output_shape": null, "arguments": {}, "function": ["4wEAAAAAAAAAAQAAAAcAAAATAAAAczgAAAB8AABkAABkAACFAgBkAABkAACFAgBkAABkAACFAgCI\nAQCIAAAUiAEAiAAAFIgAABeFAgBmBAAZUykBTqkAKQHaAXopAtoCX2TaAWpyAQAAAPoyRDovX0hL\nU0RhdGEvV3JhcHBlci9hdXRvTUwvdGVzdGluZy9SZXNOZXRfbW9kZWwucHnaCDxsYW1iZGE+KQAA\nAHMAAAAA\n", null, [8, 31]], "function_type": "lambda", "trainable": true}, "class_name": "Lambda", "inbound_nodes": [[["leaky_re_lu_11", 0, 0, {}]]]}, {"name": "lambda_107", "config": {"name": "lambda_107", "output_shape_type": "raw", "output_shape": null, "arguments": {}, "function": ["4wEAAAAAAAAAAQAAAAcAAAATAAAAczgAAAB8AABkAABkAACFAgBkAABkAACFAgBkAABkAACFAgCI\nAQCIAAAUiAEAiAAAFIgAABeFAgBmBAAZUykBTqkAKQHaAXopAtoCX2TaAWpyAQAAAPoyRDovX0hL\nU0RhdGEvV3JhcHBlci9hdXRvTUwvdGVzdGluZy9SZXNOZXRfbW9kZWwucHnaCDxsYW1iZGE+KQAA\nAHMAAAAA\n", null, [8, 31]], "function_type": "lambda", "trainable": true}, "class_name": "Lambda", "inbound_nodes": [[["leaky_re_lu_11", 0, 0, {}]]]}, {"name": "lambda_108", "config": {"name": "lambda_108", "output_shape_type": "raw", "output_shape": null, "arguments": {}, "function": ["4wEAAAAAAAAAAQAAAAcAAAATAAAAczgAAAB8AABkAABkAACFAgBkAABkAACFAgBkAABkAACFAgCI\nAQCIAAAUiAEAiAAAFIgAABeFAgBmBAAZUykBTqkAKQHaAXopAtoCX2TaAWpyAQAAAPoyRDovX0hL\nU0RhdGEvV3JhcHBlci9hdXRvTUwvdGVzdGluZy9SZXNOZXRfbW9kZWwucHnaCDxsYW1iZGE+KQAA\nAHMAAAAA\n", null, [8, 31]], "function_type": "lambda", "trainable": true}, "class_name": "Lambda", "inbound_nodes": [[["leaky_re_lu_11", 0, 0, {}]]]}, {"name": "lambda_109", "config": {"name": "lambda_109", "output_shape_type": "raw", "output_shape": null, "arguments": {}, "function": ["4wEAAAAAAAAAAQAAAAcAAAATAAAAczgAAAB8AABkAABkAACFAgBkAABkAACFAgBkAABkAACFAgCI\nAQCIAAAUiAEAiAAAFIgAABeFAgBmBAAZUykBTqkAKQHaAXopAtoCX2TaAWpyAQAAAPoyRDovX0hL\nU0RhdGEvV3JhcHBlci9hdXRvTUwvdGVzdGluZy9SZXNOZXRfbW9kZWwucHnaCDxsYW1iZGE+KQAA\nAHMAAAAA\n", null, [8, 31]], "function_type": "lambda", "trainable": true}, "class_name": "Lambda", "inbound_nodes": [[["leaky_re_lu_11", 0, 0, {}]]]}, {"name": "lambda_110", "config": {"name": "lambda_110", "output_shape_type": "raw", "output_shape": null, "arguments": {}, "function": ["4wEAAAAAAAAAAQAAAAcAAAATAAAAczgAAAB8AABkAABkAACFAgBkAABkAACFAgBkAABkAACFAgCI\nAQCIAAAUiAEAiAAAFIgAABeFAgBmBAAZUykBTqkAKQHaAXopAtoCX2TaAWpyAQAAAPoyRDovX0hL\nU0RhdGEvV3JhcHBlci9hdXRvTUwvdGVzdGluZy9SZXNOZXRfbW9kZWwucHnaCDxsYW1iZGE+KQAA\nAHMAAAAA\n", null, [8, 31]], "function_type": "lambda", "trainable": true}, "class_name": "Lambda", "inbound_nodes": [[["leaky_re_lu_11", 0, 0, {}]]]}, {"name": "lambda_111", "config": {"name": "lambda_111", "output_shape_type": "raw", "output_shape": null, "arguments": {}, "function": ["4wEAAAAAAAAAAQAAAAcAAAATAAAAczgAAAB8AABkAABkAACFAgBkAABkAACFAgBkAABkAACFAgCI\nAQCIAAAUiAEAiAAAFIgAABeFAgBmBAAZUykBTqkAKQHaAXopAtoCX2TaAWpyAQAAAPoyRDovX0hL\nU0RhdGEvV3JhcHBlci9hdXRvTUwvdGVzdGluZy9SZXNOZXRfbW9kZWwucHnaCDxsYW1iZGE+KQAA\nAHMAAAAA\n", null, [8, 31]], "function_type": "lambda", "trainable": true}, "class_name": "Lambda", "inbound_nodes": [[["leaky_re_lu_11", 0, 0, {}]]]}, {"name": "lambda_112", "config": {"name": "lambda_112", "output_shape_type": "raw", "output_shape": null, "arguments": {}, "function": ["4wEAAAAAAAAAAQAAAAcAAAATAAAAczgAAAB8AABkAABkAACFAgBkAABkAACFAgBkAABkAACFAgCI\nAQCIAAAUiAEAiAAAFIgAABeFAgBmBAAZUykBTqkAKQHaAXopAtoCX2TaAWpyAQAAAPoyRDovX0hL\nU0RhdGEvV3JhcHBlci9hdXRvTUwvdGVzdGluZy9SZXNOZXRfbW9kZWwucHnaCDxsYW1iZGE+KQAA\nAHMAAAAA\n", null, [8, 31]], "function_type": "lambda", "trainable": true}, "class_name": "Lambda", "inbound_nodes": [[["leaky_re_lu_11", 0, 0, {}]]]}, {"name": "lambda_113", "config": {"name": "lambda_113", "output_shape_type": "raw", "output_shape": null, "arguments": {}, "function": ["4wEAAAAAAAAAAQAAAAcAAAATAAAAczgAAAB8AABkAABkAACFAgBkAABkAACFAgBkAABkAACFAgCI\nAQCIAAAUiAEAiAAAFIgAABeFAgBmBAAZUykBTqkAKQHaAXopAtoCX2TaAWpyAQAAAPoyRDovX0hL\nU0RhdGEvV3JhcHBlci9hdXRvTUwvdGVzdGluZy9SZXNOZXRfbW9kZWwucHnaCDxsYW1iZGE+KQAA\nAHMAAAAA\n", null, [8, 31]], "function_type": "lambda", "trainable": true}, "class_name": "Lambda", "inbound_nodes": [[["leaky_re_lu_11", 0, 0, {}]]]}, {"name": "lambda_114", "config": {"name": "lambda_114", "output_shape_type": "raw", "output_shape": null, "arguments": {}, "function": ["4wEAAAAAAAAAAQAAAAcAAAATAAAAczgAAAB8AABkAABkAACFAgBkAABkAACFAgBkAABkAACFAgCI\nAQCIAAAUiAEAiAAAFIgAABeFAgBmBAAZUykBTqkAKQHaAXopAtoCX2TaAWpyAQAAAPoyRDovX0hL\nU0RhdGEvV3JhcHBlci9hdXRvTUwvdGVzdGluZy9SZXNOZXRfbW9kZWwucHnaCDxsYW1iZGE+KQAA\nAHMAAAAA\n", null, [8, 31]], "function_type": "lambda", "trainable": true}, "class_name": "Lambda", "inbound_nodes": [[["leaky_re_lu_11", 0, 0, {}]]]}, {"name": "lambda_115", "config": {"name": "lambda_115", "output_shape_type": "raw", "output_shape": null, "arguments": {}, "function": ["4wEAAAAAAAAAAQAAAAcAAAATAAAAczgAAAB8AABkAABkAACFAgBkAABkAACFAgBkAABkAACFAgCI\nAQCIAAAUiAEAiAAAFIgAABeFAgBmBAAZUykBTqkAKQHaAXopAtoCX2TaAWpyAQAAAPoyRDovX0hL\nU0RhdGEvV3JhcHBlci9hdXRvTUwvdGVzdGluZy9SZXNOZXRfbW9kZWwucHnaCDxsYW1iZGE+KQAA\nAHMAAAAA\n", null, [8, 31]], "function_type": "lambda", "trainable": true}, "class_name": "Lambda", "inbound_nodes": [[["leaky_re_lu_11", 0, 0, {}]]]}, {"name": "lambda_116", "config": {"name": "lambda_116", "output_shape_type": "raw", "output_shape": null, "arguments": {}, "function": ["4wEAAAAAAAAAAQAAAAcAAAATAAAAczgAAAB8AABkAABkAACFAgBkAABkAACFAgBkAABkAACFAgCI\nAQCIAAAUiAEAiAAAFIgAABeFAgBmBAAZUykBTqkAKQHaAXopAtoCX2TaAWpyAQAAAPoyRDovX0hL\nU0RhdGEvV3JhcHBlci9hdXRvTUwvdGVzdGluZy9SZXNOZXRfbW9kZWwucHnaCDxsYW1iZGE+KQAA\nAHMAAAAA\n", null, [8, 31]], "function_type": "lambda", "trainable": true}, "class_name": "Lambda", "inbound_nodes": [[["leaky_re_lu_11", 0, 0, {}]]]}, {"name": "lambda_117", "config": {"name": "lambda_117", "output_shape_type": "raw", "output_shape": null, "arguments": {}, "function": ["4wEAAAAAAAAAAQAAAAcAAAATAAAAczgAAAB8AABkAABkAACFAgBkAABkAACFAgBkAABkAACFAgCI\nAQCIAAAUiAEAiAAAFIgAABeFAgBmBAAZUykBTqkAKQHaAXopAtoCX2TaAWpyAQAAAPoyRDovX0hL\nU0RhdGEvV3JhcHBlci9hdXRvTUwvdGVzdGluZy9SZXNOZXRfbW9kZWwucHnaCDxsYW1iZGE+KQAA\nAHMAAAAA\n", null, [8, 31]], "function_type": "lambda", "trainable": true}, "class_name": "Lambda", "inbound_nodes": [[["leaky_re_lu_11", 0, 0, {}]]]}, {"name": "lambda_118", "config": {"name": "lambda_118", "output_shape_type": "raw", "output_shape": null, "arguments": {}, "function": ["4wEAAAAAAAAAAQAAAAcAAAATAAAAczgAAAB8AABkAABkAACFAgBkAABkAACFAgBkAABkAACFAgCI\nAQCIAAAUiAEAiAAAFIgAABeFAgBmBAAZUykBTqkAKQHaAXopAtoCX2TaAWpyAQAAAPoyRDovX0hL\nU0RhdGEvV3JhcHBlci9hdXRvTUwvdGVzdGluZy9SZXNOZXRfbW9kZWwucHnaCDxsYW1iZGE+KQAA\nAHMAAAAA\n", null, [8, 31]], "function_type": "lambda", "trainable": true}, "class_name": "Lambda", "inbound_nodes": [[["leaky_re_lu_11", 0, 0, {}]]]}, {"name": "lambda_119", "config": {"name": "lambda_119", "output_shape_type": "raw", "output_shape": null, "arguments": {}, "function": ["4wEAAAAAAAAAAQAAAAcAAAATAAAAczgAAAB8AABkAABkAACFAgBkAABkAACFAgBkAABkAACFAgCI\nAQCIAAAUiAEAiAAAFIgAABeFAgBmBAAZUykBTqkAKQHaAXopAtoCX2TaAWpyAQAAAPoyRDovX0hL\nU0RhdGEvV3JhcHBlci9hdXRvTUwvdGVzdGluZy9SZXNOZXRfbW9kZWwucHnaCDxsYW1iZGE+KQAA\nAHMAAAAA\n", null, [8, 31]], "function_type": "lambda", "trainable": true}, "class_name": "Lambda", "inbound_nodes": [[["leaky_re_lu_11", 0, 0, {}]]]}, {"name": "lambda_120", "config": {"name": "lambda_120", "output_shape_type": "raw", "output_shape": null, "arguments": {}, "function": ["4wEAAAAAAAAAAQAAAAcAAAATAAAAczgAAAB8AABkAABkAACFAgBkAABkAACFAgBkAABkAACFAgCI\nAQCIAAAUiAEAiAAAFIgAABeFAgBmBAAZUykBTqkAKQHaAXopAtoCX2TaAWpyAQAAAPoyRDovX0hL\nU0RhdGEvV3JhcHBlci9hdXRvTUwvdGVzdGluZy9SZXNOZXRfbW9kZWwucHnaCDxsYW1iZGE+KQAA\nAHMAAAAA\n", null, [8, 31]], "function_type": "lambda", "trainable": true}, "class_name": "Lambda", "inbound_nodes": [[["leaky_re_lu_11", 0, 0, {}]]]}, {"name": "lambda_121", "config": {"name": "lambda_121", "output_shape_type": "raw", "output_shape": null, "arguments": {}, "function": ["4wEAAAAAAAAAAQAAAAcAAAATAAAAczgAAAB8AABkAABkAACFAgBkAABkAACFAgBkAABkAACFAgCI\nAQCIAAAUiAEAiAAAFIgAABeFAgBmBAAZUykBTqkAKQHaAXopAtoCX2TaAWpyAQAAAPoyRDovX0hL\nU0RhdGEvV3JhcHBlci9hdXRvTUwvdGVzdGluZy9SZXNOZXRfbW9kZWwucHnaCDxsYW1iZGE+KQAA\nAHMAAAAA\n", null, [8, 31]], "function_type": "lambda", "trainable": true}, "class_name": "Lambda", "inbound_nodes": [[["leaky_re_lu_11", 0, 0, {}]]]}, {"name": "lambda_122", "config": {"name": "lambda_122", "output_shape_type": "raw", "output_shape": null, "arguments": {}, "function": ["4wEAAAAAAAAAAQAAAAcAAAATAAAAczgAAAB8AABkAABkAACFAgBkAABkAACFAgBkAABkAACFAgCI\nAQCIAAAUiAEAiAAAFIgAABeFAgBmBAAZUykBTqkAKQHaAXopAtoCX2TaAWpyAQAAAPoyRDovX0hL\nU0RhdGEvV3JhcHBlci9hdXRvTUwvdGVzdGluZy9SZXNOZXRfbW9kZWwucHnaCDxsYW1iZGE+KQAA\nAHMAAAAA\n", null, [8, 31]], "function_type": "lambda", "trainable": true}, "class_name": "Lambda", "inbound_nodes": [[["leaky_re_lu_11", 0, 0, {}]]]}, {"name": "lambda_123", "config": {"name": "lambda_123", "output_shape_type": "raw", "output_shape": null, "arguments": {}, "function": ["4wEAAAAAAAAAAQAAAAcAAAATAAAAczgAAAB8AABkAABkAACFAgBkAABkAACFAgBkAABkAACFAgCI\nAQCIAAAUiAEAiAAAFIgAABeFAgBmBAAZUykBTqkAKQHaAXopAtoCX2TaAWpyAQAAAPoyRDovX0hL\nU0RhdGEvV3JhcHBlci9hdXRvTUwvdGVzdGluZy9SZXNOZXRfbW9kZWwucHnaCDxsYW1iZGE+KQAA\nAHMAAAAA\n", null, [8, 31]], "function_type": "lambda", "trainable": true}, "class_name": "Lambda", "inbound_nodes": [[["leaky_re_lu_11", 0, 0, {}]]]}, {"name": "lambda_124", "config": {"name": "lambda_124", "output_shape_type": "raw", "output_shape": null, "arguments": {}, "function": ["4wEAAAAAAAAAAQAAAAcAAAATAAAAczgAAAB8AABkAABkAACFAgBkAABkAACFAgBkAABkAACFAgCI\nAQCIAAAUiAEAiAAAFIgAABeFAgBmBAAZUykBTqkAKQHaAXopAtoCX2TaAWpyAQAAAPoyRDovX0hL\nU0RhdGEvV3JhcHBlci9hdXRvTUwvdGVzdGluZy9SZXNOZXRfbW9kZWwucHnaCDxsYW1iZGE+KQAA\nAHMAAAAA\n", null, [8, 31]], "function_type": "lambda", "trainable": true}, "class_name": "Lambda", "inbound_nodes": [[["leaky_re_lu_11", 0, 0, {}]]]}, {"name": "lambda_125", "config": {"name": "lambda_125", "output_shape_type": "raw", "output_shape": null, "arguments": {}, "function": ["4wEAAAAAAAAAAQAAAAcAAAATAAAAczgAAAB8AABkAABkAACFAgBkAABkAACFAgBkAABkAACFAgCI\nAQCIAAAUiAEAiAAAFIgAABeFAgBmBAAZUykBTqkAKQHaAXopAtoCX2TaAWpyAQAAAPoyRDovX0hL\nU0RhdGEvV3JhcHBlci9hdXRvTUwvdGVzdGluZy9SZXNOZXRfbW9kZWwucHnaCDxsYW1iZGE+KQAA\nAHMAAAAA\n", null, [8, 31]], "function_type": "lambda", "trainable": true}, "class_name": "Lambda", "inbound_nodes": [[["leaky_re_lu_11", 0, 0, {}]]]}, {"name": "lambda_126", "config": {"name": "lambda_126", "output_shape_type": "raw", "output_shape": null, "arguments": {}, "function": ["4wEAAAAAAAAAAQAAAAcAAAATAAAAczgAAAB8AABkAABkAACFAgBkAABkAACFAgBkAABkAACFAgCI\nAQCIAAAUiAEAiAAAFIgAABeFAgBmBAAZUykBTqkAKQHaAXopAtoCX2TaAWpyAQAAAPoyRDovX0hL\nU0RhdGEvV3JhcHBlci9hdXRvTUwvdGVzdGluZy9SZXNOZXRfbW9kZWwucHnaCDxsYW1iZGE+KQAA\nAHMAAAAA\n", null, [8, 31]], "function_type": "lambda", "trainable": true}, "class_name": "Lambda", "inbound_nodes": [[["leaky_re_lu_11", 0, 0, {}]]]}, {"name": "lambda_127", "config": {"name": "lambda_127", "output_shape_type": "raw", "output_shape": null, "arguments": {}, "function": ["4wEAAAAAAAAAAQAAAAcAAAATAAAAczgAAAB8AABkAABkAACFAgBkAABkAACFAgBkAABkAACFAgCI\nAQCIAAAUiAEAiAAAFIgAABeFAgBmBAAZUykBTqkAKQHaAXopAtoCX2TaAWpyAQAAAPoyRDovX0hL\nU0RhdGEvV3JhcHBlci9hdXRvTUwvdGVzdGluZy9SZXNOZXRfbW9kZWwucHnaCDxsYW1iZGE+KQAA\nAHMAAAAA\n", null, [8, 31]], "function_type": "lambda", "trainable": true}, "class_name": "Lambda", "inbound_nodes": [[["leaky_re_lu_11", 0, 0, {}]]]}, {"name": "lambda_128", "config": {"name…
 "strides": [2, 2], "dilation_rate": [1, 1], "data_format": "channels_last", "kernel_constraint": null, "trainable": true, "bias_constraint": null}, "class_name": "Conv2D", "inbound_nodes": [[["lambda_222", 0, 0, {}]]]}, {"name": "conv2d_240", "config": {"kernel_initializer": {"config": {"scale": 1.0, "mode": "fan_avg", "distribution": "uniform", "seed": null}, "class_name": "VarianceScaling"}, "bias_initializer": {"config": {}, "class_name": "Zeros"}, "filters": 32, "kernel_size": [3, 3], "padding": "same", "kernel_regularizer": null, "bias_regularizer": null, "use_bias": true, "name": "conv2d_240", "activation": "linear", "activity_regularizer": null, "strides": [2, 2], "dilation_rate": [1, 1], "data_format": "channels_last", "kernel_constraint": null, "trainable": true, "bias_constraint": null}, "class_name": "Conv2D", "inbound_nodes": [[["lambda_223", 0, 0, {}]]]}, {"name": "conv2d_241", "config": {"kernel_initializer": {"config": {"scale": 1.0, "mode": "fan_avg", "distribution": "uniform", "seed": null}, "class_name": "VarianceScaling"}, "bias_initializer": {"config": {}, "class_name": "Zeros"}, "filters": 32, "kernel_size": [3, 3], "padding": "same", "kernel_regularizer": null, "bias_regularizer": null, "use_bias": true, "name": "conv2d_241", "activation": "linear", "activity_regularizer": null, "strides": [2, 2], "dilation_rate": [1, 1], "data_format": "channels_last", "kernel_constraint": null, "trainable": true, "bias_constraint": null}, "class_name": "Conv2D", "inbound_nodes": [[["lambda_224", 0, 0, {}]]]}, {"name": "concatenate_7", "config": {"name": "concatenate_7", "trainable": true, "axis": -1}, "class_name": "Concatenate", "inbound_nodes": [[["conv2d_210", 0, 0, {}], ["conv2d_211", 0, 0, {}], ["conv2d_212", 0, 0, {}], ["conv2d_213", 0, 0, {}], ["conv2d_214", 0, 0, {}], ["conv2d_215", 0, 0, {}], ["conv2d_216", 0, 0, {}], ["conv2d_217", 0, 0, {}], ["conv2d_218", 0, 0, {}], ["conv2d_219", 0, 0, {}], ["conv2d_220", 0, 0, {}], ["conv2d_221", 0, 0, {}], ["conv2d_222", 0, 0, {}], ["conv2d_223", 0, 0, {}], ["conv2d_224", 0, 0, {}], ["conv2d_225", 0, 0, {}], ["conv2d_226", 0, 0, {}], ["conv2d_227", 0, 0, {}], ["conv2d_228", 0, 0, {}], ["conv2d_229", 0, 0, {}], ["conv2d_230", 0, 0, {}], ["conv2d_231", 0, 0, {}], ["conv2d_232", 0, 0, {}], ["conv2d_233", 0, 0, {}], ["conv2d_234", 0, 0, {}], ["conv2d_235", 0, 0, {}], ["conv2d_236", 0, 0, {}], ["conv2d_237", 0, 0, {}], ["conv2d_238", 0, 0, {}], ["conv2d_239", 0, 0, {}], ["conv2d_240", 0, 0, {}], ["conv2d_241", 0, 0, {}]]]}, {"name": "batch_normalization_24", "config": {"epsilon": 0.001, "momentum": 0.99, "beta_constraint": null, "scale": true, "gamma_constraint": null, "gamma_regularizer": null, "gamma_initializer": {"config": {}, "class_name": "Ones"}, "axis": -1, "name": "batch_normalization_24", "center": true, "beta_regularizer": null, "beta_initializer": {"config": {}, "class_name": "Zeros"}, "moving_mean_initializer": {"config": {}, "class_name": "Zeros"}, "moving_variance_initializer": {"config": {}, "class_name": "Ones"}, "trainable": true}, "class_name": "BatchNormalization", "inbound_nodes": [[["concatenate_7", 0, 0, {}]]]}, {"name": "leaky_re_lu_21", "config": {"name": "leaky_re_lu_21", "alpha": 0.30000001192092896, "trainable": true}, "class_name": "LeakyReLU", "inbound_nodes": [[["batch_normalization_24", 0, 0, {}]]]}, {"name": "conv2d_243", "config": {"kernel_initializer": {"config": {"scale": 1.0, "mode": "fan_avg", "distribution": "uniform", "seed": null}, "class_name": "VarianceScaling"}, "bias_initializer": {"config": {}, "class_name": "Zeros"}, "filters": 2048, "kernel_size": [1, 1], "padding": "same", "kernel_regularizer": null, "bias_regularizer": null, "use_bias": true, "name": "conv2d_243", "activation": "linear", "activity_regularizer": null, "strides": [2, 2], "dilation_rate": [1, 1], "data_format": "channels_last", "kernel_constraint": null, "trainable": true, "bias_constraint": null}, "class_name": "Conv2D", "inbound_nodes": [[["leaky_re_lu_19", 0, 0, {}]]]}, {"name": "conv2d_242", "config": {"kernel_initializer": {"config": {"scale": 1.0, "mode": "fan_avg", "distribution": "uniform", "seed": null}, "class_name": "VarianceScaling"}, "bias_initializer": {"config": {}, "class_name": "Zeros"}, "filters": 2048, "kernel_size": [1, 1], "padding": "same", "kernel_regularizer": null, "bias_regularizer": null, "use_bias": true, "name": "conv2d_242", "activation": "linear", "activity_regularizer": null, "strides": [1, 1], "dilation_rate": [1, 1], "data_format": "channels_last", "kernel_constraint": null, "trainable": true, "bias_constraint": null}, "class_name": "Conv2D", "inbound_nodes": [[["leaky_re_lu_21", 0, 0, {}]]]}, {"name": "batch_normalization_26", "config": {"epsilon": 0.001, "momentum": 0.99, "beta_constraint": null, "scale": true, "gamma_constraint": null, "gamma_regularizer": null, "gamma_initializer": {"config": {}, "class_name": "Ones"}, "axis": -1, "name": "batch_normalization_26", "center": true, "beta_regularizer": null, "beta_initializer": {"config": {}, "class_name": "Zeros"}, "moving_mean_initializer": {"config": {}, "class_name": "Zeros"}, "moving_variance_initializer": {"config": {}, "class_name": "Ones"}, "trainable": true}, "class_name": "BatchNormalization", "inbound_nodes": [[["conv2d_243", 0, 0, {}]]]}, {"name": "batch_normalization_25", "config": {"epsilon": 0.001, "momentum": 0.99, "beta_constraint": null, "scale": true, "gamma_constraint": null, "gamma_regularizer": null, "gamma_initializer": {"config": {}, "class_name": "Ones"}, "axis": -1, "name": "batch_normalization_25", "center": true, "beta_regularizer": null, "beta_initializer": {"config": {}, "class_name": "Zeros"}, "moving_mean_initializer": {"config": {}, "class_name": "Zeros"}, "moving_variance_initializer": {"config": {}, "class_name": "Ones"}, "trainable": true}, "class_name": "BatchNormalization", "inbound_nodes": [[["conv2d_242", 0, 0, {}]]]}, {"name": "add_7", "config": {"name": "add_7", "trainable": true}, "class_name": "Add", "inbound_nodes": [[["batch_normalization_26", 0, 0, {}], ["batch_normalization_25", 0, 0, {}]]]}, {"name": "leaky_re_lu_22", "config": {"name": "leaky_re_lu_22", "alpha": 0.30000001192092896, "trainable": true}, "class_name": "LeakyReLU", "inbound_nodes": [[["add_7", 0, 0, {}]]]}, {"name": "conv2d_244", "config": {"kernel_initializer": {"config": {"scale": 1.0, "mode": "fan_avg", "distribution": "uniform", "seed": null}, "class_name": "VarianceScaling"}, "bias_initializer": {"config": {}, "class_name": "Zeros"}, "filters": 1024, "kernel_size": [1, 1], "padding": "same", "kernel_regularizer": null, "bias_regularizer": null, "use_bias": true, "name": "conv2d_244", "activation": "linear", "activity_regularizer": null, "strides": [1, 1], "dilation_rate": [1, 1], "data_format": "channels_last", "kernel_constraint": null, "trainable": true, "bias_constraint": null}, "class_name": "Conv2D", "inbound_nodes": [[["leaky_re_lu_22", 0, 0, {}]]]}, {"name": "batch_normalization_27", "config": {"epsilon": 0.001, "momentum": 0.99, "beta_constraint": null, "scale": true, "gamma_constraint": null, "gamma_regularizer": null, "gamma_initializer": {"config": {}, "class_name": "Ones"}, "axis": -1, "name": "batch_normalization_27", "center": true, "beta_regularizer": null, "beta_initializer": {"config": {}, "class_name": "Zeros"}, "moving_mean_initializer": {"config": {}, "class_name": "Zeros"}, "moving_variance_initializer": {"config": {}, "class_name": "Ones"}, "trainable": true}, "class_name": "BatchNormalization", "inbound_nodes": [[["conv2d_244", 0, 0, {}]]]}, {"name": "leaky_re_lu_23", "config": {"name": "leaky_re_lu_23", "alpha": 0.30000001192092896, "trainable": true}, "class_name": "LeakyReLU", "inbound_nodes": [[["batch_normalization_27", 0, 0, {}]]]}, {"name": "lambda_225", "config": {"name": "lambda_225", "output_shape_type": "raw", "output_shape": null, "arguments": {}, "function": ["4wEAAAAAAAAAAQAAAAcAAAATAAAAczgAAAB8AABkAABkAACFAgBkAABkAACFAgBkAABkAACFAgCI\nAQCIAAAUiAEAiAAAFIgAABeFAgBmBAAZUykBTqkAKQHaAXopAtoCX2TaAWpyAQAAAPoyRDovX0hL\nU0RhdGEvV3JhcHBlci9hdXRvTUwvdGVzdGluZy9SZXNOZXRfbW9kZWwucHnaCDxsYW1iZGE+KQAA\nAHMAAAAA\n", null, [32, 31]], "function_type": "lambda", "trainable": true}, "class_name": "Lambda", "inbound_nodes": [[["leaky_re_lu_23", 0, 0, {}]]]}, {"name": "lambda_226", "config": {"name": "lambda_226", "output_shape_type": "raw", "output_shape": null, "arguments": {}, "function": ["4wEAAAAAAAAAAQAAAAcAAAATAAAAczgAAAB8AABkAABkAACFAgBkAABkAACFAgBkAABkAACFAgCI\nAQCIAAAUiAEAiAAAFIgAABeFAgBmBAAZUykBTqkAKQHaAXopAtoCX2TaAWpyAQAAAPoyRDovX0hL\nU0RhdGEvV3JhcHBlci9hdXRvTUwvdGVzdGluZy9SZXNOZXRfbW9kZWwucHnaCDxsYW1iZGE+KQAA\nAHMAAAAA\n", null, [32, 31]], "function_type": "lambda", "trainable": true}, "class_name": "Lambda", "inbound_nodes": [[["leaky_re_lu_23", 0, 0, {}]]]}, {"name": "lambda_227", "config": {"name": "lambda_227", "output_shape_type": "raw", "output_shape": null, "arguments": {}, "function": ["4wEAAAAAAAAAAQAAAAcAAAATAAAAczgAAAB8AABkAABkAACFAgBkAABkAACFAgBkAABkAACFAgCI\nAQCIAAAUiAEAiAAAFIgAABeFAgBmBAAZUykBTqkAKQHaAXopAtoCX2TaAWpyAQAAAPoyRDovX0hL\nU0RhdGEvV3JhcHBlci9hdXRvTUwvdGVzdGluZy9SZXNOZXRfbW9kZWwucHnaCDxsYW1iZGE+KQAA\nAHMAAAAA\n", null, [32, 31]], "function_type": "lambda", "trainable": true}, "class_name": "Lambda", "inbound_nodes": [[["leaky_re_lu_23", 0, 0, {}]]]}, {"name": "lambda_228", "config": {"name": "lambda_228", "output_shape_type": "raw", "output_shape": null, "arguments": {}, "function": ["4wEAAAAAAAAAAQAAAAcAAAATAAAAczgAAAB8AABkAABkAACFAgBkAABkAACFAgBkAABkAACFAgCI\nAQCIAAAUiAEAiAAAFIgAABeFAgBmBAAZUykBTqkAKQHaAXopAtoCX2TaAWpyAQAAAPoyRDovX0hL\nU0RhdGEvV3JhcHBlci9hdXRvTUwvdGVzdGluZy9SZXNOZXRfbW9kZWwucHnaCDxsYW1iZGE+KQAA\nAHMAAAAA\n", null, [32, 31]], "function_type": "lambda", "trainable": true}, "class_name": "Lambda", "inbound_nodes": [[["leaky_re_lu_23", 0, 0, {}]]]}, {"name": "lambda_229", "config": {"name": "lambda_229", "output_shape_type": "raw", "output_shape": null, "arguments": {}, "function": ["4wEAAAAAAAAAAQAAAAcAAAATAAAAczgAAAB8AABkAABkAACFAgBkAABkAACFAgBkAABkAACFAgCI\nAQCIAAAUiAEAiAAAFIgAABeFAgBmBAAZUykBTqkAKQHaAXopAtoCX2TaAWpyAQAAAPoyRDovX0hL\nU0RhdGEvV3JhcHBlci9hdXRvTUwvdGVzdGluZy9SZXNOZXRfbW9kZWwucHnaCDxsYW1iZGE+KQAA\nAHMAAAAA\n", null, [32, 31]], "function_type": "lambda", "trainable": true}, "class_name": "Lambda", "inbound_nodes": [[["leaky_re_lu_23", 0, 0, {}]]]}, {"name": "lambda_230", "config": {"name": "lambda_230", "output_shape_type": "raw", "output_shape": null, "arguments": {}, "function": ["4wEAAAAAAAAAAQAAAAcAAAATAAAAczgAAAB8AABkAABkAACFAgBkAABkAACFAgBkAABkAACFAgCI\nAQCIAAAUiAEAiAAAFIgAABeFAgBmBAAZUykBTqkAKQHaAXopAtoCX2TaAWpyAQAAAPoyRDovX0hL\nU0RhdGEvV3JhcHBlci9hdXRvTUwvdGVzdGluZy9SZXNOZXRfbW9kZWwucHnaCDxsYW1iZGE+KQAA\nAHMAAAAA\n", null, [32, 31]], "function_type": "lambda", "trainable": true}, "class_name": "Lambda", "inbound_nodes": [[["leaky_re_lu_23", 0, 0, {}]]]}, {"name": "lambda_231", "config": {"name": "lambda_231", "output_shape_type": "raw", "output_shape": null, "arguments": {}, "function": ["4wEAAAAAAAAAAQAAAAcAAAATAAAAczgAAAB8AABkAABkAACFAgBkAABkAACFAgBkAABkAACFAgCI\nAQCIAAAUiAEAiAAAFIgAABeFAgBmBAAZUykBTqkAKQHaAXopAtoCX2TaAWpyAQAAAPoyRDovX0hL\nU0RhdGEvV3JhcHBlci9hdXRvTUwvdGVzdGluZy9SZXNOZXRfbW9kZWwucHnaCDxsYW1iZGE+KQAA\nAHMAAAAA\n", null, [32, 31]], "function_type": "lambda", "trainable": true}, "class_name": "Lambda", "inbound_nodes": [[["leaky_re_lu_23", 0, 0, {}]]]}, {"name": "lambda_232", "config": {"name": "lambda_232", "output_shape_type": "raw", "output_shape": null, "arguments": {}, "function": ["4wEAAAAAAAAAAQAAAAcAAAATAAAAczgAAAB8AABkAABkAACFAgBkAABkAACFAgBkAABkAACFAgCI\nAQCIAAAUiAEAiAAAFIgAABeFAgBmBAAZUykBTqkAKQHaAXopAtoCX2TaAWpyAQAAAPoyRDovX0hL\nU0RhdGEvV3JhcHBlci9hdXRvTUwvdGVzdGluZy9SZXNOZXRfbW9kZWwucHnaCDxsYW1iZGE+KQAA\nAHMAAAAA\n", null, [32, 31]], "function_type": "lambda", "trainable": true}, "class_name": "Lambda", "inbound_nodes": [[["leaky_re_lu_23", 0, 0, {}]]]}, {"name": "lambda_233", "config": {"name": "lambda_233", "output_shape_type": "raw", "output_shape": null, "arguments": {}, "function": ["4wEAAAAAAAAAAQAAAAcAAAATAAAAczgAAAB8AABkAABkAACFAgBkAABkAACFAgBkAABkAACFAgCI\nAQCIAAAUiAEAiAAAFIgAABeFAgBmBAAZUykBTqkAKQHaAXopAtoCX2TaAWpyAQAAAPoyRDovX0hL\nU0RhdGEvV3JhcHBlci9hdXRvTUwvdGVzdGluZy9SZXNOZXRfbW9kZWwucHnaCDxsYW1iZGE+KQAA\nAHMAAAAA\n", null, [32, 31]], "function_type": "lambda", "trainable": true}, "class_name": "Lambda", "inbound_nodes": [[["leaky_re_lu_23", 0, 0, {}]]]}, {"name": "lambda_234", "config": {"name": "lambda_234", "output_shape_type": "raw", "output_shape": null, "arguments": {}, "function": ["4wEAAAAAAAAAAQAAAAcAAAATAAAAczgAAAB8AABkAABkAACFAgBkAABkAACFAgBkAABkAACFAgCI\nAQCIAAAUiAEAiAAAFIgAABeFAgBmBAAZUykBTqkAKQHaAXopAtoCX2TaAWpyAQAAAPoyRDovX0hL\nU0RhdGEvV3JhcHBlci9hdXRvTUwvdGVzdGluZy9SZXNOZXRfbW9kZWwucHnaCDxsYW1iZGE+KQAA\nAHMAAAAA\n", null, [32, 31]], "function_type": "lambda", "trainable": true}, "class_name": "Lambda", "inbound_nodes": [[["leaky_re_lu_23", 0, 0, {}]]]}, {"name": "lambda_235", "config": {"name": "lambda_235", "output_shape_type": "raw", "output_shape": null, "arguments": {}, "function": ["4wEAAAAAAAAAAQAAAAcAAAATAAAAczgAAAB8AABkAABkAACFAgBkAABkAACFAgBkAABkAACFAgCI\nAQCIAAAUiAEAiAAAFIgAABeFAgBmBAAZUykBTqkAKQHaAXopAtoCX2TaAWpyAQAAAPoyRDovX0hL\nU0RhdGEvV3JhcHBlci9hdXRvTUwvdGVzdGluZy9SZXNOZXRfbW9kZWwucHnaCDxsYW1iZGE+KQAA\nAHMAAAAA\n", null, [32, 31]], "function_type": "lambda", "trainable": true}, "class_name": "Lambda", "inbound_nodes": [[["leaky_re_lu_23", 0, 0, {}]]]}, {"name": "lambda_236", "config": {"name": "lambda_236", "output_shape_type": "raw", "output_shape": null, "arguments": {}, "function": ["4wEAAAAAAAAAAQAAAAcAAAATAAAAczgAAAB8AABkAABkAACFAgBkAABkAACFAgBkAABkAACFAgCI\nAQCIAAAUiAEAiAAAFIgAABeFAgBmBAAZUykBTqkAKQHaAXopAtoCX2TaAWpyAQAAAPoyRDovX0hL\nU0RhdGEvV3JhcHBlci9hdXRvTUwvdGVzdGluZy9SZXNOZXRfbW9kZWwucHnaCDxsYW1iZGE+KQAA\nAHMAAAAA\n", null, [32, 31]], "function_type": "lambda", "trainable": true}, "class_name": "Lambda", "inbound_nodes": [[["leaky_re_lu_23", 0, 0, {}]]]}, {"name": "lambda_237", "config": {"name": "lambda_237", "output_shape_type": "raw", "output_shape": null, "arguments": {}, "function": ["4wEAAAAAAAAAAQAAAAcAAAATAAAAczgAAAB8AABkAABkAACFAgBkAABkAACFAgBkAABkAACFAgCI\nAQCIAAAUiAEAiAAAFIgAABeFAgBmBAAZUykBTqkAKQHaAXopAtoCX2TaAWpyAQAAAPoyRDovX0hL\nU0RhdGEvV3JhcHBlci9hdXRvTUwvdGVzdGluZy9SZXNOZXRfbW9kZWwucHnaCDxsYW1iZGE+KQAA\nAHMAAAAA\n", null, [32, 31]], "function_type": "lambda", "trainable": true}, "class_name": "Lambda", "inbound_nodes": [[["leaky_re_lu_23", 0, 0, {}]]]}, {"name": "lambda_238", "config": {"name": "lambda_238", "output_shape_type": "raw", "output_shape": null, "arguments": {}, "function": ["4wEAAAAAAAAAAQAAAAcAAAATAAAAczgAAAB8AABkAABkAACFAgBkAABkAACFAgBkAABkAACFAgCI\nAQCIAAAUiAEAiAAAFIgAABeFAgBmBAAZUykBTqkAKQHaAXopAtoCX2TaAWpyAQAAAPoyRDovX0hL\nU0RhdGEvV3JhcHBlci9hdXRvTUwvdGVzdGluZy9SZXNOZXRfbW9kZWwucHnaCDxsYW1iZGE+KQAA\nAHMAAAAA\n", null, [32, 31]], "function_type": "lambda", "trainable": true}, "class_name": "Lambda", "inbound_nodes": [[["leaky_re_lu_23", 0, 0, {}]]]}, {"name": "lambda_239", "config": {"name": "lambda_239", "output_shape_type": "raw", "output_shape": null, "arguments": {}, "function": ["4wEAAAAAAAAAAQAAAAcAAAATAAAAczgAAAB8AABkAABkAACFAgBkAABkAACFAgBkAABkAACFAgCI\nAQCIAAAUiAEAiAAAFIgAABeFAgBmBAAZUykBTqkAKQHaAXopAtoCX2TaAWpyAQAAAPoyRDovX0hL\nU0RhdGEvV3JhcHBlci9hdXRvTUwvdGVzdGluZy9SZXNOZXRfbW9kZWwucHnaCDxsYW1iZGE+KQAA\nAHMAAAAA\n", null, [32, 31]], "function_type": "lambda", "trainable": true}, "class_name": "Lambda", "inbound_nodes": [[["leaky_re_lu_23", 0, 0, {}]]]}, {"name": "lambda_240", "config": {"name": "lambda_240", "output_shape_type": "raw", "output_shape": null, "arguments": {}, "function": ["4wEAAAAAAAAAAQAAAAcAAAATAAAAczgAAAB8AABkAABkAACFAgBkAABkAACFAgBkAABkAACFAgCI\nAQCIAAAUiAEAiAAAFIgAABeFAgBmBAAZUykBTqkAKQHaAXopAtoCX2TaAWpyAQAAAPoyRDovX0hL\nU0RhdGEvV3JhcHBlci9hdXRvTUwvdGVzdGluZy9SZXNOZXRfbW9kZWwucHnaCDxsYW1iZGE+KQAA\nAHMAAAAA\n", null, [32, 31]], "function_type": "lambda", "trainable": true}, "class_name": "Lambda", "inbound_nodes": [[["leaky_re_lu_23", 0, 0, {}]]]}, {"name": "lambda_241", "config": {"name": "lambda_241", "output_shape_type": "raw", "output_shape": null, "arguments": {}, "function": ["4wEAAAAAAAAAAQAAAAcAAAATAAAAczgAAAB8AABkAABkAACFAgBkAABkAACFAgBkAABkAACFAgCI\nAQCIAAAUiAEAiAAAFIgAABeFAgBmBAAZUykBTqkAKQHaAXopAtoCX2TaAWpyAQAAAPoyRDovX0hL\nU0RhdGEvV3JhcHBlci9hdXRvTUwvdGVzdGluZy9SZXNOZXRfbW9kZWwucHnaCDxsYW1iZGE+KQAA\nAHMAAAAA\n", null, [32, 31]], "function_type": "lambda", "trainable": true}, "class_name": "Lambda", "inbound_nodes": [[["leaky_re_lu_23", 0, 0, {}]]]}, {"name": "lambda_242", "config": {"name": "lambda_242", "output_shape_type": "raw", "output_shape": null, "arguments": {}, "function": ["4wEAAAAAAAAAAQAAAAcAAAATAAAAczgAAAB8AABkAABkAACFAgBkAABkAACFAgBkAABkAACFAgCI\nAQCIAAAUiAEAiAAAFIgAABeFAgBmBAAZUykBTqkAKQHaAXopAtoCX2TaAWpyAQAAAPoyRDovX0hL\nU0RhdGEvV3JhcHBlci9hdXRvTUwvdGVzdGluZy9SZXNOZXRfbW9kZWwucHnaCDxsYW1iZGE+KQAA\nAHMAAAAA\n", null, [32, 31]], "function_type": "lambda", "trainable": true}, "class_name": "Lambda", "inbound_nodes": [[["leaky_re_lu_23", 0, 0, {}]]]}, {"name": "lambda_243", "config": {"name": "lambda_243", "output_shape_type": "raw", "output_shape": null, "arguments": {}, "function": ["4wEAAAAAAAAAAQAAAAcAAAATAAAAczgAAAB8AABkAABkAACFAgBkAABkAACFAgBkAABkAACFAgCI\nAQCIAAAUiAEAiAAAFIgAABeFAgBmBAAZUykBTqkAKQHaAXopAtoCX2TaAWpyAQAAAPoyRDovX0hL\nU0RhdGEvV3JhcHBlci9hdXRvTUwvdGVzdGluZy9SZXNOZXRfbW9kZWwucHnaCDxsYW1iZGE+KQAA\nAHMAAAAA\n", null, [32, 31]], "function_type": "lambda", "trainable": true}, "class_name": "Lambda", "inbound_nodes": [[["leaky_re_lu_23", 0, 0, {}]]]}, {"name": "lambda_244", "config": {"name": "lambda_244", "output_shape_type": "raw", "output_shape": null, "arguments": {}, "function": ["4wEAAAAAAAAAAQAAAAcAAAATAAAAczgAAAB8AABkAABkAACFAgBkAABkAACFAgBkAABkAACFAgCI\nAQCIAAAUiAEAiAAAFIgAABeFAgBmBAAZUykBTqkAKQHaAXopAtoCX2TaAWpyAQAAAPoyRDovX0hL\nU0RhdGEvV3JhcHBlci9hdXRvTUwvdGVzdGluZy9SZXNOZXRfbW9kZWwucHnaCDxsYW1iZGE+KQAA\nAHMAAAAA\n", null, [32, 31]], "function_type": "lambda", "trainable": true}, "class_name": "Lambda", "inbound_nodes": [[["leaky_re_lu_23", 0, 0, {}]]]}, {"name": "lambda_245", "config": {"name": "lambda_245", "output_shape_type": "raw", "output_shape": null, "arguments": {}, "function": ["4wEAAAAAAAAAAQAAAAcAAAATAAAAczgAAAB8AABkAABkAACFAgBkAABkAACFAgBkAABkAACFAgCI\nAQCIAAAUiAEAiAAAFIgAABeFAgBmBAAZUykBTqkAKQHaAXopAtoCX2TaAWpyAQAAAPoyRDovX0hL\nU0RhdGEvV3JhcHBlci9hdXRvTUwvdGVzdGluZy9SZXNOZXRfbW9kZWwucHnaCDxsYW1iZGE+KQAA\nAHMAAAAA\n", null, [32, 31]], "function_type": "lambda", "trainable": true}, "class_name": "Lambda", "inbound_nodes": [[["leaky_re_lu_23", 0, 0, {}]]]}, {"name": "lambda_246", "config": {"name": "lambda_246", "output_shape_type": "raw", "output_shape": null, "arguments": {}, "function": ["4wEAAAAAAAAAAQAAAAcAAAATAAAAczgAAAB8AABkAABkAACFAgBkAABkAACFAgBkAABkAACFAgCI\nAQCIAAAUiAEAiAAAFIgAABeFAgBmBAAZUykBTqkAKQHaAXopAtoCX2TaAWpyAQAAAPoyRDovX0hL\nU0RhdGEvV3JhcHBlci9hdXRvTUwvdGVzdGluZy9SZXNOZXRfbW9kZWwucHnaCDxsYW1iZGE+KQAA\nAHMAAAAA\n", null, [32, 31]], "function_type": "lambda", "trainable": true}, "class_name": "Lambda", "inbound_nodes": [[["leaky_re_lu_23", 0, 0, {}]]]}, {"name": "lambda_247", "config": {"name": "lambda_247", "output_shape_type": "raw", "output_shape": null, "arguments": {}, "function": ["4wEAAAAAAAAAAQAAAAcAAAATAAAAczgAAAB8AABkAABkAACFAgBkAABkAACFAgBkAABkAACFAgCI\nAQCIAAAUiAEAiAAAFIgAABeFAgBmBAAZUykBTqkAKQHaAXopAtoCX2TaAWpyAQAAAPoyRDovX0hL\nU0RhdGEvV3JhcHBlci9hdXRvTUwvdGVzdGluZy9SZXNOZXRfbW9kZWwucHnaCDxsYW1iZGE+KQAA\nAHMAAAAA\n", null, [32, 31]], "function_type": "lambda", "trainable": true}, "class_name": "Lambda", "inbound_nodes": [[["leaky_re_lu_23", 0, 0, {}]]]}, {"name": "lambda_248", "config": {"name": "lambda_248", "output_shape_type": "raw", "output_shape": null, "arguments": {}, "function": ["4wEAAAAAAAAAAQAAAAcAAAATAAAAczgAAAB8AABkAABkAACFAgBkAABkAACFAgBkAABkAACFAgCI\nAQCIAAAUiAEAiAAAFIgAABeFAgBmBAAZUykBTqkAKQHaAXopAtoCX2TaAWpyAQAAAPoyRDovX0hL\nU0RhdGEvV3JhcHBlci9hdXRvTUwvdGVzdGluZy9SZXNOZXRfbW9kZWwucHnaCDxsYW1iZGE+KQAA\nAHMAAAAA\n", null, [32, 31]], "function_type": "lambda", "trainable": true}, "class_name": "Lambda", "inbound_nodes": [[["leaky_re_lu_23", 0, 0, {}]]]}, {"name": "lambda_249", "config": {"name": "lambda_249", "output_shape_type": "raw", "output_shape": null, "arguments": {}, "function": ["4wEAAAAAAAAAAQAAAAcAAAATAAAAczgAAAB8AABkAABkAACFAgBkAABkAACFAgBkAABkAACFAgCI\nAQCIAAAUiAEAiAAAFIgAABeFAgBmBAAZUykBTqkAKQHaAXopAtoCX2TaAWpyAQAAAPoyRDovX0hL\nU0RhdGEvV3JhcHBlci9hdXRvTUwvdGVzdGluZy9SZXNOZXRfbW9kZWwucHnaCDxsYW1iZGE+KQAA\nAHMAAAAA\n", null, [32, 31]], "function_type": "lambda", "trainable": true}, "class_name": "Lambda", "inbound_nodes": [[["leaky_re_lu_23", 0, 0, {}]]]}, {"name": "lambda_250", "config": {"name": "lambda_250", "output_shape_type": "raw", "output_shape": null, "arguments": {}, "function": ["4wEAAAAAAAAAAQAAAAcAAAATAAAAczgAAAB8AABkAABkAACFAgBkAABkAACFAgBkAABkAACFAgCI\nAQCIAAAUiAEAiAAAFIgAABeFAgBmBAAZUykBTqkAKQHaAXopAtoCX2TaAWpyAQAAAPoyRDovX0hL\nU0RhdGEvV3JhcHBlci9hdXRvTUwvdGVzdGluZy9SZXNOZXRfbW9kZWwucHnaCDxsYW1iZGE+KQAA\nAHMAAAAA\n", null, [32, 31]], "function_type": "lambda", "trainable": true}, "class_name": "Lambda", "inbound_nodes": [[["leaky_re_lu_23", 0, 0, {}]]]}, {"name": "lambda_251", "config": {"name": "lambda_251", "output_shape_type": "raw", "output_shape": null, "arguments": {}, "function": ["4wEAAAAAAAAAAQAAAAcAAAATAAAAczgAAAB8AABkAABkAACFAgBkAABkAACFAgBkAABkAACFAgCI\nAQCIAAAUiAEAiAAAFIgAABeFAgBmBAAZUykBTqkAKQHaAXopAtoCX2TaAWpyAQAAAPoyRDovX0hL\nU0RhdGEvV3JhcHBlci9hdXRvTUwvdGVzdGluZy9SZXNOZXRfbW9kZWwucHnaCDxsYW1iZGE+KQAA\nAHMAAAAA\n", null, [32, 31]], "function_type": "lambda", "trainable": true}, "class_name": "Lambda", "inbound_nodes": [[["leaky_re_lu_23", 0, 0, {}]]]}, {"name": "lambda_252", "config": {"name": "lambda_252", "output_shape_type": "raw", "output_shape": null, "arguments": {}, "function": ["4wEAAAAAAAAAAQAAAAcAAAATAAAAczgAAAB8AABkAABkAACFAgBkAABkAACFAgBkAABkAACFAgCI\nAQCIAAAUiAEAiAAAFIgAABeFAgBmBAAZUykBTqkAKQHaAXopAtoCX2TaAWpyAQAAAPoyRDovX0hL\nU0RhdGEvV3JhcHBlci9hdXRvTUwvdGVzdGluZy9SZXNOZXRfbW9kZWwucHnaCDxsYW1iZGE+KQAA\nAHMAAAAA\n", null, [32, 31]], "function_type": "lambda", "trainable": true}, "class_name": "Lambda", "inbound_nodes": [[["leaky_re_lu_23", 0, 0, {}]]]}, {"name": "lambda_253", "config": {"name": "lambda_253", "output_shape_type": "raw", "output_shape": null, "arguments": {}, "function": ["4wEAAAAAAAAAAQAAAAcAAAATAAAAczgAAAB8AABkAABkAACFAgBkAABkAACFAgBkAABkAACFAgCI\nAQCIAAAUiAEAiAAAFIgAABeFAgBmBAAZUykBTqkAKQHaAXopAtoCX2TaAWpyAQAAAPoyRDovX0hL\nU0RhdGEvV3JhcHBlci9hdXRvTUwvdGVzdGluZy9SZXNOZXRfbW9kZWwucHnaCDxsYW1iZGE+KQAA\nAHMAAAAA\n", null, [32, 31]], "function_type": "lambda", "trainable": true}, "class_name": "Lambda", "inbound_nodes": [[["leaky_re_lu_23", 0, 0, {}]]]}, {"name": "lambda_254", "config": {"name": "lambda_254", "output_shape_type": "raw", "output_shape": null, "arguments": {}, "function": ["4wEAAAAAAAAAAQAAAAcAAAATAAAAczgAAAB8AABkAABkAACFAgBkAABkAACFAgBkAABkAACFAgCI\nAQCIAAAUiAEAiAAAFIgAABeFAgBmBAAZUykBTqkAKQHaAXopAtoCX2TaAWpyAQAAAPoyRDovX0hL\nU0RhdGEvV3JhcHBlci9hdXRvTUwvdGVzdGluZy9SZXNOZXRfbW9kZWwucHnaCDxsYW1iZGE+KQAA\nAHMAAAAA\n", null, [32, 31]], "function_type": "lambda", "trainable": true}, "class_name": "Lambda", "inbound_nodes": [[["leaky_re_lu_23", 0, 0, {}]]]}, {"name": "lambda_255", "config": {"name": "lambda_255", "output_shape_type": "raw", "output_shape": null, "arguments": {}, "function": ["4wEAAAAAAAAAAQAAAAcAAAATAAAAczgAAAB8AABkAABkAACFAgBkAABkAACFAgBkAABkAACFAgCI\nAQCIAAAUiAEAiAAAFIgAABeFAgBmBAAZUykBTqkAKQHaAXopAtoCX2TaAWpyAQAAAPoyRDovX0hL\nU0RhdGEvV3JhcHBlci9hdXRvTUwvdGVzdGluZy9SZXNOZXRfbW9kZWwucHnaCDxsYW1iZGE+KQAA\nAHMAAAAA\n", null, [32, 31]], "function_type": "lambda", "trainable": true}, "class_name": "Lambda", "inbound_nodes": [[["leaky_re_lu_23", 0, 0, {}]]]}, {"name": "lambda_256", "config": {"name": "lambda_256", "output_shape_type": "raw", "output_shape": null, "arguments": {}, "function": ["4wEAAAAAAAAAAQAAAAcAAAATAAAAczgAAAB8AABkAABkAACFAgBkAABkAACFAgBkAABkAACFAgCI\nAQCIAAAUiAEAiAAAFIgAABeFAgBmBAAZUykBTqkAKQHaAXopAtoCX2TaAWpyAQAAAPoyRDovX0hL\nU0RhdGEvV3JhcHBlci9hdXRvTUwvdGVzdGluZy9SZXNOZXRfbW9kZWwucHnaCDxsYW1iZGE+KQAA\nAHMAAAAA\n", null, [32, 31]], "function_type": "lambda", "trainable": true}, "class_name": "Lambda", "inbound_nodes": [[["leaky_re_lu_23", 0, 0, {}]]]}, {"name": "conv2d_245", "config": {"kernel_initializer": {"config": {"scale": 1.0, "mode": "fan_avg", "distribution": "uniform", "seed": null}, "class_name": "VarianceScaling"}, "bias_initializer": {"config": {}, "class_name": "Zeros"}, "filters": 32, "kernel_size": [3, 3], "padding": "same", "kernel_regularizer": null, "bias_regularizer": null, "use_bias": true, "name": "conv2d_245", "activation": "linear", "activity_regularizer": null, "strides": [1, 1], "dilation_rate": [1, 1], "data_format": "channels_last", "kernel_constraint": null, "trainable": true, "bias_constraint": null}, "class_name": "Conv2D", "inbound_nodes": [[["lambda_225", 0, 0, {}]]]}, {"name": "conv2d_246", "config": {"kernel_initializer": {"config": {"scale": 1.0, "mode": "fan_avg", "distribution": "uniform", "seed": null}, "class_name": "VarianceScaling"}, "bias_initializer": {"config": {}, "class_name": "Zeros"}, "filters": 32, "kernel_size": [3, 3], "padding": "same", "kernel_regularizer": null, "bias_regularizer": null, "use_bias": true, "name": "conv2d_246", "activation": "linear", "activity_regularizer": null, "strides": [1, 1], "dilation_rate": [1, 1], "data_format": "channels_last", "kernel_constraint": null, "trainable": true, "bias_constraint": null}, "class_name": "Conv2D", "inbound_nodes": [[["lambda_226", 0, 0, {}]]]}, {"name": "conv2d_247", "config": {"kernel_initializer": {"config": {"scale": 1.0, "mode": "fan_avg", "distribution": "uniform", "seed": null}, "class_name": "VarianceScaling"}, "bias_initializer": {"config": {}, "class_name": "Zeros"}, "filters": 32, "kernel_size": [3, 3], "padding": "same", "kernel_regularizer": null, "bias_regularizer": null, "use_bias": true, "name": "conv2d_247", "activation": "linear", "activity_regularizer": null, "strides": [1, 1], "dilation_rate": [1, 1], "data_format": "channels_last", "kernel_constraint": null, "trainable": true, "bias_constraint": null}, "class_name": "Conv2D", "inbound_nodes": [[["lambda_227", 0, 0, {}]]]}, {"name": "conv2d_248", "config": {"kernel_initializer": {"config": {"scale": 1.0, "mode": "fan_avg", "distribution": "uniform", "seed": null}, "class_name": "VarianceScaling"}, "bias_initializer": {"config": {}, "class_name": "Zeros"}, "filters": 32, "kernel_size": [3, 3], "padding": "same", "kernel_regularizer": null, "bias_regularizer": null, "use_bias": true, "name": "conv2d_248", "activation": "linear", "activity_regularizer": null, "strides": [1, 1], "dilation_rate": [1, 1], "data_format": "channels_last", "kernel_constraint": null, "trainable": true, "bias_constraint": null}, "class_name": "Conv2D", "inbound_nodes": [[["lambda_228", 0, 0, {}]]]}, {"name": "conv2d_249", "config": {"kernel_initializer": {"config": {"scale": 1.0, "mode": "fan_avg", "distribution": "uniform", "seed": null}, "class_name": "VarianceScaling"}, "bias_initializer": {"config": {}, "class_name": "Zeros"}, "filters": 32, "kernel_size": [3, 3], "padding": "same", "kernel_regularizer": null, "bias_regularizer": null, "use_bias": true, "name": "conv2d_249", "activation": "linear", "activity_regularizer": null, "strides": [1, 1], "dilation_rate": [1, 1], "data_format": "channels_last", "kernel_constraint": null, "trainable": true, "bias_constraint": null}, "class_name": "Conv2D", "inbound_nodes": [[["lambda_229", 0, 0, {}]]]}, {"name": "conv2d_250", "config": {"kernel_initializer": {"config": {"scale": 1.0, "mode": "fan_avg", "distribution": "uniform", "seed": null}, "class_name": "VarianceScaling"}, "bias_initializer": {"config": {}, "class_name": "Zeros"}, "filters": 32, "kernel_size": [3, 3], "padding": "same", "kernel_regularizer": null, "bias_regularizer": null, "use_bias": true, "name": "conv2d_250", "activation": "linear", "activity_regularizer": null, "strides": [1, 1], "dilation_rate": [1, 1], "data_format": "channels_last", "kernel_constraint": null, "trainable": true, "bias_constraint": null}, "class_name": "Conv2D", "inbound_nodes": [[["lambda_230", 0, 0, {}]]]}, {"name": "conv2d_251", "config": {"kernel_initializer": {"config": {"scale": 1.0, "mode": "fan_avg", "distribution": "uniform", "seed": null}, "class_name": "VarianceScaling"}, "bias_initializer": {"config": {}, "class_name": "Zeros"}, "filters": 32, "kernel_size": [3, 3], "padding": "same", "kernel_regularizer": null, "bias_regularizer": null, "use_bias": true, "name": "conv2d_251", "activation": "linear", "activity_regularizer": null, "strides": [1, 1], "dilation_rate": [1, 1], "data_format": "channels_last", "kernel_constraint": null, "trainable": true, "bias_constraint": null}, "class_name": "Conv2D", "inbound_nodes": [[["lambda_231", 0, 0, {}]]]}, {"name": "conv2d_252", "config": {"kernel_initializer": {"config": {"scale": 1.0, "mode": "fan_avg", "distribution": "uniform", "seed": null}, "class_name": "VarianceScaling"}, "bias_initializer": {"config": {}, "class_name": "Zeros"}, "filters": 32, "kernel_size": [3, 3], "padding": "same", "kernel_regularizer": null, "bias_regularizer": null, "use_bias": true, "name": "conv2d_252", "activation": "linear", "activity_regularizer": null, "strides": [1, 1], "dilation_rate": [1, 1], "data_format": "channels_last", "kernel_constraint": null, "trainable": true, "bias_constraint": null}, "class_name": "Conv2D", "inbound_nodes": [[["lambda_232", 0, 0, {}]]]}, {"name": "conv2d_253", "config": {"kernel_initializer": {"config": {"scale": 1.0, "mode": "fan_avg", "distribution": "uniform", "seed": null}, "class_name": "VarianceScaling"}, "bias_initializer": {"config": {}, "class_name": "Zeros"}, "filters": 32, "kernel_size": [3, 3], "padding": "same", "kernel_regularizer": null, "bias_regularizer": null, "use_bias": true, "name": "conv2d_253", "activation": "linear", "activity_regularizer": null, "strides": [1, 1], "dilation_rate": [1, 1], "data_format": "channels_last", "kernel_constraint": null, "trainable": true, "bias_constraint": null}, "class_name": "Conv2D", "inbound_nodes": [[["lambda_233", 0, 0, {}]]]}, {"name": "conv2d_254", "config": {"kernel_initializer": {"config": {"scale": 1.0, "mode": "fan_avg", "distribution": "uniform", "seed": null}, "class_name": "VarianceScaling"}, "bias_initializer": {"config": {}, "class_name": "Zeros"}, "filters": 32, "kernel_size": [3, 3], "padding": "same", "kernel_regularizer": null, "bias_regularizer": null, "use_bias": true, "name": "conv2d_254", "activation": "linear", "activity_regularizer": null, "strides": [1, 1], "dilation_rate": [1, 1], "data_format": "channels_last", "kernel_constraint": null, "trainable": true, "bias_constraint": null}, "class_name": "Conv2D", "inbound_nodes": [[["lambda_234", 0, 0, {}]]]}, {"name": "conv2d_255", "config": {"kernel_initializer": {"config": {"scale": 1.0, "mode": "fan_avg", "distribution": "uniform", "seed": null}, "class_name": "VarianceScaling"}, "bias_initializer": {"config": {}, "class_name": "Zeros"}, "filters": 32, "kernel_size": [3, 3], "padding": "same", "kernel_regularizer": null, "bias_regularizer": null, "use_bias": true, "name": "conv2d_255", "activation": "linear", "activity_regularizer": null, "strides": [1, 1], "dilation_rate": [1, 1], "data_format": "channels_last", "kernel_constraint": null, "trainable": true, "bias_constraint": null}, "class_name": "Conv2D", "inbound_nodes": [[["lambda_235", 0, 0, {}]]]}, {"name": "conv2d_256", "config": {"kernel_initializer": {"config": {"scale": 1.0, "mode": "fan_avg", "distribution": "uniform", "seed": null}, "class_name": "VarianceScaling"}, "bias_initializer": {"config": {}, "class_name": "Zeros"}, "filters": 32, "kernel_size": [3, 3], "padding": "same", "kernel_regularizer": null, "bias_regularizer": null, "use_bias": true, "name": "conv2d_256", "activation": "linear", "activity_regularizer": null, "strides": [1, 1], "dilation_rate": [1, 1], "data_format": "channels_last", "kernel_constraint": null, "trainable": true, "bias_constraint": null}, "class_name": "Conv2D", "inbound_nodes": [[["lambda_236", 0, 0, {}]]]}, {"name": "conv2d_257", "config": {"kernel_initializer": {"config": {"scale": 1.0, "mode": "fan_avg", "distribution": "uniform", "seed": null}, "class_name": "VarianceScaling"}, "bias_initializer": {"config": {}, "class_name": "Zeros"}, "filters": 32, "kernel_size": [3, 3], "padding": "same", "kernel_regularizer": null, "bias_regularizer": null, "use_bias": true, "name": "conv2d_257", "activation": "linear", "activity_regularizer": null, "strides": [1, 1], "dilation_rate": [1, 1], "data_format": "channels_last", "kernel_constraint": null, "trainable": true, "bias_constraint": null}, "class_name": "Conv2D", "inbound_nodes": [[["lambda_237", 0, 0, {}]]]}, {"name": "conv2d_258", "config": {"kernel_initializer": {"config": {"scale": 1.0, "mode": "fan_avg", "distribution": "uniform", "seed": null}, "class_name": "VarianceScaling"}, "bias_initializer": {"config": {}, "class_name": "Zeros"}, "filters": 32, "kernel_size": [3, 3], "padding": "same", "kernel_regularizer": null, "bias_regularizer": null, "use_bias": true, "name": "conv2d_258", "activation": "linear", "activity_regularizer": null, "strides": [1, 1], "dilation_rate": [1, 1], "data_format": "channels_last", "kernel_constraint": null, "trainable": true, "bias_constraint": null}, "class_name": "Conv2D", "inbound_nodes": [[["lambda_238", 0, 0, {}]]]}, {"name": "conv2d_259", "config": {"kernel_initializer": {"config": {"scale": 1.0, "mode": "fan_avg", "distribution": "uniform", "seed": null}, "class_name": "VarianceScaling"}, "bias_initializer": {"config": {}, "class_name": "Zeros"}, "filters": 32, "kernel_size": [3, 3], "padding": "same", "kernel_regularizer": null, "bias_regularizer": null, "use_bias": true, "name": "conv2d_259", "activation": "linear", "activity_regularizer": null, "strides": [1, 1], "dilation_rate": [1, 1], "data_format": "channels_last", "kernel_constraint": null, "trainable": true, "bias_constraint": null}, "class_name": "Conv2D", "inbound_nodes": [[["lambda_239", 0, 0, {}]]]}, {"name": "conv2d_260", "config": {"kernel_initializer": {"config": {"scale": 1.0, "mode": "fan_avg", "distribution": "uniform", "seed": null}, "class_name": "VarianceScaling"}, "bias_initializer": {"config": {}, "class_name": "Zeros"}, "filters": 32, "kernel_size": [3, 3], "padding": "same", "kernel_regularizer": null, "bias_regularizer": null, "use_bias": true, "name": "conv2d_260", "activation": "linear", "activity_regularizer": null, "strides": [1, 1], "dilation_rate": [1, 1], "data_format": "channels_last", "kernel_constraint": null, "trainable": true, "bias_constraint": null}, "class_name": "Conv2D", "inbound_nodes": [[["lambda_240", 0, 0, {}]]]}, {"name": "conv2d_261", "config": {"kernel_initializer": {"config": {"scale": 1.0, "mode": "fan_avg", "distribution": "uniform", "seed": null}, "class_name": "VarianceScaling"}, "bias_initializer": {"config": {}, "class_name": "Zeros"}, "filters": 32, "kernel_size": [3, 3], "padding": "same", "kernel_regularizer": null, "bias_regularizer": null, "use_bias": true, "name": "conv2d_261", "activation": "linear", "activity_regularizer": null, "strides": [1, 1], "dilation_rate": [1, 1], "data_format": "channels_last", "kernel_constraint": null, "trainable": true, "bias_constraint": null}, "class_name": "Conv2D", "inbound_nodes": [[["lambda_241", 0, 0, {}]]]}, {"name": "conv2d_262", "config": {"kernel_initializer": {"config": {"scale": 1.0, "mode": "fan_avg", "distribution": "uniform", "seed": null}, "class_name": "VarianceScaling"}, "bias_initializer": {"config": {}, "class_name": "Zeros"}, "filters": 32, "kernel_size": [3, 3], "padding": "same", "kernel_regularizer": null, "bias_regularizer": null, "use_bias": true, "name": "conv2d_262", "activation": "linear", "activity_regularizer": null, "strides": [1, 1], "dilation_rate": [1, 1], "data_format": "channels_last", "kernel_constraint": null, "trainable": true, "bias_constraint": null}, "class_name": "Conv2D", "inbound_nodes": [[["lambda_242", 0, 0, {}]]]}, {"name": "conv2d_263", "config": {"kernel_initializer": {"config": {"scale": 1.0, "mode": "fan_avg", "distribution": "uniform", "seed": null}, "class_name": "VarianceScaling"}, "bias_initializer": {"config": {}, "class_name": "Zeros"}, "filters": 32, "kernel_size": [3, 3], "padding": "same", "kernel_regularizer": null, "bias_regularizer": null, "use_bias": true, "name": "conv2d_263", "activation": "linear", "activity_regularizer": null, "strides": [1, 1], "dilation_rate": [1, 1], "data_format": "channels_last", "kernel_constraint": null, "trainable": true, "bias_constraint": null}, "class_name": "Conv2D", "inbound_nodes": [[["lambda_243", 0, 0, {}]]]}, {"name": "conv2d_264", "config": {"kernel_initializer": {"config": {"scale": 1.0, "mode": "fan_avg", "distribution": "uniform", "seed": null}, "class_name": "VarianceScaling"}, "bias_initializer": {"config": {}, "class_name": "Zeros"}, "filters": 32, "kernel_size": [3, 3], "padding": "same", "kernel_regularizer": null, "bias_regularizer": null, "use_bias": true, "name": "conv2d_264", "activation": "linear", "activity_regularizer": null, "strides": [1, 1], "dilation_rate": [1, 1], "data_format": "channels_last", "kernel_constraint": null, "trainable": true, "bias_constraint": null}, "class_name": "Conv2D", "inbound_nodes": [[["lambda_244", 0, 0, {}]]]}, {"name": "conv2d_265", "config": {"kernel_initializer": {"config": {"scale": 1.0, "mode": "fan_avg", "distribution": "uniform", "seed": null}, "class_name": "VarianceScaling"}, "bias_initializer": {"config": {}, "class_name": "Zeros"}, "filters": 32, "kernel_size": [3, 3], "padding": "same", "kernel_regularizer": null, "bias_regularizer": null, "use_bias": true, "name": "conv2d_265", "activation": "linear", "activity_regularizer": null, "strides": [1, 1], "dilation_rate": [1, 1], "data_format": "channels_last", "kernel_constraint": null, "trainable": true, "bias_constraint": null}, "class_name": "Conv2D", "inbound_nodes": [[["lambda_245", 0, 0, {}]]]}, {"name": "conv2d_266", "config": {"kernel_initializer": {"config": {"scale": 1.0, "mode": "fan_avg", "distribution": "uniform", "seed": null}, "class_name": "VarianceScaling"}, "bias_initializer": {"config": {}, "class_name": "Zeros"}, "filters": 32, "kernel_size": [3, 3], "padding": "same", "kernel_regularizer": null, "bias_regularizer": null, "use_bias": true, "name": "conv2d_266", "activation": "linear", "activity_regularizer": null, "strides": [1, 1], "dilation_rate": [1, 1], "data_format": "channels_last", "kernel_constraint": null, "trainable": true, "bias_constraint": null}, "class_name": "Conv2D", "inbound_nodes": [[["lambda_246", 0, 0, {}]]]}, {"name": "conv2d_267", "config": {"kernel_initializer": {"config": {"scale": 1.0, "mode": "fan_avg", "distribution": "uniform", "seed": null}, "class_name": "VarianceScaling"}, "bias_initializer": {"config": {}, "class_name": "Zeros"}, "filters": 32, "kernel_size": [3, 3], "padding": "same", "kernel_regularizer": null, "bias_regularizer": null, "use_bias": true, "name": "conv2d_267", "activation": "linear", "activity_regularizer": null, "strides": [1, 1], "dilation_rate": [1, 1], "data_format": "channels_last", "kernel_constraint": null, "trainable": true, "bias_constraint": null}, "class_name": "Conv2D", "inbound_nodes": [[["lambda_247", 0, 0, {}]]]}, {"name": "conv2d_268", "config": {"kernel_initializer": {"config": {"scale": 1.0, "mode": "fan_avg", "distribution": "uniform", "seed": null}, "class_name": "VarianceScaling"}, "bias_initializer": {"config": {}, "class_name": "Zeros"}, "filters": 32, "kernel_size": [3, 3], "padding": "same", "kernel_regularizer": null, "bias_regularizer": null, "use_bias": true, "name": "conv2d_268", "activation": "linear", "activity_regularizer": null, "strides": [1, 1], "dilation_rate": [1, 1], "data_format": "channels_last", "kernel_constraint": null, "trainable": true, "bias_constraint": null}, "class_name": "Conv2D", "inbound_nodes": [[["lambda_248", 0, 0, {}]]]}, {"name": "conv2d_269", "config": {"kernel_initializer": {"config": {"scale": 1.0, "mode": "fan_avg", "distribution": "uniform", "seed": null}, "class_name": "VarianceScaling"}, "bias_initializer": {"config": {}, "class_name": "Zeros"}, "filters": 32, "kernel_size": [3, 3], "padding": "same", "kernel_regularizer": null, "bias_regularizer": null, "use_bias": true, "name": "conv2d_269", "activation": "linear", "activity_regularizer": null, "strides": [1, 1], "dilation_rate": [1, 1], "data_format": "channels_last", "kernel_constraint": null, "trainable": true, "bias_constraint": null}, "class_name": "Conv2D", "inbound_nodes": [[["lambda_249", 0, 0, {}]]]}, {"name": "conv2d_270", "config": {"kernel_initializer": {"config": {"scale": 1.0, "mode": "fan_avg", "distribution": "uniform", "seed": null}, "class_name": "VarianceScaling"}, "bias_initializer": {"config": {}, "class_name": "Zeros"}, "filters": 32, "kernel_size": [3, 3], "padding": "same", "kernel_regularizer": null, "bias_regularizer": null, "use_bias": true, "name": "conv2d_270", "activation": "linear", "activity_regularizer": null, "strides": [1, 1], "dilation_rate": [1, 1], "data_format": "channels_last", "kernel_constraint": null, "trainable": true, "bias_constraint": null}, "class_name": "Conv2D", "inbound_nodes": [[["lambda_250", 0, 0, {}]]]}, {"name": "conv2d_271", "config": {"kernel_initializer": {"config": {"scale": 1.0, "mode": "fan_avg", "distribution": "uniform", "seed": null}, "class_name": "VarianceScaling"}, "bias_initializer": {"config": {}, "class_name": "Zeros"}, "filters": 32, "kernel_size": [3, 3], "padding": "same", "kernel_regularizer": null, "bias_regularizer": null, "use_bias": true, "name": "conv2d_271", "activation": "linear", "activity_regularizer": null, "strides": [1, 1], "dilation_rate": [1, 1], "data_format": "channels_last", "kernel_constraint": null, "trainable": true, "bias_constraint": null}, "class_name": "Conv2D", "inbound_nodes": [[["lambda_251", 0, 0, {}]]]}, {"name": "conv2d_272", "config": {"kernel_initializer": {"config": {"scale": 1.0, "mode": "fan_avg", "distribution": "uniform", "seed": null}, "class_name": "VarianceScaling"}, "bias_initializer": {"config": {}, "class_name": "Zeros"}, "filters": 32, "kernel_size": [3, 3], "padding": "same", "kernel_regularizer": null, "bias_regularizer": null, "use_bias": true, "name": "conv2d_272", "activation": "linear", "activity_regularizer": null, "strides": [1, 1], "dilation_rate": [1, 1], "data_format": "channels_last", "kernel_constraint": null, "trainable": true, "bias_constraint": null}, "class_name": "Conv2D", "inbound_nodes": [[["lambda_252", 0, 0, {}]]]}, {"name": "conv2d_273", "config": {"kernel_initializer": {"config": {"scale": 1.0, "mode": "fan_avg", "distribution": "uniform", "seed": null}, "class_name": "VarianceScaling"}, "bias_initializer": {"config": {}, "class_name": "Zeros"}, "filters": 32, "kernel_size": [3, 3], "padding": "same", "kernel_regularizer": null, "bias_regularizer": null, "use_bias": true, "name": "conv2d_273", "activation": "linear", "activity_regularizer": null, "strides": [1, 1], "dilation_rate": [1, 1], "data_format": "channels_last", "kernel_constraint": null, "trainable": true, "bias_constraint": null}, "class_name": "Conv2D", "inbound_nodes": [[["lambda_253", 0, 0, {}]]]}, {"name": "conv2d_274", "config": {"kernel_initializer": {"config": {"scale": 1.0, "mode": "fan_avg", "distribution": "uniform", "seed": null}, "class_name": "VarianceScaling"}, "bias_initializer": {"config": {}, "class_name": "Zeros"}, "filters": 32, "kernel_size": [3, 3], "padding": "same", "kernel_regularizer": null, "bias_regularizer": null, "use_bias": true, "name": "conv2d_274", "activation": "linear", "activity_regularizer": null, "strides": [1, 1], "dilation_rate": [1, 1], "data_format": "channels_last", "kernel_constraint": null, "trainable": true, "bias_constraint": null}, "class_name": "Conv2D", "inbound_nodes": [[["lambda_254", 0, 0, {}]]]}, {"name": "conv2d_275", "config": {"kernel_initializer": {"config": {"scale": 1.0, "mode": "fan_avg", "distribution": "uniform", "seed": null}, "class_name": "VarianceScaling"}, "bias_initializer": {"config": {}, "class_name": "Zeros"}, "filters": 32, "kernel_size": [3, 3], "padding": "same", "kernel_regularizer": null, "bias_regularizer": null, "use_bias": true, "name": "conv2d_275", "activation": "linear", "activity_regularizer": null, "strides": [1, 1], "dilation_rate": [1, 1], "data_format": "channels_last", "kernel_constraint": null, "trainable": true, "bias_constraint": null}, "class_name": "Conv2D", "inbound_nodes": [[["lambda_255", 0, 0, {}]]]}, {"name": "conv2d_276", "config": {"kernel_initializer": {"config": {"scale": 1.0, "mode": "fan_avg", "distribution": "uniform", "seed": null}, "class_name": "VarianceScaling"}, "bias_initializer": {"config": {}, "class_name": "Zeros"}, "filters": 32, "kernel_size": [3, 3], "padding": "same", "kernel_regularizer": null, "bias_regularizer": null, "use_bias": true, "name": "conv2d_276", "activation": "linear", "activity_regularizer": null, "strides": [1, 1], "dilation_rate": [1, 1], "data_format": "channels_last", "kernel_constraint": null, "trainable": true, "bias_constraint": null}, "class_name": "Conv2D", "inbound_nodes": [[["lambda_256", 0, 0, {}]]]}, {"name": "concatenate_8", "config": {"name": "concatenate_8", "trainable": true, "axis": -1}, "class_name": "Concatenate", "inbound_nodes": [[["conv2d_245", 0, 0, {}], ["conv2d_246", 0, 0, {}], ["conv2d_247", 0, 0, {}], ["conv2d_248", 0, 0, {}], ["conv2d_249", 0, 0, {}], ["conv2d_250", 0, 0, {}], ["conv2d_251", 0, 0, {}], ["conv2d_252", 0, 0, {}], ["conv2d_253", 0, 0, {}], ["conv2d_254", 0, 0, {}], ["conv2d_255", 0, 0, {}], ["conv2d_256", 0, 0, {}], ["conv2d_257", 0, 0, {}], ["conv2d_258", 0, 0, {}], ["conv2d_259", 0, 0, {}], ["conv2d_260", 0, 0, {}], ["conv2d_261", 0, 0, {}], ["conv2d_262", 0, 0, {}], ["conv2d_263", 0, 0, {}], ["conv2d_264", 0, 0, {}], ["conv2d_265", 0, 0, {}], ["conv2d_266", 0, 0, {}], ["conv2d_267", 0, 0, {}], ["conv2d_268", 0, 0, {}], ["conv2d_269", 0, 0, {}], ["conv2d_270", 0, 0, {}], ["conv2d_271", 0, 0, {}], ["conv2d_272", 0, 0, {}], ["conv2d_273", 0, 0, {}], ["conv2d_274", 0, 0, {}], ["conv2d_275", 0, 0, {}], ["conv2d_276", 0, 0, {}]]]}, {"name": "batch_normalization_28", "config": {"epsilon": 0.001, "momentum": 0.99, "beta_constraint": null, "scale": true, "gamma_constraint": null, "gamma_regularizer": null, "gamma_initializer": {"config": {}, "class_name": "Ones"}, "axis": -1, "name": "batch_normalization_28", "center": true, "beta_regularizer": null, "beta_initializer": {"config": {}, "class_name": "Zeros"}, "moving_mean_initializer": {"config": {}, "class_name": "Zeros"}, "moving_variance_initializer": {"config": {}, "class_name": "Ones"}, "trainable": true}, "class_name": "BatchNormalization", "inbound_nodes": [[["concatenate_8", 0, 0, {}]]]}, {"name": "leaky_re_lu_24", "config": {"name": "leaky_re_lu_24", "alpha": 0.30000001192092896, "trainable": true}, "class_name": "LeakyReLU", "inbound_nodes": [[["batch_normalization_28", 0, 0, {}]]]}, {"name": "conv2d_277", "config": {"kernel_initializer": {"config": {"scale": 1.0, "mode": "fan_avg", "distribution": "uniform", "seed": null}, "class_name": "VarianceScaling"}, "bias_initializer": {"config": {}, "class_name": "Zeros"}, "filters": 2048, "kernel_size": [1, 1], "padding": "same", "kernel_regularizer": null, "bias_regularizer": null, "use_bias": true, "name": "conv2d_277", "activation": "linear", "activity_regularizer": null, "strides": [1, 1], "dilation_rate": [1, 1], "data_format": "channels_last", "kernel_constraint": null, "trainable": true, "bias_constraint": null}, "class_name": "Conv2D", "inbound_nodes": [[["leaky_re_lu_24", 0, 0, {}]]]}, {"name": "batch_normalization_29", "config": {"epsilon": 0.001, "momentum": 0.99, "beta_constraint": null, "scale": true, "gamma_constraint": null, "gamma_regularizer": null, "gamma_initializer": {"config": {}, "class_name": "Ones"}, "axis": -1, "name": "batch_normalization_29", "center": true, "beta_regularizer": null, "beta_initializer": {"config": {}, "class_name": "Zeros"}, "moving_mean_initializer": {"config": {}, "class_name": "Zeros"}, "moving_variance_initializer": {"config": {}, "class_name": "Ones"}, "trainable": true}, "class_name": "BatchNormalization", "inbound_nodes": [[["conv2d_277", 0, 0, {}]]]}, {"name": "add_8", "config": {"name": "add_8", "trainable": true}, "class_name": "Add", "inbound_nodes": [[["leaky_re_lu_22", 0, 0, {}], ["batch_normalization_29", 0, 0, {}]]]}, {"name": "leaky_re_lu_25", "config": {"name": "leaky_re_lu_25", "alpha": 0.30000001192092896, "trainable": true}, "class_name": "LeakyReLU", "inbound_nodes": [[["add_8", 0, 0, {}]]]}, {"name": "global_average_pooling2d_1", "config": {"name": "global_average_pooling2d_1", "data_format": "channels_last", "trainable": true}, "class_name": "GlobalAveragePooling2D", "inbound_nodes": [[["leaky_re_lu_25", 0, 0, {}]]]}, {"name": "dense_1", "config": {"kernel_initializer": {"config": {"scale": 1.0, "mode": "fan_avg", "distribution": "uniform", "seed": null}, "class_name": "VarianceScaling"}, "bias_initializer": {"config": {}, "class_name": "Zeros"}, "bias_regularizer": null, "kernel_regularizer": null, "units": 1, "name": "dense_1", "activation": "linear", "use_bias": true, "bias_constraint": null, "activity_regularizer": null, "kernel_constraint": null, "trainable": true}, "class_name": "Dense", "inbound_nodes": [[["global_average_pooling2d_1", 0, 0, {}]]]}]}, "backend": "tensorflow", "class_name": "Model", "keras_version": "2.2.0"}